pracs/prac6/digit_classifier_net.pth (torch, 414652 bytes, 32 tensors)

0.0.weight f4 [16, 1, 3, 3]
0.058119636 0.032080416 -0.1871821 -0.092112966 0.231711 0.020220991 0.27669516 0.3251905
-0.25563708 -0.042404983 -0.09844105 0.063243896 -0.0819378 0.23521045 0.09571492 -0.31274375
-0.002191621 0.28976128 0.0004006534 0.22259514 -0.25956747 -0.1582399 -0.2578017 0.124198265
0.14789271 0.32074305 -0.29897726 0.14094 -0.004218483 0.106433384 -0.26557994 -0.364397
-0.24332243 -0.3199962 -0.030472526 -0.24405111 -0.25115573 0.2869407 -0.18641303 0.24241294
0.03232594 -0.12978426 -0.21615167 -0.1657695 -0.15408108 0.34178925 0.30815145 -0.2761863
0.25606683 -0.18185222 -0.21553761 0.27185434 -0.20134912 0.17542838 0.30618763 0.37743422
0.12352662 -0.034350514 -0.21995643 0.091299236 0.28302646 -0.2625519 -0.026699893 -0.2284355
-0.14771535 0.065008335 0.21106572 0.023943137 0.2796237 0.0150333075 0.33547786 -0.22323526
-0.19175136 0.13844216 0.2889765 0.30946428 -0.1647365 -0.2286595 0.17192006 0.28565812
0.119287774 0.06356695 -0.03294108 -0.115673415 0.17038006 0.029995015 0.10340036 0.20699379
-0.10206867 0.2568969 0.26005635 0.22214288 -0.27144444 0.0033236924 0.007962423 -0.2229033
0.17946228 0.15670598 -0.28273353 0.18181929 -0.21781547 0.21748067 0.079754986 0.10092061
-0.12329956 -0.03540532 -0.30427343 0.08007378 -0.11536283 0.24539016 -0.27698123 0.066917464
0.0017650808 0.2532168 -0.3132073 0.03590694 0.10674941 0.095548205 0.061026163 0.040057085
-0.28654075 0.37638423 -0.26461452 -0.02826721 0.21329172 0.19394642 -0.25216177 -0.30355263
0.14793633 -0.028683897 -0.25603884 0.052899238 0.05741549 0.17308328 0.038975533 0.28884098
-0.023657091 -0.23222148 0.17074212 0.091089725 -0.041298978 -0.08969793 0.28180715 0.17391358
00000000: db0e 6e3d c166 033d aaac 3fbe b9a5 bcbd
00000010: a645 6d3e 7ea6 a53c fdaa 8d3e 5f7f a63e
00000020: dde2 82be d9b0 2dbd 769b c9bd 0486 813d
00000030: 01cf a7bd 02db 703e 2f06 c43d f31f a0be
00000040: 4da1 0fbb 975b 943e ca0e d239 fbef 633e
00000050: 07e6 84be a409 22be 96fe 83be a95b fe3d
00000060: 3071 173e 6f38 a43e 8c13 99be 9352 103e
00000070: 333b 8abb bff9 d93d 18fa 87be 3e92 babe
00000080: 8429 79be 8bd6 a3be 85a1 f9bc 89e8 79be
00000090: 7c97 80be e4e9 923e 0fe3 3ebe 193b 783e
000000a0: 3468 043d 2ae6 04be dd56 5dbe 7bbf 29be
000000b0: 6ec7 1dbe 00ff ae3e 07c6 9d3e 4a68 8dbe
000000c0: 311b 833e 7837 3abe e4b5 5cbe 7e30 8b3e
000000d0: 772e 4ebe 7fa3 333e a0c4 9c3e 0f3f c13e
000000e0: 86fb fc3d 20b3 0cbd 423c 61be 18fb ba3d
000000f0: d8e8 903e 346d 86be bcb9 dabc ffea 69be
00000100: b142 17be 1723 853d 9d21 583e 6624 c43c
00000110: d62a 8f3e 434e 763c c1c3 ab3e c997 64be
00000120: 785a 44be c8c3 0d3e baf4 933e 1a72 9e3e
00000130: afb0 28be b725 6abe d00b 303e c841 923e
00000140: 264d f43d 642f 823d 3aed 06bd 2fe6 ecbd
00000150: 1c78 2e3e 1bb8 f53c 91c3 d33d 2ef6 533e
00000160: 6109 d1bd fe87 833e 1b26 853e 6c79 633e
00000170: c4fa 8abe 4ed2 593b d374 023c c340 64be
00000180: f6c4 373e 8877 203e 73c2 90be d62e 3a3e
00000190: 050b 5fbe 41b3 5e3e 9556 a33d 77af ce3d
000001a0: 7b84 fcbd 2b05 11bd bac9 9bbe b9fd a33d
000001b0: 5943 ecbd 8f47 7b3e 7cd0 8dbe 060c 893d
000001c0: 495a e73a a2a5 813e b55c a0be 2813 133d
000001d0: 6f9f da3d c7ae c33d 92f6 793d e612 243d
000001e0: 78b5 92be 6fb5 c03e 8e7b 87be a390 e7bc
000001f0: 2569 5a3e e499 463e 591b 81be 406b 9bbe
00000200: 9f7c 173e 7efa eabc 8617 83be dfac 583d
00000210: 812c 6b3d be3c 313e cfa4 1f3d f7e2 933e
00000220: 84cc c1bc 78cb 6dbe 06d7 2e3e 408d ba3d
00000230: 1e29 29bd 8cb3 b7bd 0749 903e 6716 323e

0.0.bias f4 [16]
-0.052415427 0.03437869 -0.17390206 -0.25295708 -0.0807803 -0.30417833 -0.0005890039 0.31155923
0.038653575 -0.10415439 0.26977193 0.2323649 -0.30222976 -0.27075356 -0.08466766 0.31288764
00000000: 8fb1 56bd abd0 0c3d 6213 32be 9783 81be
00000010: 2470 a5bd 43bd 9bbe 6267 1aba b184 9f3e
00000020: 3653 1e3d e64e d5bd 8c1f 8a3e 10f1 6d3e
00000030: dcbd 9abe 36a0 8abe 3d66 adbd cf32 a03e

0.1.weight f4 [16]
0.9994129 0.98737276 0.9744059 0.9816494 0.9701532 1.0134467 1.0189563 1.0270184
0.97042865 0.9772549 0.992485 0.98175275 1.0095668 0.9926295 0.99337345 1.0282799
00000000: 86d9 7f3f 76c4 7c3f aa72 793f 604d 7b3f
00000010: f65b 783f 9fb8 813f 296d 823f 5775 833f
00000020: 036e 783f 612d 7a3f 7f13 7e3f 2654 7b3f
00000030: 7c39 813f f81c 7e3f b94d 7e3f ad9e 833f

0.1.bias f4 [16]
-0.03434559 0.021860773 0.014275016 0.003431972 -0.00073337014 -0.04132329 -0.0065832906 0.029005263
-0.04831033 -0.027466021 0.043166973 0.06211004 -0.07242023 -0.022055157 0.000112991525 -0.03379346
00000000: f6ad 0cbd 5d15 b33c c2e1 693c f0ea 603b
00000010: a33f 40ba 9c42 29bd a5b8 d7bb 729c ed3c
00000020: 0de1 45bd 6c00 e1bc dacf 303d 1967 7e3d
00000030: 0f51 94bd 04ad b4bc ddf5 ec38 036b 0abd

0.1.running_mean f4 [16]
-0.37631482 -0.08260408 -0.05294283 0.6974748 0.32183823 -0.65639716 -0.46991512 0.042240966
-0.5115999 -0.5495961 0.2304037 0.25194055 -0.31750685 -0.576839 0.20335907 -0.16257337
00000000: 56ac c0be 542c a9bd 95da 58bd b58d 323f
00000010: fbc7 a43e a509 28bf b798 f0be dd04 2d3d
00000020: 36f8 02bf 54b2 0cbf f3ee 6b3e 5afe 803e
00000030: 4290 a2be b9ab 13bf 5c3d 503e a279 26be

0.1.running_var f4 [16]
0.017931899 0.008469851 0.0053475536 0.09969673 0.025472451 0.03016148 0.040336758 0.009751388
0.039691377 0.024403235 0.01473935 0.003878282 0.0037591709 0.0153779555 0.017906435 0.027851323
00000000: ebe5 923c 21c5 0a3c 883a af3b cd2d cc3d
00000010: 9aab d03c 3515 f73c 2838 253d 49c4 1f3c
00000020: 6d93 223d 4be9 c73c 517d 713c c62a 7e3b
00000030: 6c5c 763b d2f3 7b3c 84b0 923c 7528 e43c

1.0.weight f4 [32, 16, 3, 3]
0.073837966 0.027376005 -0.06092958 0.02582473 -0.006274934 -0.05308504 0.044558823 -0.03592295
0.04817459 0.017672187 0.049362667 0.019363597 0.0009887604 -0.02267578 -0.06678726 -0.07228663
0.079818495 0.063316114 0.067697875 -0.075731166 -0.06906476 -0.0566124 -0.0026965418 0.055910915
0.03205522 -0.09415544 -0.06291198 -0.07031959 0.050435614 0.046192076 0.03353765 0.012489706
0.05777734 -0.08103402 -0.00094133243 -0.02307074 0.0026467636 0.048672207 -0.06719109 0.003991342
-0.0660352 0.03795956 -0.018106632 0.011412637 -0.09479806 -0.047800127 0.06193821 0.0058704074
-0.035798393 -0.024443273 -0.051708594 -0.061001662 0.02488512 -0.057365086 -0.06535609 0.04954921
-0.008251227 -0.115423195 0.031990614 -0.08622007 0.07325784 -0.07627171 0.028945342 -0.09457555
0.02055058 -0.044384938 0.050969623 -0.100284815 -0.0049157515 0.012914252 0.07549071 0.047919832
-0.019781109 0.032831345 0.036952905 -0.05608677 -0.0058122384 -0.042704917 -0.040468212 -0.043303825
0.005997003 0.00433291 0.06644024 0.059177447 -0.018624581 -0.06496954 0.033724234 -0.07085678
0.034668397 0.091857776 -0.020503074 -0.026427714 -0.0034663004 -0.09316738 -0.06513679 0.01551013
0.063443966 0.087791815 -0.008648191 0.071621075 0.093206316 0.055819657 -0.005390398 0.079667225
-0.061581563 0.07858687 -0.056127355 -0.041691057 -0.009354604 -0.052859094 -0.02661751 -0.005360386
-0.06783961 -0.04879416 0.026055353 0.07994561 -0.025044054 -0.02542417 0.011949337 -0.003230713
0.055972308 -0.0022059702 0.07772553 -0.0287219 0.020034395 0.07494945 -0.06415001 0.0031122724
-0.08530299 -0.08030774 0.020493379 -0.07127989 0.023758315 -0.070941955 -0.028237727 0.011641612
-0.08516347 -0.027338726 0.02715648 -0.00784898 0.0027534154 -0.07690488 -0.006117103 0.05613145
0.067876846 0.03638136 -0.036177527 0.019023037 -0.076387696 -0.07228186 0.049950317 -0.01668967
0.03118157 0.064490855 0.032642834 0.053675365 -0.051679686 0.003258722 -0.079853 0.04781301
0.086424954 0.057383392 0.055306483 0.012239504 -0.084213175 -0.0050790394 0.03726131 0.05598896
0.03443688 0.06901972 0.090501405 0.06545648 -0.059114866 -0.0005484058 -0.04828631 -0.04314709
-0.027129278 -0.080899045 -0.03582705 0.09028654 -0.04454819 0.057180565 -0.08010059 -0.07093638
0.04329904 0.080051966 0.046189383 0.008669915 -0.072731085 0.039032217 0.08042218 0.09751865
-0.051292717 0.015113391 0.043478657 0.024730584 0.04117781 -0.062140755 -0.06318218 0.06728245
0.035635598 0.060755312 0.059255563 -0.08207366 -0.018649265 -0.0048882137 -0.06463811 -0.012731523
0.038327485 -0.055265825 0.044812668 -0.06872544 -0.034352716 -0.051053118 -0.017935874 -0.024178335
0.04379335 0.016709873 -0.03527566 0.016911887 -0.05477629 0.018246071 0.064678 -0.04004525
0.0076015326 -0.04565012 0.059918825 0.052137792 -0.01844178 0.04764472 0.034119565 -0.023195207
-0.07069556 0.053201634 0.03201963 -0.047442045 0.0885734 0.014267199 -0.0165422 -0.0020527819
0.010002321 -0.013066487 0.0502204 -0.062452987 -0.042674907 0.018638348 0.041045967 0.070511125
-0.037063763 0.011077587 -0.050825574 0.039561484 -0.0331879 -0.072690524 -0.04577877 0.0018807694
00000000: 5c38 973d a543 e03c 4c91 79bd 628e d33c
00000010: f69d cdbb b36f 59bd 5083 363d f123 13bd
00000020: b852 453d 43c5 903c 8230 4a3d 68a0 9e3c
00000030: 4b99 813a 8fc2 b9bc c2c7 88bd 030b 94bd
00000040: e177 a33d e1ab 813d 2fa5 8a3d f118 9bbd
00000050: d371 8dbd 67e2 67bd 77b8 30bb d802 653d
00000060: 564c 033d 91d4 c0bd ffd7 80bd b803 90bd
00000070: 9395 4e3d e733 3d3d c65e 093d a0a1 4c3c
00000080: efa7 6c3d 2af5 a5bd c0c3 76ba d9fe bcbc
00000090: 5375 2d3b 825c 473d 7b9b 89bd cec9 823b
000000a0: 773d 87bd 7c7b 1b3d 5c54 94bc 12fc 3a3c
000000b0: 7c25 c2bd 11ca 43bd ecb2 7d3d 8c5c c03b
000000c0: 56a1 12bd 423d c8bc 64cc 53bd e1dc 79bd
000000d0: e1db cb3c a7f7 6abd 6ad9 85bd 1df4 4a3d
000000e0: 2830 07bc ff62 ecbd 9708 033d 2694 b0bd
000000f0: 3508 963d 5834 9cbd c81e ed3c d3b0 c1bd
00000100: b159 a83c fbcc 35bd 86c5 503d 2062 cdbd
00000110: 5014 a1bb 4c96 533c e09a 9a3d 9647 443d
00000120: fe0b a2bc 297a 063d ee5b 173d 3ebb 65bd
00000130: 9774 bebb 5aeb 2ebd ffc1 25bd 5a5f 31bd
00000140: 8282 c43b 15fb 8d3b d211 883d 0d64 723d
00000150: 9492 98bc c00e 85bd 6c22 0a3d 5c1d 91bd
00000160: 7300 0e3d ee1f bc3d 10f6 a7bc ef7e d8bc
00000170: df2a 63bb 8ace bebd 7066 85bd 331e 7e3c
00000180: e9ee 813d 32cc b33d 24b1 0dbc 12ae 923d
00000190: f4e2 be3d 27a3 643d f0a1 b0bb 9228 a33d
000001a0: f33c 7cbd 27f2 a03d cce5 65bd 3ec4 2abd
000001b0: 0e44 19bc c782 58bd f70c dabc 2da6 afbb
000001c0: 7eef 8abd 63dc 47bd 0972 d53c 86ba a33d
000001d0: 3029 cdbc 5946 d0bc 27c7 433c 5fba 53bb
000001e0: 3843 653d 0a92 10bb 902e 9f3d 314a ebbc
000001f0: 2c1f a43c 197f 993d 1561 83bd 44f7 4b3b
00000200: 56b3 aebd 6278 a4bd bbe1 a73c 31fb 91bd
00000210: cca0 c23c 044a 91bd ce52 e7bc 76bc 3e3c
00000220: 2f6a aebd 77f5 dfbc 4477 de3c 0299 00bc
00000230: a572 343b 4e80 9dbd fb71 c8bb 17ea 653d
00000240: 0403 8b3d 9f04 153d e32e 14bd 33d6 9b3c
00000250: 2771 9cbd 8308 94bd b498 4c3d c6b8 88bc
00000260: 7e70 ff3c c813 843d 7eb4 053d b3da 5b3d
00000270: 14ae 53bd 4890 553b f889 a3bd 93d7 433d
00000280: 91ff b03d d90a 6b3d 0d89 623d 3388 483c
00000290: f577 acbd 126e a6bb 519f 183d ae54 653d
000002a0: b00d 0d3d 365a 8d3d cd58 b93d 0c0e 863d
000002b0: 6e22 72bd e4c2 0fba dec7 45bd 01bb 30bd
000002c0: 383e debc 66ae a5bd 63bf 12bd 26e8 b83d
000002d0: 2a78 36bd 2b36 6a3d c70b a4bd 1847 91bd
000002e0: 565a 313d 49f2 a33d 1431 3d3d 420c 0e3c
000002f0: 09f4 94bd 3fe0 1f3d 62b4 a43d dcb7 c73d
00000300: 5018 52bd 289e 773c ad16 323d cb97 ca3c
00000310: 10aa 283d 4e87 7ebd a965 81bd 62cb 893d
00000320: a2f6 113d 90da 783d f6b5 723d 3c16 a8bd
00000330: 58c6 98bc 4f2d a0bb fc60 84bd e197 50bc
00000340: 48fd 1c3d 6b5e 62bd 7d8d 373d ecbf 8cbd
00000350: 6fb5 0cbd 131d 51bd 41ee 92bc a511 c6bc
00000360: a860 333d 25e3 883c 367d 10bd cc8a 8a3c
00000370: 1a5d 60bd c978 953c e675 843d 7d06 24bd
00000380: 4716 f93b 9ffb 3abd 716d 753d 708e 553d
00000390: 3713 97bc 1c27 433d f5c0 0b3d e003 bebc
000003a0: d5c8 90bd f5e9 593d 0427 033d 9752 42bd
000003b0: f965 b53d f8c0 693c 8283 87bc f787 06bb
000003c0: c6e0 233c d214 56bc e8b3 4d3d b4ce 7fbd
000003d0: e2cb 2ebd 73af 983c d11f 283d 2368 903d
000003e0: 2cd0 17bd c47e 353c 7a2e 50bd 390b 223d
000003f0: 09f0 07bd c5de 94bd 8582 3bbd 2684 f63a

1.0.bias f4 [32]
-0.040549856 -0.04105825 -0.038862087 0.0059318347 0.010113836 0.05066788 0.05038482 0.022307388
0.06982662 -0.06428944 0.06291915 0.06357678 -0.030767992 -0.0649941 -0.01688378 -0.021472992
-0.069251195 -0.07529372 -0.05654157 -0.028403 -0.0018800166 -0.043103583 0.064693876 0.039215833
0.027479181 0.0035224184 0.01879318 -0.07013646 0.030233001 -0.07406453 0.015218433 -0.06265675
00000000: 9b17 26bd b22c 28bd da2d 1fbd d65f c23b
00000010: 81b4 253c 1f89 4f3d 5060 4e3d fcbd b63c
00000020: 4201 8f3d 2faa 83bd c1db 803d 8b34 823d
00000030: 280d fcbc a01b 85bd da4f 8abc 21e8 afbc
00000040: 92d3 8dbd 9833 9abd 2298 67bd 69ad e8bc
00000050: e46a f6ba 628d 30bd 397e 843d c8a0 203d
00000060: 051c e13c 60d8 663b 28f4 993c b4a3 8fbd
00000070: 33ab f73c 25af 97bd bc56 793c 2f52 80bd

1.1.weight f4 [32]
0.9734209 0.98918027 0.98093194 0.97190726 0.99788654 0.98786503 0.97852904 0.9976263
1.0144056 1.039631 0.97580504 1.0502867 0.9767669 0.9833959 1.0580786 1.0170074
1.0364828 0.9796826 0.975551 0.9711586 1.0215398 1.0136173 0.9735396 0.95352495
0.9951393 1.0032052 0.99127686 0.9728337 0.9968629 0.997295 1.0057795 0.99404925
00000000: 1d32 793f eb3a 7d3f 5b1e 7b3f eace 783f
00000010: 7e75 7f3f b9e4 7c3f e180 7a3f 7064 7f3f
00000020: 0bd8 813f a112 853f 5cce 793f cb6f 863f
00000030: 650d 7a3f d5bf 7b3f 1f6f 873f 4c2d 823f
00000040: 78ab 843f 7bcc 7a3f b6bd 793f da9d 783f
00000050: d1c1 823f 36be 813f e439 793f 361a 743f
00000060: 73c1 7e3f 0769 803f 52c4 7d3f a10b 793f
00000070: 6832 7f3f ba4e 7f3f 62bd 803f 037a 7e3f

1.1.bias f4 [32]
-0.031083444 -0.04441629 -0.028659476 -0.033022758 -0.03719324 -0.0321646 0.0046392004 -0.041120317
-0.024684066 -0.0009789296 -0.018503523 -0.00842669 0.0067014485 -0.02696435 0.0013676517 -0.027476022
-0.024883106 -0.010718343 -0.03125622 -0.0060295076 -0.022899404 0.019063892 0.015319173 -0.024163356
-0.069130816 -0.0017735546 -0.048571903 -0.01801205 0.011184125 -0.017362386 -0.054136723 -0.030419061
00000000: b5a2 febc dbed 35bd 47c7 eabc df42 07bd
00000010: f057 18bd 07bf 03bd 6f04 983b c76d 28bd
00000020: 3d36 cabc 6d4f 80ba b394 97bc 1910 0abc
00000030: d397 db3b 57e4 dcbc c742 b33a 6515 e1bc
00000040: a8d7 cbbc fd9b 2fbc 8606 00bd 2d93 c5bb
00000050: 8897 bbbc e12b 9c3c 45fd 7a3c 3bf2 c5bc
00000060: 7594 8dbd 9e76 e8ba 55f3 46bd 028e 93bc
00000070: 9f3d 373c 903b 8ebc 78be 5dbd 6531 f9bc

1.1.running_mean f4 [32]
-0.4502087 0.32132006 -1.2114617 -0.17310223 0.07740421 -0.13729894 -0.18326549 0.3650507
0.304431 -0.118482344 0.06671339 -0.065086484 -0.44629675 0.41157869 -0.12989983 0.6064033
-0.5580743 -0.23599629 -0.9675269 -1.238842 0.25977302 0.3586999 -0.34721398 -0.40062392
-0.17276697 -0.54493773 0.29570654 0.010256627 -0.39169493 -0.6372862 0.6951277 -0.193515
00000000: c181 e6be 1084 a43e 2d11 9bbf b641 31be
00000010: 1986 9e3d 1898 0cbe f3a9 3bbe ede7 ba3e
00000020: 61de 9b3e dfa6 f2bd 08a1 883d 104c 85bd
00000030: 0281 e4be 71ba d23e 7604 05be 3f3d 1b3f
00000040: f5dd 0ebf 03a9 71be d8af 77bf 6092 9ebf
00000050: f800 853e 83a7 b73e 08c6 b1be 941e cdbe
00000060: d3e9 30be 0a81 0bbf d966 973e 690b 283c
00000070: 3d8c c8be 3025 23bf e4f3 313f cc28 46be

1.1.running_var f4 [32]
0.1097904 0.11834413 0.9326747 0.35239178 0.28148046 0.26181856 0.15431811 0.24565239
0.1299175 0.07431573 0.22129828 0.41415936 0.16811106 0.3055203 0.10627755 0.3423899
0.17966494 0.28007224 0.7571508 0.3510844 0.11890016 0.304354 0.1730935 0.6622262
0.12981002 0.098035365 0.25814793 0.14887992 0.3461498 0.18291806 0.5054676 0.06430218
00000000: cad9 e03d 685e f23d c5c3 6e3f b26c b43e
00000010: 351e 903e 150d 863e 9105 1e3e 4d8c 7b3e
00000020: 1809 053e d832 983d 049c 623e b20c d43e
00000030: 4e25 2c3e 286d 9c3e 0ba8 d93d bb4d af3e
00000040: 16fa 373e a165 8f3e a3d4 413f 56c1 b33e
00000050: ed81 f33d 4ad4 9b3e 6c3f 313e a887 293f
00000060: ebec 043e c4c6 c83d f72b 843e fa73 183e
00000070: 8c3a b13e df4e 3b3e 5366 013f ddb0 833d

2.0.weight f4 [64, 32, 3, 3]
-0.018236984 0.055520687 -0.06299652 0.058053046 -0.004533324 -0.037894227 -0.07367314 -0.02845133
0.030842947 -0.036478072 0.03800973 0.0058145886 -0.0019941337 -0.031118348 0.0012035969 0.008064778
0.072269574 0.064015925 -0.046934463 0.023389136 -0.008360752 -0.021579325 -0.037958108 -0.014689914
0.037422672 -0.016473558 0.054684196 0.019929972 -0.04549086 0.052767362 -0.005388391 -0.013954395
0.0815489 -0.01313347 0.041808758 0.008946508 0.04629274 -0.059364617 0.024936382 -0.01915129
-0.031254265 0.016465569 0.07960782 -0.012758131 0.033473648 -0.05064619 -0.03862121 -0.048688307
-0.023539087 -0.04015944 -0.030338375 -0.0019780388 -0.008215172 0.007247092 -0.021218656 -0.010707107
0.008991002 0.06853895 0.029124195 -0.07271544 -0.056608822 -0.018843727 -0.041621592 0.005253568
-0.041099165 -0.05308184 0.07746825 0.033340547 -0.00884489 0.0012798009 0.005074699 -0.04687735
-6.987568e-05 -0.026983531 0.021913981 0.031957876 0.0028792312 0.06705293 0.07396025 0.033096317
-0.09032315 -0.0046439115 -0.003153633 -0.022241909 0.007928413 -0.056141507 -0.073077366 0.07148719
-0.029529648 -0.023512047 -0.05586755 -0.00069218106 -0.06712398 -0.0475694 0.007136133 -0.028768135
-0.021077957 -0.07943032 0.039191693 0.0018147011 -0.055026438 0.004284032 -0.051232222 0.016210858
0.054987077 -0.075819574 0.032085974 0.010273059 0.009841857 0.0029616347 -0.0240043 -0.03056608
0.02776266 -0.06741585 0.021853134 -0.022353765 0.01380263 -0.037860937 -0.008030117 0.05881317
-0.029155647 0.024072653 0.01483379 0.047685914 0.020030534 0.0004635146 -0.011016372 -0.019050693
-0.011597378 0.008240243 0.0072211004 0.0009045692 -0.0536702 0.0001676193 -0.04002815 -0.007806564
0.05577093 0.05884753 -0.009457531 -0.02608074 -0.00685025 -0.030941816 -0.014257192 0.0140237305
-0.014273279 0.050953034 0.038887624 -0.035251174 0.066759646 0.04971468 0.07245283 -0.032977026
-0.034776215 0.01838712 0.03439052 -0.0061767367 -0.019691676 -0.0018486746 -0.0031111278 -0.05620913
-0.045229614 -0.021879373 0.004995932 -0.044885017 -0.049695548 -0.024402928 -0.036476977 0.062328193
-0.0019155515 -0.0034805285 0.019126043 -0.00523911 0.006644208 -0.037921134 0.0068443106 -0.0056517534
0.0018105211 0.035912175 -0.060495537 0.008813382 0.017318293 0.032120768 -0.06490582 -0.0558889
-0.003298483 0.055790674 0.0064544934 0.057608515 0.08240642 0.046881504 0.029727438 -0.009421566
-0.036943153 -0.02354721 0.032608956 0.022004848 -0.034851473 -0.05383554 0.047819197 0.026870193
-0.0053493944 -0.036529433 -0.05596557 -0.024854759 -0.084904365 -0.07642257 0.026266348 0.01333921
-0.042066522 -0.053970147 -0.013588841 0.06777867 -0.014897907 -0.019036327 -0.05798774 -0.013724937
0.0027985102 0.009618415 -0.028652238 0.0022489957 -0.0043004444 0.040836062 0.020627553 0.06333453
0.05251 -0.022372661 -0.017715137 -0.026113095 0.031885147 0.018490387 0.010627132 -0.020677278
-0.0004244451 0.06461864 0.0022773813 0.034482375 -0.06337145 -0.007195342 -0.011773728 0.021023687
0.0066641625 0.014849742 0.033316206 -0.0108450325 -0.0010474914 0.06041054 0.07737569 -0.01087691
0.03852206 -0.030311408 0.06625274 -0.041020285 -0.023355583 0.0063537336 -0.0070731346 0.08832268
00000000: ba65 95bc a969 633d 5204 81bd 08c9 6d3d
00000010: 478c 94bb fa36 1bbd f1e1 96bd c312 e9bc
00000020: 59aa fc3c 086a 15bd 17b0 1b3d 4e88 be3b
00000030: 03b0 02bb e8eb febc 03c2 9d3a 2122 043c
00000040: 1202 943d c81a 833d 5a3e 40bd 939a bf3c
00000050: 89fb 08bc 20c7 b0bc f679 1bbd f7ad 70bc
00000060: 8448 193d 8ef3 86bc 89fc 5f3d 2e44 a33c
00000070: a054 3abd 9722 583d 1a91 b0bb faa0 64bc
00000080: 1c03 a73d c42d 57bc a93f 2b3d 6094 123c
00000090: 759d 3d3d 5028 73bd 6247 cc3c 2be3 9cbc
000000a0: 7904 00bd cde2 863c 6d09 a33d 7b07 51bc
000000b0: aa1b 093d 6172 4fbd 4631 1ebd 646d 47bd
000000c0: 0bd5 c0bc 3a7e 24bd 2f88 f8bc fca1 01bb
000000d0: ee98 06bc 0479 ed3b bfd2 adbc dd6c 2fbc
000000e0: ff4e 133c 265e 8c3d dd95 ee3c d5eb 94bd
000000f0: a7de 67bd 295e 9abc 677b 2abd 1f26 ac3b
00000100: 9957 28bd 586c 59bd ada7 9e3d 1990 083d
00000110: 28ea 10bc febe a73a a949 a63b 7702 40bd
00000120: 388a 92b8 910c ddbc f384 b33c 43e6 023d
00000130: 7cb1 3c3b 0c53 893d 7978 973d 0190 073d
00000140: 58fb b8bd f42b 98bb 2fad 4ebb aa34 b6bc
00000150: 2de6 013c a3f4 65bd 96a9 95bd e067 923d
00000160: 29e8 f1bc 569c c0bc 5fd5 64bd 7c73 35ba
00000170: 4c78 89bd 22d8 42bd 39d6 e93b 27ab ebbc
00000180: aeab acbc 5dac a2bd 7887 203d 44db ed3a
00000190: 6763 61bd 1161 8c3b e1d8 51bd a2cc 843c
000001a0: 213a 613d 4b47 9bbd 956c 033d 5550 283c
000001b0: bd3f 213c fc17 423b aaa4 c4bc b765 fabc
000001c0: 856e e33c 5211 8abd 5805 b33c 3e1f b7bc
000001d0: 6d24 623c 1214 1bbd c090 03bc 14e6 703d
000001e0: d3d7 eebc 0334 c53c 6d09 733c 4e52 433d
000001f0: 1317 a43c e003 f339 037e 34bc 3310 9cbc
00000200: ee02 3ebc 1602 073c fb9e ec3b 9d20 6d3a
00000210: 49d5 5bbd f7c2 2f39 8ff4 23bd 35ce ffbb
00000220: 0f70 643d 1c0a 713d c3f3 1abc 47a7 d5bc
00000230: 1078 e0bb b179 fdbc ff96 69bc cac3 653c
00000240: 79da 69bc 21b4 503d a148 1f3d 8963 10bd
00000250: 48b9 883d 9fa1 4b3d 2662 943d eb12 07bd
00000260: 8171 0ebd 96a0 963c 13dd 0c3d 3966 cabb
00000270: 7050 a1bc 3a4f f2ba 10e4 4bbb 8b3b 66bd
00000280: b042 39bd 5f3c b3bc eab4 a33b 5ad9 37bd
00000290: 8f8d 4bbd a6e8 c7bc e268 15bd d94b 7f3d
000002a0: 3e13 fbba 9419 64bb 38ae 9c3c d7ac abbb
000002b0: a8b7 d93b 3153 1bbd 3d46 e03b 5832 b9bb
000002c0: 024f ed3a a518 133d 2bca 77bd 0166 103c
000002d0: 18df 8d3c 1191 033d 58ed 84bd c2eb 64bd
000002e0: 5d2b 58bb c384 643d 3780 d33b e8f6 6b3d
000002f0: b2c4 a83d d206 403d f586 f33c e95c 1abc
00000300: b451 17bd 14e6 c0bc f890 053d 8343 b43c
00000310: 6bc0 0ebd a882 5cbd 10de 433d e11e dc3c
00000320: f949 afbb e39f 15bd 273c 65bd 359c cbbc
00000330: 57e2 adbd 7083 9cbd 862c d73c b48c 5a3c
00000340: f24d 2cbd cd0f 5dbd bba3 5ebc 8bcf 8a3d
00000350: 5a16 74bc 12f2 9bbc 8d84 6dbd 8fde 60bc
00000360: 3667 373b 8e96 1d3c 19b8 eabc e363 133b
00000370: beea 8cbb b743 273d 1dfb a83c 89b5 813d
00000380: ba14 573d df46 b7bc 561f 91bc 21eb d5bc
00000390: 009a 023d 2779 973c 6c1d 2e3c 6563 a9bc
000003a0: 0f88 deb9 c756 843d 1e40 153b 643d 0d3d
000003b0: e4c8 81bd e7c6 ebbb 98e6 40bc de39 ac3c
000003c0: 0c5f da3b 554c 733c 9376 083d 5daf 31bc
000003d0: fb4b 89ba 0b71 773d 2577 9e3d 1135 32bc
000003e0: 4fc9 1d3d a14f f8bc 84af 873d e304 28bd
000003f0: 3554 bfbc fb32 d03b c1c5 e7bb 85e2 b43d

2.0.bias f4 [64]
0.02724616 0.040074065 -0.04279058 0.05525059 -0.013959862 0.043745663 0.010498054 -0.029555429
-0.018486045 -0.05904363 -0.034569725 0.05164066 -0.004423726 0.03712817 -0.02762865 -0.034309864
0.027102787 0.034185182 -0.03230561 0.036470454 0.012066625 -0.0023702567 -0.03997438 -0.011381158
0.04220218 -0.0043482534 0.036990613 -0.028745636 -0.030433314 -0.04875926 -0.048091006 -0.025547115
0.0032565203 0.042193595 0.019696645 0.005359404 0.044197347 0.0077848705 0.017726177 -0.043455154
0.013607864 0.041205727 -0.022674348 -0.04305738 0.017307414 -0.010040953 -0.02669534 -0.04856355
-0.040269442 0.049688406 0.020120176 -0.049949996 -0.010280234 0.049416628 0.0334735 0.03311744
-0.0059874537 -0.014573852 0.009958946 -0.039894316 -0.011893095 0.039907914 -0.010036225 0.041956846
00000000: 5733 df3c b424 243d 2d45 2fbd 714e 623d
00000010: e8b7 64bc a72e 333d 0800 2c3c 3a1e f2bc
00000020: 0c70 97bc bcd7 71bd fc98 0dbd 2885 533d
00000030: e7f4 90bb b513 183d 7b55 e2bc 8088 0cbd
00000040: aa06 de3c c305 0c3d e352 04bd 0b62 153d
00000050: 18b3 453c 4f56 1bbb 2dbc 23bd 0978 3abc
00000060: 31dc 2c3d cb7b 8ebb 7883 173d f87b ebbc
00000070: 494f f9bc cab7 47bd 13fb 44bd 2f48 d1bc
00000080: 586b 553b 31d3 2c3d dc5a a13c f09d af3b
00000090: 4708 353d 3a18 ff3b 7d36 913c 08fe 31bd
000000a0: 85f3 5e3c 56c7 283d 8ebf b9bc ef5c 30bd
000000b0: 47c8 8d3c cf82 24bc 30b0 dabc 93ea 46bd
000000c0: 92f1 24bd 1286 4b3d 11d3 a43c 5e98 4cbd
000000d0: 6d6e 28bc 1769 4a3d 821b 093d 27a6 073d
000000e0: 6732 c4bb 2ac7 6ebc d92a 233c 3968 23bd
000000f0: 42db 42bc 7b76 233d fb6e 24bc f1da 2b3d

2.1.weight f4 [64]
1.0171721 1.0120777 1.0066806 0.9926706 0.9755912 1.030355 1.0029807 1.0251068
1.014692 0.99944574 0.98614967 1.000447 1.006015 0.9695503 0.97785866 0.9881082
1.0194889 1.0009813 0.99079734 0.99802727 1.0068191 0.9769933 0.996271 0.98535085
1.0041925 1.0076333 1.0003343 0.99150485 0.99692994 0.96544534 0.98478013 0.9849216
0.995668 1.0366819 0.95737976 1.0097452 0.99624467 0.9757503 1.0035522 1.0077732
1.0307846 1.0074786 0.9964832 0.97679234 1.0294025 1.0226682 1.0186833 1.0052003
0.9773751 0.9900931 0.97322625 1.0121523 0.9714253 1.0106536 0.98741126 1.0065418
0.99610007 1.0287421 0.9768689 1.0040694 0.99449533 0.9846918 1.004295 0.99500155
00000000: b232 823f c38b 813f e9da 803f a91f 7e3f
00000010: 58c0 793f ace2 833f ac61 803f b336 833f
00000020: 6de1 813f addb 7f3f 4e74 7c3f a60e 803f
00000030: 19c5 803f 7334 783f f254 7a3f a9f4 7c3f
00000040: 9d7e 823f 2820 803f e5a4 7d3f b77e 7f3f
00000050: 73df 803f 3c1c 7a3f 9e0b 7f3f f43f 7c3f
00000060: 6189 803f 21fa 803f f40a 803f 43d3 7d3f
00000070: cd36 7f3f 6d27 773f 8d1a 7c3f d223 7c3f
00000080: 19e4 7e3f feb1 843f d716 753f 553f 813f
00000090: e409 7f3f c6ca 793f 6674 803f b6fe 803f
000000a0: c0f0 833f 0ff5 803f 8619 7f3f 100f 7a3f
000000b0: 76c3 833f cbe6 823f 3764 823f 67aa 803f
000000c0: 4135 7a3f be76 7d3f 5b25 793f 358e 813f
000000d0: 54af 783f 195d 813f fcc6 7c3f 5dd6 803f
000000e0: 6a00 7f3f d2ad 833f 1514 7a3f 5985 803f
000000f0: 3f97 7e3f c314 7c3f bd8c 803f 6cb8 7e3f

2.1.bias f4 [64]
-0.0700432 -0.034769118 -0.05698454 -0.02750266 -0.029776119 -0.043916877 -0.03710928 -0.016598536
-0.03080711 -0.012201964 -0.021779045 -0.033675298 -0.061637767 -0.04126449 -0.031086434 -0.021255678
-0.068949975 -0.043427043 -0.011723221 -0.007303854 -0.014427773 -0.023231162 -0.05573995 -0.0117088985
-0.04523915 -0.026249774 -0.023205163 -0.020038936 -0.03566351 -0.026988328 -0.06660456 -0.04312644
-0.0099573005 -0.072562985 -0.050194792 -0.025925877 -0.038817324 -0.03906043 -0.06904675 -0.03341044
-0.027677756 -0.031143518 0.005435462 -0.041355476 -0.022945797 -0.041372128 -0.039381385 -0.056891553
-0.042866684 -0.033666976 -0.05084516 -0.047579173 -0.015666766 -0.04091364 -0.029029064 -0.014885767
-0.052093446 -0.01265475 -0.016355697 -0.03002179 -0.02444602 -0.059649654 -0.02467144 -0.049934816
00000000: cf72 8fbd 106a 0ebd 9f68 69bd 424d e1bc
00000010: 0ced f3bc 2fe2 33bd e6ff 17bd a7f9 87bc
00000020: 315f fcbc bfea 47bc f869 b2bc 1cef 09bd
00000030: e277 7cbd f404 29bd faa8 febc 6320 aebc
00000040: a535 8dbd 8ee0 31bd c112 40bc 2b55 efbb
00000050: 7762 6cbc 474f bebc 934f 64bd aed6 3fbc
00000060: b04c 39bd c409 d7bc c118 bebc b228 a4bc
00000070: e713 12bd a016 ddbc f967 88bd 5aa5 30bd
00000080: f223 23bc e79b 94bd 0e99 4dbd 8162 d4bc
00000090: eafe 1ebd d4fd 1fbd 6268 8dbd 63d9 08bd
000000a0: 76bc e2bc b120 ffbc f61b b23b 5c64 29bd
000000b0: d3f8 bbbc d275 29bd 604e 21bd 1e07 69bd
000000c0: fa94 2fbd 62e6 09bd 0443 50bd 61e2 42bd
000000d0: 9757 80bc 1095 27bd 5cce edbc 6fe3 73bc
000000e0: f05f 55bd de55 4fbc 62fc 85bc 42f0 f5bc
000000f0: 0543 c8bc 3253 74bd c21b cabc 7388 4cbd

2.1.running_mean f4 [64]
-0.31794357 0.047075965 0.19401196 0.040908754 -0.27788278 -0.5005947 0.14246981 -0.29157284
-0.4533494 -0.17762382 0.50094014 -0.32808155 0.3188482 0.25937283 -0.3374668 -1.1335496
0.16007116 -0.08783462 -1.271694 -0.8649735 -0.74370396 -0.597085 -0.61267734 -0.2606746
0.46158674 -0.076656066 -0.6390962 -0.28003246 -0.923546 0.24248417 -0.15042321 -0.7097076
-0.33479893 0.117715694 -0.49135765 -0.39338958 -0.42515212 0.23591298 0.6087037 0.1977756
0.113546506 0.72261286 -0.8937621 0.092862256 -0.41463032 -0.42722145 -0.9896425 -0.1819526
1.1512234 -0.86759126 -0.40027174 -0.0061842566 -0.794965 0.002321844 -0.932822 -0.64928484
1.3286448 0.23630679 0.16502135 -0.17887239 -0.7912815 0.5386765 0.1805342 0.041062355
00000000: 80c9 a2be bad2 403d 12ab 463e f08f 273d
00000010: a746 8ebe f926 00bf 9be3 113e 0949 95be
00000020: 6a1d e8be 05e3 35be 9d3d 003f 4efa a7be
00000030: 1240 a33e 84cc 843e 73c8 acbe 2718 91bf
00000040: b2e9 233e a3e2 b3bd dec6 a2bf e76e 5dbf
00000050: 6263 3ebf 90da 18bf 6cd8 1cbf 2477 85be
00000060: 1955 ec3e dbfd 9cbd cf9b 23bf 6a60 8fbe
00000070: 836d 6cbf c54d 783e 8b08 1abe 66af 35bf
00000080: c46a abbe ed14 f13d 3b93 fbbe 5c6a c9be
00000090: 8aad d9be 2c93 713e 01d4 1b3f b085 4a3e
000000a0: 128b e83d 28fd 383f 98cd 64bf 912e be3d
000000b0: 6d4a d4be c5bc dabe 3659 7dbf c851 3abe
000000c0: 4a5b 933f 761a 5ebf 6bf0 ccbe 4ea5 cabb
000000d0: d482 4bbf 142a 183b 6ccd 6ebf 8837 26bf
000000e0: 0811 aa3f 68fa 713e 5bfb 283e 532a 37be
000000f0: 6d91 4abf b4e6 093f f5dd 383e 0031 283d

2.1.running_var f4 [64]
0.144255 0.23814766 0.26347053 0.45170328 0.28637213 0.21525559 0.21999401 0.3988744
0.42460713 0.25459436 0.34342515 0.5316458 0.2546608 0.41824755 0.35260865 1.1388657
0.36627775 0.2881865 0.40189734 0.35889208 0.63377666 0.25733444 0.31953663 0.265706
0.3546717 0.25139686 0.93346256 0.35398036 0.37177342 0.59130365 0.20194022 0.99811906
0.27436212 0.17489028 0.5536155 0.34400743 0.29900023 0.9384572 0.2934135 0.2449613
0.26880026 0.3382156 0.4212801 0.2557248 0.2506595 0.28683227 0.6929995 0.30755028
0.39395142 0.2579265 0.28382295 0.43310213 0.81770116 0.26277745 0.48985443 0.19252741
0.4300029 0.292373 0.48795342 0.25096735 0.3386802 0.29247802 0.27747047 0.17870596
00000000: 95b7 133e fbdc 733e 9ce5 863e a745 e73e
00000010: 5e9f 923e f66b 5c3e 1c46 613e 4439 cc3e
00000020: 1b66 d93e 315a 823e 6cd5 af3e f019 083f
00000030: e662 823e 8b24 d63e 1f89 b43e 5ac6 913f
00000040: c288 bb3e 2e8d 933e 7dc5 cd3e b4c0 b73e
00000050: 303f 223f 57c1 833e 4e9a a33e 9e0a 883e
00000060: 8797 b53e 17b7 803e 67f7 6e3f ea3c b53e
00000070: 1659 be3e ad5f 173f 6bc9 4e3e bb84 7f3f
00000080: 3179 8c3e 7016 333e bfb9 0d3f be21 b03e
00000090: 8f16 993e bb3e 703f 4b3a 963e 23d7 7a3e
000000a0: 30a0 893e 982a ad3e 06b2 d73e 5cee 823e
000000b0: 7156 803e aedb 923e 6a68 313f 3b77 9d3e
000000c0: 00b4 c93e f10e 843e 3e51 913e 90bf dd3e
000000d0: dd54 513f c48a 863e 33ce fa3e e825 453e
000000e0: 5729 dc3e eab1 953e 08d5 f93e cb7e 803e
000000f0: 7e67 ad3e aebf 953e 9c10 8e3e b2fe 363e

3.0.weight f4 [64, 64, 3, 3]
0.025349554 0.0039951364 -0.023789644 0.018656295 -0.01732949 -0.01435795 0.015634995 0.006579705
0.05062416 0.018596997 0.02812463 -0.002591426 -0.008533581 -0.0116247125 0.008364157 0.006448773
0.0015567756 -0.000122034835 -0.028850826 0.03024751 0.06225747 0.017416114 0.026291167 -0.008002254
0.020656476 -0.015119206 -0.010426174 -0.03818274 -0.017973332 -0.0071139173 -0.0111897355 -0.0033032289
-0.019779455 0.013435188 0.0075593614 -0.016869644 -0.0011941504 0.002233446 -0.03108044 0.061895918
-0.010912833 -0.0030836298 0.019091945 -0.017600432 0.012151559 -0.06766144 0.02783543 0.047889877
-0.030745352 -4.5044562e-05 -0.021095186 -0.017020784 0.011238447 0.017055659 0.032943718 -0.04180886
-0.025398934 -0.040258974 -0.04141635 -0.034119133 -0.036424924 -0.040536445 0.026750663 -0.042977136
-0.02126779 0.02706028 0.01626573 0.021602875 -0.0299753 -0.008200638 0.023083607 -0.051947933
-0.051528912 -0.0020620388 -0.020124909 0.022654083 -0.015043295 -0.0029072238 0.044549942 0.012776952
-0.013056184 0.005019655 0.036122587 -0.0062525165 0.05573931 0.011366642 -0.050290227 0.031239953
-0.047596022 -0.008249895 0.026631478 -0.013064051 -0.0033221734 -0.0064626113 -0.029535534 0.0007978487
-0.024692692 0.014382901 0.030718146 -0.00066726364 -0.030903345 0.039711334 0.023789268 0.012868302
-0.03051712 -0.011809566 -0.019867929 -0.03768518 0.012957429 0.020309057 -0.007575738 0.043920293
0.012450356 -0.008609694 -0.032720823 -0.039240215 0.00465339 0.030812608 0.029321952 0.03955759
-0.029474601 0.012427178 -0.023069192 0.014437191 0.03373963 0.01792893 0.032725748 -0.013166757
-0.026283596 0.03541387 0.03406083 0.020101616 -0.008034235 -0.0076944963 0.010572006 -0.0012183739
0.021188283 -0.04851709 0.041221354 0.03761878 0.006192848 0.036891416 0.0140620805 0.012647349
0.01454745 0.025971752 0.0056209248 -0.007113869 0.019492988 -0.034565736 0.0087469565 0.008925305
-0.023303378 0.021872194 0.021852147 -0.008910341 0.04013137 -0.014211244 0.008937271 0.012347212
-0.0063982885 -0.055458825 0.017472956 -0.033520665 -0.033000484 0.03724799 0.04649075 -0.022042384
0.0066483803 0.0007079445 0.024431437 -0.0043360223 -0.054462347 0.011343011 0.0018227976 -0.048848264
-0.025910083 -0.0040743724 -0.04834639 0.00083323946 -0.023483725 -0.028050799 -0.0020072674 -0.0032713031
0.028233707 -0.04643836 -0.011467404 0.03824818 0.00615901 0.04531986 -0.0043188105 0.024023559
-0.049309365 -0.023999402 0.039019413 -0.060418546 -0.033456326 0.03667116 -0.02678847 0.031227533
0.0345215 0.0074615944 -0.037936397 0.037801195 0.047501553 -0.006487083 0.015901458 0.04943353
-0.012695091 -0.01724317 0.014394173 0.05180042 0.034286737 0.042504065 -0.012804779 -0.024242237
-0.048799895 -0.010389897 -0.032888018 -0.03186437 -0.013403556 -0.01783963 0.0058822767 -0.022642372
-0.038409226 -0.05070517 -0.0037062736 0.0043765577 -0.021107871 0.0015818648 -0.03896902 0.012947487
-0.035961766 -0.046282284 0.036247723 0.011381928 0.004039919 0.0119208135 0.0061637 -0.023414487
-0.032406352 -0.012011571 -0.052669097 -0.028041735 -0.0044267448 -0.025219686 0.008335009 0.014596421
-0.0008898521 0.032340404 -0.005832194 -0.0017289434 -0.03337112 -0.0030696027 -0.015941463 -0.012003309
00000000: dea9 cf3c a2e9 823b 80e2 c2bc 16d5 983c
00000010: 93f6 8dbc 9b3d 6bbc f614 803c 919a d73b
00000020: 475b 4f3d bb58 983c a065 e63c ead4 29bb
00000030: 6fd0 0bbc 9475 3ebc d109 093c 3b50 d33b
00000040: b90c cc3a f4ec ffb8 9158 ecbc a0c9 f73c
00000050: b001 7f3d 3dac 8e3c 9360 d73c e31b 03bc
00000060: c537 a93c 8cb6 77bc 8bd2 2abc 8165 1cbd
00000070: cf3c 93bc dd1b e9bb 2755 37bc fc7a 58bb
00000080: 8608 a2bc 431f 5c3c 85b4 f73b 3532 8abc
00000090: 0a85 9cba 025f 123b 689c febc 9386 7d3d
000000a0: bdcb 32bc b916 4abb b666 9c3c c82e 90bc
000000b0: 5517 473c 1592 8abd 2107 e43c 2d28 443d
000000c0: addd fbbc 3bee 3cb8 d0cf acbc 2c6f 8bbc
000000d0: 7721 383c 4fb8 8b3c feef 063d c43f 2bbd
000000e0: 6d11 d0bc 98e6 24bd 31a4 29bd 81c0 0bbd
000000f0: 4d32 15bd 8b09 26bd 3524 db3c cb08 30bd
00000100: ca39 aebc 85ad dd3c b53f 853c 83f8 b03c
00000110: c38e f5bc f85b 06bc d519 bd3c 5bc7 54bd
00000120: fb0f 53bd 4523 07bb fedc a4bc 0e95 b93c
00000130: 2778 76bc 1f87 3ebb 007a 363d 6c56 513c
00000140: 9be9 55bc eb7b a43b 47f5 133d e9e1 ccbb
00000150: e74e 643d 273b 3a3c 20fd 4dbd eeea ff3c
00000160: 0cf4 42bd 912a 07bc 422a da3c 9a0a 56bc
00000170: d2b8 59bb 50c4 d3bb 81f4 f1bc b826 513a
00000180: 5448 cabc 42a6 6b3c 9fa4 fb3c 4eeb 2eba
00000190: 0329 fdbc 5aa8 223d b6e1 c23c 92d5 523c
000001a0: 0aff f9bc e97c 41bc 11c2 a2bc c65b 1abd
000001b0: 654b 543c 2e5f a63c e53d f8bb c4e5 333d
000001c0: 94fc 4b3c ad0f 0dbc 4506 06bd 59ba 20bd
000001d0: 777b 983b b96a fc3c 9734 f03c 2407 223d
000001e0: b874 f1bc 5d9b 4b3c 9afb bcbc f889 6c3c
000001f0: 9132 0a3d b1df 923c 6f0b 063d 62b9 57bc
00000200: b250 d7bc 220e 113d 5e83 0b3d 25ac a43c
00000210: 06a2 03bc 1d22 fcbb 3536 2d3c d8b1 9fba
00000220: 0d93 ad3c dbb9 46bd b9d7 283d 2616 1a3d
00000230: 60ed ca3b 741b 173d a464 663c d436 4f3c
00000240: 6d58 6e3c b6c2 d43c bc2f b83b 751b e9bb
00000250: c2af 9f3c cd94 0dbd 654f 0f3c 713b 123c
00000260: bae6 bebc 512d b33c 4603 b33c aefc 11bc
00000270: cb60 243d 47d6 68bc a26d 123c f64b 4a3c
00000280: bca8 d1bb cb28 63bd 7223 8f3c f74c 09bd
00000290: 842b 07bd 5991 183d 166d 3e3d 3b92 b4bc
000002a0: a8da d93b 5a95 393a 7024 c83c 3115 8ebb
000002b0: e913 5fbd 09d8 393c f0ea ee3a 1e15 48bd
000002c0: 6241 d4bc 5082 85bb dd06 46bd c16d 5a3a
000002d0: f160 c0bc caca e5bc 5c8c 03bb 5c63 56bb
000002e0: 604a e73c 2636 3ebd c7e1 3bbc 20aa 1c3d
000002f0: 85d1 c93b 51a1 393d cf84 8dbb 0ecd c43c
00000300: 9ef8 49bd 659a c4bc d2d2 1f3d 7079 77bd
00000310: 8009 09bd 8034 163d 7e73 dbbc e2d0 ff3c
00000320: 6b66 0d3d 6480 f43b 3263 1bbd 6dd5 1a3d
00000330: fd90 423d 9991 d4bb c643 823c d07a 4a3d
00000340: 12ff 4fbc 8c41 8dbc 8ad5 6b3c ad2c 543d
00000350: 4070 0c3d be18 2e3d 23cb 51bc a897 c6bc
00000360: 66e2 47bd 633a 2abc 96b5 06bd 3784 02bd
00000370: 979a 5bbc 6a24 92bc 1dc0 c03b 7f7c b9bc
00000380: fe52 1dbd 39b0 4fbd f4e4 72bb 3a69 8f3b
00000390: 6aea acbc 9356 cf3a fb9d 1fbd b221 543c
000003a0: a54c 13bd 7e92 3dbd 7e78 143d 447b 3a3c
000003b0: 4c61 843b 844f 433c ddf8 c93b bdcf bfbc
000003c0: 86bc 04bd 2ecc 44bc 8dbb 57bd c8b7 e5bc
000003d0: 3a0e 91bb 8499 cebc 908f 083c d425 6f3c
000003e0: f744 69ba 5f77 043d fd1b bfbb b79d e2ba
000003f0: 28b0 08bd 632b 49bb ac97 82bc 87a9 44bc

3.0.bias f4 [64]
-0.0024397438 0.024616824 0.034337208 0.018939177 -0.0016329883 -0.0059146746 0.020538278 -0.03938724
0.000116331365 -0.012943424 0.014479473 0.009843784 0.0041748574 0.014187913 0.022844912 -0.009966438
0.029814785 0.035547357 0.01307882 0.0013764496 -0.01883627 -0.012957861 -0.009249526 0.013508508
-0.01632553 0.016110685 0.023732204 -0.037811745 0.00854975 0.008970472 -0.012342137 -0.0009283044
0.032928966 -0.043904223 -0.032666866 -0.009102837 -0.035724226 -0.019992387 -0.025975462 0.023807378
0.029383017 -0.028599449 0.0040878835 0.00015703888 0.0009588072 -0.033629153 -0.0040616845 -0.026342288
0.013802012 0.016613483 -0.038515687 -0.0033459 -0.028677758 -0.0011467002 0.03000229 0.004243861
-0.019172879 -0.0059591257 0.009315999 0.025749728 0.024955222 -0.002939075 -0.010665053 0.036391288
00000000: 1ce4 1fbb 39a9 c93c 2ca5 0c3d 5526 9b3c
00000010: ff09 d6ba e3cf c1bb e43f a83c 8454 21bd
00000020: edf6 f338 a810 54bc 503b 6d3c d347 213c
00000030: 3ecd 883b 6c74 683c 4125 bb3c 454a 23bc
00000040: 233e f43c 1b9a 113d 8c48 563c fc69 b43a
00000050: 854e 9abc 354d 54bc 538b 17bc ca52 5d3c
00000060: 1ebd 85bc 8efa 833c 0a6a c23c 7de0 1abd
00000070: 4014 0c3c e3f8 123c ad36 4abc 7459 73ba
00000080: 86e0 063d ead4 33bd b1cd 05bd 1124 15bc
00000090: 9153 12bd 13c7 a3bc 7eca d4bc b107 c33c
000000a0: a7b4 f03c 6449 eabc a7f3 853b ceaa 2439
000000b0: 7658 7b3a b9be 09bd e117 85bb c8cb d7bc
000000c0: d621 623c 0019 883c a0c2 1dbd e346 5bbb
000000d0: 9eed eabc e04c 96ba 5dc7 f53c 1610 8b3b
000000e0: 7110 9dbc c544 c3bb 22a2 183c 18f1 d23c
000000f0: e56e cc3c 7f9d 40bb 79bc 2ebc 080f 153d

3.1.weight f4 [64]
1.0216429 0.9723642 0.99175525 1.0134996 1.0010383 0.9488816 0.98545986 0.9820004
0.9590754 0.9990873 0.9780362 0.9999492 0.97085243 0.9712344 1.0232573 1.0245162
1.0065887 1.0011647 0.9603197 1.0238098 1.0531827 0.9819594 1.0000247 1.0323143
0.956217 0.9856987 1.0198705 0.9656533 0.9839069 1.0165228 0.9962176 0.9873112
1.0404272 0.995268 0.974378 1.0339825 1.0176406 0.99464685 0.9801954 0.98655564
0.9895735 1.0043582 1.0127146 0.9555457 0.9937517 0.9871395 1.0179026 0.98206055
1.0009708 1.0009946 0.995633 0.95962423 0.9876218 0.9916083 1.0239254 1.0243067
1.0032384 0.9449803 1.0491209 1.0059994 1.0089203 0.965037 1.0121803 0.99577564
00000000: 32c5 823f dcec 783f ace3 7d3f 5bba 813f
00000010: 0622 803f e8e9 723f 1947 7c3f 6164 7b3f
00000020: f785 753f 2fc4 7f3f 9560 7a3f acfc 7f3f
00000030: c989 783f d1a2 783f 18fa 823f 5923 833f
00000040: e6d7 803f 2a26 803f 83d7 753f 330c 833f
00000050: b1ce 863f b161 7b3f cf00 803f e022 843f
00000060: a3ca 743f c056 7c3f 1e8b 823f 0e35 773f
00000070: 53e1 7b3f 6b1d 823f 1e08 7f3f 6dc0 7c3f
00000080: b82c 853f e2c9 7e3f d670 793f 8a59 843f
00000090: 0c42 823f 2da1 7e3f 16ee 7a3f e98e 7c3f
000000a0: b054 7d3f cf8e 803f a2a0 813f a59e 743f
000000b0: 8366 7e3f 2db5 7c3f a24a 823f 5268 7b3f
000000c0: d01f 803f 9720 803f cee1 7e3f efa9 753f
000000d0: c8d4 7c3f 0bda 7d3f fd0f 833f 7b1c 833f
000000e0: 1e6a 803f 3bea 713f 9849 863f 97c4 803f
000000f0: 4d24 813f aa0c 773f 208f 813f 27eb 7e3f

3.1.bias f4 [64]
-0.03534518 -0.059859212 -0.06081162 -0.049005974 -0.038314722 -0.0662336 -0.054563478 -0.05727477
-0.028086687 -0.050295655 -0.06862958 -0.0644157 -0.05872806 -0.04938008 -0.023918467 -0.05137014
-0.081280544 -0.033772934 -0.048438516 -0.06692517 -0.04672614 -0.055260006 -0.058719218 -0.051889967
-0.052153245 -0.03268525 -0.040856954 -0.044737384 -0.06397121 -0.052487522 -0.034246676 -0.045169156
-0.078286394 -0.047520064 -0.041786842 -0.0901241 -0.07100866 -0.057619225 -0.061390918 -0.050096825
-0.07320772 -0.08070765 -0.068536274 -0.052031912 -0.057799406 -0.063055836 -0.105229504 -0.03385314
-0.04099212 -0.026552353 -0.020982709 -0.047680207 -0.04836504 -0.020573776 -0.06962146 -0.06844438
-0.035814866 -0.051809818 -0.051882837 -0.061389618 -0.06823509 -0.04109241 -0.053242393 -0.03893852
00000000: 1cc6 10bd ef2e 75bd 9b15 79bd 7dba 48bd
00000010: e6ef 1cbd 7ba5 87bd f47d 5fbd f398 6abd
00000020: 0d16 e6bc d102 4ebd aa8d 8cbd 61ec 83bd
00000030: d68c 70bd c442 4abd a9f0 c3bc 7f69 52bd
00000040: 6a76 a6bd 7d55 0abd 7767 46bd 1010 89bd
00000050: e963 3fbd 5158 62bd 9083 70bd 938a 54bd
00000060: a49e 55bd f8e0 05bd 9f59 27bd 8c3e 37bd
00000070: 5603 83bd 28fd 56bd 3e46 0cbd 4b03 39bd
00000080: 9e54 a0bd 66a4 42bd ae28 2bbd fc92 b8bd
00000090: fd6c 91bd 2302 6cbd 0b75 7bbd 5432 4dbd
000000a0: eeed 95bd 0d4a a5bd bf5c 8cbd 6a1f 55bd
000000b0: 12bf 6cbd 6b23 81bd 9182 d7bd 97a9 0abd
000000c0: 5ae7 27bd 5284 d9bc eee3 abbc 524c 43bd
000000d0: 6c1a 46bd 568a a8bc b295 8ebd 912c 8cbd
000000e0: 9cb2 12bd 8836 54bd 1983 54bd ae73 7bbd
000000f0: d7be 8bbd 8450 28bd b214 5abd ff7d 1fbd

3.1.running_mean f4 [64]
0.08010087 -0.8171869 -0.09532502 -0.53897625 -0.32897428 -1.6040658 -0.041960124 -0.28400198
-0.62276095 -0.2894133 0.77519614 -0.43965718 0.62926906 -0.04638557 0.7259191 0.07404135
0.32350874 0.56466603 0.26160336 -0.68819004 -0.34527618 0.13657536 0.006863739 -0.06793722
-0.63497245 -0.09768056 0.31472504 0.5469843 0.94569075 -0.12611093 -0.092411935 0.19709851
-0.1271511 0.3389104 0.38766083 -0.7947118 -0.97030103 0.030590681 0.17915444 -0.48318124
0.056149557 -0.6320158 0.29093075 -0.5865241 0.38309625 -1.1143789 -0.43559036 -0.70250857
0.32970494 0.5867851 -0.95709586 -0.22877824 -0.053504307 -0.2976813 -0.3400097 -1.0867159
-0.48652557 0.9570027 -0.46686724 -0.21608737 -0.46832484 -0.2574599 -0.18658352 -0.6350365
00000000: ed0b a43d 2933 51bf c439 c3bd 59fa 09bf
00000010: 516f a8be 0752 cdbf 61de 2bbd b568 91be
00000020: 436d 1fbf fb2d 94be 4173 463f bf1a e1be
00000030: c717 213f ccfe 3dbd d6d5 393f fea2 973d
00000040: f0a2 a53e f48d 103f e0f0 853e 392d 30bf
00000050: 0ac8 b0be 69da 0b3e 37e9 e03b ab22 8bbd
00000060: 8e8d 22bf bf0c c8bd a423 a13e 2a07 0c3f
00000070: ca18 723f 3923 01be 7842 bdbd 31d4 493e
00000080: e633 02be aa85 ad3e 7b7b c63e 3c72 4bbf
00000090: a665 78bf 4f99 fa3c 4374 373e 8863 f7be
000000a0: 14fd 653d cacb 21bf e0f4 943e 7226 16bf
000000b0: 3125 c43e f8a3 8ebf b305 dfbe 9ad7 33bf
000000c0: 16cf a83e 8c37 163f 3c04 75bf d844 6abe
000000d0: 5527 5bbd af69 98be c015 aebe 8219 8bbf
000000e0: e119 f9be 21fe 743f 3909 efbe 0246 5dbe
000000f0: 46c8 efbe c9d1 83be c00f 3fbe c191 22bf

3.1.running_var f4 [64]
0.41258895 0.42784235 0.3982552 0.29113922 0.32792783 1.5080487 0.53469825 0.6331921
0.8217476 0.3163077 0.8463347 0.50473446 0.39395022 0.58305097 0.48156148 0.34481606
0.36018422 0.42208627 0.48017964 0.37128207 0.21174644 0.51345253 0.33445007 0.30892375
0.7868407 0.44049063 0.3363981 0.34238446 0.35489798 0.29487175 0.5801682 0.37756443
0.24431354 0.40075764 0.37755367 0.39611128 0.34759524 0.45154476 0.26258597 0.31293973
0.42671275 0.22381671 0.30769083 1.2460923 0.6208219 0.5243399 0.23898095 0.65936756
0.7247399 0.33636644 0.6090444 0.8298319 0.3828227 0.86093277 0.55129296 0.42722246
0.2999071 1.6357188 0.27206567 0.4459713 0.27525887 0.7457927 0.4394089 0.28340304
00000000: dc3e d33e 270e db3e 1be8 cb3e 3310 953e
00000010: 28e6 a73e bd07 c13f fce1 083f e118 223f
00000020: 0d5e 523f 15f3 a13e 64a9 583f 4736 013f
00000030: d8b3 c93e d442 153f 3a8f f63e bb8b b03e
00000040: 116a b83e b11b d83e 1bda f53e af18 be3e
00000050: 0fd4 583e a071 033f 0a3d ab3e 412b 9e3e
00000060: 646e 493f fd87 e13e 5f3c ac3e 044d af3e
00000070: 30b5 b53e 6ef9 963e e785 143f 2050 c13e
00000080: 542d 7a3e 1b30 cd3e b74e c13e 19cf ca3e
00000090: 01f8 b13e e030 e73e ab71 863e a339 a03e
000000a0: 187a da3e 3530 653e a789 9d3e f47f 9f3f
000000b0: 2fee 1e3f 243b 063f 6cb7 743e 50cc 283f
000000c0: 8e88 393f 3938 ac3e 55ea 1b3f dd6f 543f
000000d0: 5601 c43e 1766 5c3f 8921 0d3f e7bc da3e
000000e0: 6c8d 993e 3c5f d13f 314c 8b3e 5a56 e43e
000000f0: bbee 8c3e 45ec 3e3f 34fa e03e 341a 913e
