pracs/prac6/model.pth (torch, 412053 bytes, 32 tensors)

0.0.weight f4 [16, 1, 3, 3]
000000 96 bd 82 3e 23 f4 fb 3d 08 1c 0a be 94 1e bd 3d
       0.25535268 0.12302425 -0.13487256 0.09234348
000010 c2 25 41 3e 87 71 7b be 73 2c 1b be 6f 71 1d 3e
       0.1886206 -0.24555026 -0.15153675 0.15375303
000020 91 5e a3 3e 13 85 b3 3e 1a bb 8d 3e 49 32 32 be
       0.31908086 0.35062465 0.2768181 -0.17401995
000030 84 8f 39 be 93 af 64 3e 85 47 45 3e 6e 49 66 be
       -0.18121153 0.22332601 0.19265564 -0.22488949
000040 67 01 8d 3e e1 9a 89 3e bb 79 92 3e 55 dd b3 3d
       0.27540132 0.26875976 0.28608498 0.0878245
000050 2c d6 a4 bd e0 de c6 3d a7 9e 51 bd 31 f9 03 be
       -0.080486625 0.09710479 -0.051176693 -0.12888028
000060 07 48 9d 3d 8d a2 ce 3d 6c 5a 71 bd d7 e2 41 3e
       0.07679754 0.10089598 -0.058924124 0.18934189
000070 52 ff ec bd 45 e0 09 bd 8c ab 51 bd e0 92 ad bd
       -0.11572136 -0.033661146 -0.05118899 -0.0847528
000080 a1 0a 5d be 0b 84 70 3e f6 92 7b bd 1a 32 ae 3d
       -0.21586086 0.2348787 -0.06141945 0.0850565
000090 4c 58 a7 3e 86 63 46 bb 81 a6 88 3e 0b f9 0c 3e
       0.32684553 -0.0030271723 0.26689532 0.13766877
0000a0 99 3e a9 be 2a a9 6a bd 6a c8 f6 3c d2 dc 16 3e
       -0.3305557 -0.057290234 0.030124862 0.14732674
0000b0 9e ca a3 3c 75 90 4a bc 73 ea 87 be 8f d4 88 3b
       0.019994076 -0.012363543 -0.26546058 0.0041757296
0000c0 e7 ab 88 be da c6 17 3e 29 22 b1 be 50 b6 b2 be
       -0.2669365 0.1482195 -0.34596375 -0.34904718
0000d0 75 b6 8d be 20 a5 4c 3e 8a a5 ae 3d e4 6b 02 be
       -0.27678266 0.19984865 0.08527668 -0.1273647
0000e0 07 01 8d bd 50 4d 74 be 2a 08 67 3e d1 9d 6b 3e
       -0.068849616 -0.23857617 0.22561708 0.23009421
0000f0 ca f2 07 be 01 63 76 3e 59 c1 2d 3d b6 0d 72 3e
       -0.1327621 0.24061204 0.04242072 0.23638043
000100 bb 88 62 be 05 51 20 be 3d d6 8e be b4 67 ae 3e
       -0.22122471 -0.15655906 -0.27897826 0.34063494
000110 42 50 84 be 99 03 30 3e 05 ce 19 3e 90 75 61 3d
       -0.25842482 0.17188872 0.15019996 0.055043757
000120 0f 7d a3 bd f4 f2 c4 bd 09 53 70 3e e7 77 0d 3e
       -0.079828374 -0.09616652 0.23469175 0.1381527
000130 ea e6 45 3e 52 c8 90 3e e3 96 0d 3c d1 3d 95 3e
       0.19326368 0.28277832 0.008641931 0.29148725
000140 30 fa 01 3e b7 1e 10 be d1 4f 93 be 4c 3e 75 be
       0.12693095 -0.14074217 -0.28771833 -0.23949546
000150 17 2e 47 be aa af 2b 3e 70 dd 69 3e 82 00 8e 3e
       -0.19451176 0.1676623 0.22838378 0.27734762
000160 75 d8 83 be ff 0a 66 3e 51 8b aa bd 1c ea 08 3e
       -0.2575108 0.22465132 -0.08327354 0.13370556
000170 c9 3f 06 be bb c7 31 be f4 6d 95 be c2 f7 7f be
       -0.1311027 -0.17361347 -0.2918545 -0.24996856
000180 d0 12 23 3e c8 a0 18 3c cd d7 1b be 98 dc d9 bd
       0.15925145 0.009315677 -0.1521904 -0.10637778
000190 8a 47 12 be 6e e0 01 3c 9a d0 28 3d f7 3f 87 3e
       -0.14285102 0.007927043 0.041214563 0.2641599
0001a0 57 4c 92 be 06 b8 39 3e 6b e6 25 be 6c aa 51 be
       -0.28573868 0.18136606 -0.16201179 -0.20475167
0001b0 ee 39 8d 3e 26 7e 9a bc 97 36 0e 3e 86 86 1f 3e
       0.2758326 -0.01885898 0.13888012 0.1557866
0001c0 96 66 5d 3e 2a 1e 04 3e fd 41 10 3e cc 19 16 3c
       0.21621165 0.12902132 0.14087673 0.009161424
0001d0 4d cb 2b 3e 59 b2 de 3d fe cd a0 3e e4 1f 4c 3e
       0.16776772 0.10873861 0.3140716 0.1993404
0001e0 20 e8 89 be 67 b1 02 3e b3 22 eb bd 2e 55 db 3b
       -0.2693491 0.12762986 -0.11481228 0.006693504
0001f0 73 ab 8b be 89 72 ae 3e 03 4a 2f 3e 50 3f 12 3e
       -0.27279243 0.34071758 0.17118077 0.14281964
000200 49 d6 69 3e 38 be 3b 3e c0 a1 56 3e 15 cf 80 be
       0.2283565 0.18334281 0.2096014 -0.2515799
000210 4b a7 d1 bc 31 e0 82 be 11 bd 19 3d 40 0e 53 3d
       -0.025592467 -0.2556167 0.037533823 0.05152726
000220 00 10 ad bc 61 69 b8 3c 8e 0e f7 bd 5d 04 a1 3d
       -0.021125793 0.022511186 -0.12063323 0.0786216
000230 d5 06 1c 3e 1c 9b 44 be 0b 2c 03 be 14 18 0c be
       0.15236981 -0.19199795 -0.1280977 -0.1368106

0.0.bias f4 [16]
000000 e5 eb a7 3d 18 6b d1 bd 06 0a a4 be 01 18 8e be
       0.0819929 -0.10225505 -0.32038897 -0.2775269
000010 4f 01 3c 3e 2f c8 9c be b7 c6 a5 3d 35 60 c2 3c
       0.18359874 -0.30621478 0.080945425 0.023727516
000020 de 68 98 3d a3 74 65 bd 87 a2 2d 3e f0 2c 47 bd
       0.07441877 -0.056019437 0.1695653 -0.04862684
000030 30 1e 69 3e 87 fd 47 ba 9f 4e a6 3e e9 1d 30 be
       0.22765422 -0.0007629026 0.32481858 -0.1719891

0.1.weight f4 [16]
000000 e8 90 83 3f b5 01 83 3f 2f 5b 81 3f 8a 23 74 3f
       1.0278597 1.0234896 1.0105952 0.9536673
000010 f7 b9 7f 3f d4 35 7a 3f 09 45 83 3f c8 f2 7c 3f
       0.99893135 0.97738385 1.0255443 0.98807955
000020 3f e8 80 3f 6f 21 75 3f ce 93 77 3f 43 45 78 3f
       1.0070876 0.9575414 0.9670991 0.96980685
000030 61 d7 80 3f f3 74 7f 3f b0 1b 83 3f 9d 31 81 3f
       1.0065728 0.99787825 1.0242825 1.0093266

0.1.bias f4 [16]
000000 00 24 01 bd f2 22 1c bc 32 f4 44 bd 45 ef 15 3d
       -0.031528473 -0.009529816 -0.048084445 0.03660514
000010 63 73 c6 bc a6 90 bf bc 2f 0f 00 bd 42 55 92 bb
       -0.024224943 -0.023384403 -0.03126448 -0.00446573
000020 de b0 65 ba 5c 2a 0c bd 61 b8 c4 bc 2b be b2 3c
       -0.0008762012 -0.034220085 -0.0240137 0.021819195
000030 8d 7e 36 bc 8f 12 25 3b db 09 18 bc 98 cb b8 bb
       -0.0111385705 0.0025188064 -0.0092796935 -0.0056395046

0.1.running_mean f4 [16]
000000 97 9e c3 be 01 ff 62 bf 9d 4a 11 bf 5f a4 63 be
       -0.38206932 -0.88670355 -0.56754476 -0.22230671
000010 0e d4 55 be 51 51 17 3f 44 b2 02 be 5a 63 12 bc
       -0.20881674 0.59108454 -0.12763315 -0.00893482
000020 36 e9 47 bf 4a 66 e8 3d 06 4a 47 3f 48 92 84 3e
       -0.78090227 0.11347635 0.77847326 0.25892854
000030 82 1f 34 bf cb 8d a8 be b3 3e 22 bc d3 ee 4b 3d
       -0.7036058 -0.3292068 -0.009902644 0.049788307

0.1.running_var f4 [16]
000000 da b4 e4 3c 4c bc 95 3d 72 7f 8f 3c 82 f1 f0 3b
       0.027918268 0.073113054 0.017516825 0.0073530087
000010 64 7f f6 3c a4 f7 c4 3d e9 4d 19 3c 0b bb 22 3c
       0.030090041 0.09617546 0.009356954 0.00993229
000020 7c 42 b0 3d d2 8e 8e 3c 4c d2 38 3d 9d 54 98 3c
       0.08606431 0.017402086 0.04512243 0.018595034
000030 69 65 d1 3d 5c 27 cf 3c 44 0e c3 3c 36 cf 40 3c
       0.102244206 0.025287323 0.023810513 0.011768153

1.0.weight f4 [32, 16, 3, 3]
000000 75 1d 5c 3d 52 2f ab bc 2c 5e c6 bd 04 3f e5 3c
       0.05373903 -0.020896588 -0.096859306 0.02798415
000010 88 63 eb 3c 90 c3 9b 3d 61 c5 9f 3d 41 4c bc 3d
       0.028733984 0.0760566 0.07801319 0.09194232
000020 15 66 bb 3d db 35 47 3d 70 9b 83 3d cd 65 5f 3c
       0.0915033 0.048635345 0.06426132 0.013635111
000030 50 51 e1 3c de db 6b 3d 14 3e cc bc 7d 0f be 3d
       0.027504593 0.05758273 -0.024931945 0.09280298
000040 74 18 81 3d ca 96 10 3b e3 c8 c7 3d f1 86 cf bc
       0.06303492 0.0022062534 0.09755113 -0.0253329
000050 99 86 c7 bd 7a 83 89 bd 75 71 70 bd 9b 0c 1a 39
       -0.09742469 -0.0671453 -0.05870195 0.0001469128
000060 41 be 3a 3d 8a 65 8e 3b 19 10 ad 3c 7c 9b 7c bd
       0.045591597 0.0043456005 0.02112584 -0.06167172
000070 e7 ae 2f bc 29 a3 3d 3d bd ea d2 bc c4 cf 6a 3c
       -0.010722852 0.04629818 -0.025746698 0.014331762
000080 75 7a 3b 3d d5 fd 72 3d 9f e5 1d 3d 62 ef 23 bd
       0.04577108 0.059324104 0.038549062 -0.040023215
000090 10 5a 89 3d fc 2b ae bd b2 37 a5 3c 1b 59 ac bd
       0.06706631 -0.08504483 0.02016816 -0.08415433
0000a0 36 62 8e bd 78 5d dd 3c e9 3e cd 3c 22 04 c5 bc
       -0.06952326 0.027022108 0.025054412 -0.024049822
0000b0 f5 47 b6 3d 98 9a 27 3d 78 4a 7e bc d7 35 c6 3d
       0.089004435 0.040918916 -0.015520684 0.09678238
0000c0 fc 67 da 3c 6a d5 af ba 60 d8 08 3d 7b bc 29 3d
       0.026660912 -0.0013415043 0.033409476 0.041439515
0000d0 16 a0 5a bc b9 7b 73 bd a7 cf 02 3d 5a 4c 7c bb
       -0.0133438315 -0.059444163 0.031936314 -0.0038497658
0000e0 97 75 24 bd de 45 55 3d 07 4e f6 bc 22 63 91 3c
       -0.040151205 0.052068584 -0.030066503 0.017747466
0000f0 81 55 dc bb ec c8 e9 bb 20 f6 fd b9 ed 05 1c 3c
       -0.00672406 -0.0071345475 -0.00048439298 0.009522897
000100 82 20 db 3c ce 27 17 bd f6 af ae bc f5 6c 40 3d
       0.0267489 -0.036903195 -0.02132414 0.04697891
000110 d6 31 a0 bd 95 40 f3 bb 82 8f 32 bd d2 5d a3 bc
       -0.078220055 -0.0074234703 -0.04359389 -0.019942198
000120 68 a7 f3 3c b0 8e 0c bb 13 a4 ca 3c d4 d7 83 bc
       0.029742911 -0.0021447353 0.02473644 -0.016094126
000130 06 c2 0a bd 00 7b db bd 5f 70 c2 3d d8 08 34 bc
       -0.03387644 -0.1071682 0.09494089 -0.010988437
000140 7d ff 4f 3d ba 1e c7 3d 32 62 44 3d 26 43 0b bd
       0.050780762 0.097226575 0.04794521 -0.033999585
000150 04 29 0d 3a f6 0e 3f bd c0 4a 94 bd d6 e8 f0 3c
       0.0005384835 -0.046645127 -0.0724082 0.0294079
000160 fe 53 b7 bd 7c 18 50 3d 00 23 9f 3d 57 90 0a bd
       -0.08951567 0.0508046 0.077703476 -0.03382906
000170 64 21 e3 3c f0 93 cb 3d a7 8c dc 3b 52 ac 4c bd
       0.027725883 0.09940326 0.0067306343 -0.049969025
000180 cd 68 9c bb 95 22 ab 3d 6a 36 8b 3d 71 1f 95 3c
       -0.0047732354 0.083562054 0.06797488 0.018203469
000190 5d 58 23 3d d5 cd 12 bd a4 49 97 bd 84 3b 64 bd
       0.03987919 -0.035840828 -0.07387093 -0.05572082
0001a0 4a f1 97 bc 17 c9 61 bc 28 99 0c bd 37 79 6d 3d
       -0.018547673 -0.013780854 -0.03432575 0.057976928
0001b0 1e 42 30 bd b6 45 16 bd 40 ed 3d bd ea 70 b5 bb
       -0.043031804 -0.036687575 -0.046368837 -0.005537142
0001c0 2a 38 d9 bc f0 e5 88 3d 01 5a 99 3d 7d e7 80 bc
       -0.026516039 0.06684482 0.0748787 -0.015735382
0001d0 7e a9 57 3d 47 79 7c 3d b8 03 91 bd a9 d1 00 bc
       0.052651875 0.061639097 -0.070807874 -0.007862487
0001e0 89 20 9b 3d 55 c4 1f 3d 9d 06 6e bd 4c 46 88 3d
       0.07574565 0.039005596 -0.058111776 0.06654033
0001f0 83 df 80 3d ff 92 5f 3d 9d a3 a5 3d 6e 34 6e 3d
       0.062926315 0.054583546 0.080878474 0.05815547
000200 0e 7b 5a 3d 93 fb 82 bd fb ce 7e 3d 04 be bf bc
       0.05334001 -0.0639564 0.06220911 -0.023406036
000210 64 f9 cf 3c 3f 29 d2 3d 4a 29 a3 3d 9e 73 8f 3d
       0.025387473 0.10261773 0.0796686 0.07004474
000220 cc 3c 9a 3d 7f a1 74 3d eb 7c 21 ba a7 31 78 3d
       0.07531127 0.059724327 -0.0006160277 0.060594227
000230 d9 0b 9d 3c fc ab 72 bc b9 b2 bd 3b 4d 58 a3 3c
       0.019170688 -0.014811512 0.0057891277 0.019939566
000240 2d 8f 50 bd 00 50 a4 3b e6 43 4a 3d e5 1c 41 bd
       -0.050917793 0.0050144196 0.04938116 -0.047146697
000250 8d 7c 55 3d 93 40 18 3d ad 3f 17 bd 73 24 b7 3d
       0.052120734 0.037170958 -0.03692596 0.08942499
000260 b3 17 4e 3d 0f 96 5d bd 5b fb 22 3d 1d d0 bc bc
       0.05031557 -0.054098185 0.039790493 -0.023048455
000270 f8 26 8f 3b a7 22 55 bd a7 ae 2e 3d 02 9f 9b bd
       0.004368659 -0.052035 0.04264703 -0.07598688
000280 79 79 ca 3d 31 8e 94 bd f9 1e 85 bd 68 b1 55 3d
       0.0988645 -0.07253683 -0.06500048 0.05217114
000290 2a 2c 7e bd cc e1 61 bd cb c2 10 3d 86 1a 6d bd
       -0.062053837 -0.055146977 0.03534202 -0.057886623
0002a0 d2 92 a1 3c b0 30 17 bd 1f 3c a6 bc 7e 00 ed bb
       0.01972333 -0.036911666 -0.02029234 -0.0072327247
0002b0 28 49 f7 bc 1a 34 95 bd f2 8a 41 bc 32 37 75 3d
       -0.03018625 -0.07285328 -0.011812912 0.05986709
0002c0 54 9b 37 bd c9 ff 5e 3d 13 b2 2a bd 7a 78 39 bc
       -0.044825867 0.054443154 -0.04167373 -0.011320228
0002d0 76 27 1b bd ce 3c 91 bd ba dc 56 bc 94 75 69 3b
       -0.03787943 -0.07091676 -0.013114149 0.003562306
0002e0 72 d5 d6 3c 16 3c 5d 3c aa 1d 9c bd 5a e2 d4 bc
       0.026224826 0.013503095 -0.076228455 -0.02598684
0002f0 25 75 8c 3d 5d 53 1e 3c 9d 67 15 bd d0 10 8f 3c
       0.06858281 0.00966343 -0.036475766 0.017464072
000300 1d b7 b9 3c 2d ad 22 bd af e9 59 bd a1 d0 02 bb
       0.022670323 -0.039715935 -0.053201374 -0.0019960778
000310 1f e0 fe ba 74 00 9e bc 98 48 6a bb 6c 04 6b bd
       -0.0019445455 -0.019287325 -0.0035748836 -0.057377264
000320 02 f2 22 bd 72 2a 2c bd 77 8b 96 3d c9 a4 58 bd
       -0.039781578 -0.042032667 0.073508196 -0.052891526
000330 5b 65 6b bc 1c 1b 7f 3d 18 d3 8b 3c 78 c5 6d 3d
       -0.014367427 0.062281713 0.01706843 0.05804965
000340 98 2d 2e bd 7c a5 2d 3d 81 2c 5d 3d 02 11 6e 3d
       -0.04252395 0.042394146 0.05399752 0.05812169
000350 9f f8 6f 3d 83 7c 47 bd f7 5d c0 3b f5 17 ff bc
       0.058586713 -0.048702728 0.0058705765 -0.031139353
000360 79 87 24 bc 52 ef 18 3c e2 81 00 bd 4d b2 97 3d
       -0.010042065 0.009334402 -0.031373866 0.07407055
000370 fc 9e 33 3d 3f 47 6b bd 0c bb b4 bc 80 b0 aa 3d
       0.04385279 -0.057440992 -0.022061847 0.08334446
000380 04 21 b7 bc e6 97 cc bc a8 c7 94 ba d7 5e dd 3b
       -0.02235461 -0.024974775 -0.0011351006 0.0067556906
000390 7f 66 3a 3d 1f 8a 06 bd cc 75 19 3c 2d a8 c2 3c
       0.045507904 -0.032846566 0.009366464 0.023761833
0003a0 e4 6e 74 3c f8 87 03 bd 1a 28 81 bc e8 c5 40 bd
       0.0149190165 -0.03211209 -0.015766192 -0.047063738
0003b0 df 60 5b 3b 31 7d 37 bc 9c b2 99 3d a0 11 35 bd
       0.0033474488 -0.011199282 0.0750477 -0.04420626
0003c0 5d 0c 89 3c 78 10 84 bd 44 b7 89 3d c7 27 6f bd
       0.016729528 -0.06448454 0.06724408 -0.058387544
0003d0 28 25 05 3d 47 7d 8a bd 43 31 81 bd 6e 4c b7 3c
       0.032506138 -0.06762176 -0.06308224 0.022375312
0003e0 1d 06 64 bd a5 41 71 3d fa 2f 3a bd 91 66 55 bd
       -0.055669893 0.058900494 -0.04545591 -0.052099768
0003f0 e7 fa ad bc b5 56 44 bd 9d d2 2d 3d d7 26 69 3d
       -0.021237804 -0.047934253 0.042437185 0.056921806

1.0.bias f4 [32]
000000 2f a2 dc bc 4a 58 85 bc 65 cb 85 3d e6 64 62 bc
       -0.026932804 -0.016277451 0.06532935 -0.013818001
000010 7c c1 59 bd 9f d3 27 bd fb be cd 3c 8f 06 1d ba
       -0.053163037 -0.040973302 0.02511548 -0.0005990052
000020 72 d9 fc bc 2f 3b 1f 3d df f3 f2 bc 42 71 a5 bd
       -0.030865405 0.0388748 -0.029657302 -0.08078243
000030 c4 97 42 bd 68 a1 24 3d 71 22 49 3d 58 c8 7a 3d
       -0.047508016 0.04019299 0.04910511 0.06122622
000040 a7 30 f8 3c 8a 38 97 3d 3f a1 38 3d f4 08 79 3d
       0.030296637 0.07383831 0.04507565 0.060799554
000050 67 7e 39 3d a3 c0 82 bd e4 d2 ab 3c a6 1d 5a 3c
       0.045286562 -0.06384399 0.020974584 0.013312733
000060 ed 78 ff 3c 63 df 0e 3d 89 c3 6a 3d b1 e3 62 bc
       0.031185592 0.034881007 0.057315383 -0.013848231
000070 7b e4 34 bc 89 ac a6 3b 42 aa bf 3c e3 29 96 3d
       -0.011040802 0.0050864858 0.023396615 0.07332208

1.1.weight f4 [32]
000000 36 08 7d 3f f2 48 7f 3f ae 5d 7c 3f 2e 06 76 3f
       0.98840654 0.9972068 0.98580444 0.9610318
000010 e1 28 7b 3f f0 b9 7e 3f f6 7c 80 3f 48 d2 7e 3f
       0.9810925 0.9950247 1.0038135 0.99539614
000020 f6 56 7a 3f 62 c8 80 3f bd 0c 7a 3f 69 b5 7e 3f
       0.9778894 1.0061152 0.9767569 0.9949556
000030 22 46 7f 3f b4 09 78 3f da 90 83 3f 5c e2 7e 3f
       0.9971639 0.96889806 1.027858 0.99564147
000040 4a 46 7d 3f 0d 67 81 3f d9 36 83 3f 1d 1c 80 3f
       0.9893538 1.0109574 1.0251113 1.000858
000050 54 ba 82 3f df cb 81 3f 1b 5f 84 3f b9 e3 80 3f
       1.0213113 1.0140342 1.0341524 1.0069495
000060 79 97 7f 3f 92 e5 7d 3f 59 2b 76 3f b9 f4 7b 3f
       0.99840504 0.9917842 0.96159893 0.9842029
000070 d6 3d 7d 3f 95 78 80 3f c2 92 85 3f a8 e8 76 3f
       0.9892248 1.0036799 1.0435412 0.96448755

1.1.bias f4 [32]
000000 28 c4 95 bc af 3d d8 bb 5c a6 0d bd 6b 68 a2 bc
       -0.018282011 -0.00659915 -0.03458248 -0.019825181
000010 84 20 42 bc df 1e 4c bc 66 07 a5 3b 60 e7 a4 ba
       -0.011848573 -0.012458532 0.0050362824 -0.0012581162
000020 70 74 20 bd 10 3a 93 3c 59 18 94 ba 1d 58 96 3c
       -0.039173543 0.017972022 -0.001129876 0.018352563
000030 09 8f af bc 4a 6a 41 bd 5e 0d df ba 7a 95 fc bc
       -0.02143051 -0.047220506 -0.0017017534 -0.030832995
000040 c6 70 42 bc 97 58 78 bd 56 4b bb ba 3d 0b cd 3b
       -0.011867708 -0.06063136 -0.001428942 0.006257443
000050 0b 6a d0 bc d4 27 92 bc 89 62 bb bb 02 ff 67 bc
       -0.02544119 -0.017841257 -0.0057185334 -0.01415992
000060 57 79 81 ba eb 40 2e bc 41 2a 77 bd 95 2c 2a 3b
       -0.0009878081 -0.010635595 -0.06034303 0.0025966514
000070 18 76 a4 bc fd f8 00 bd 02 17 8b 3b d9 d4 73 bc
       -0.020075843 -0.031487454 0.004244686 -0.01488229

1.1.running_mean f4 [32]
000000 36 c0 4e 3f 59 ba 83 be 72 fc 52 bd ea c1 98 bf
       0.8076204 -0.2572811 -0.05151028 -1.1934178
000010 d0 84 da be 1e 90 9b 3e a3 24 26 3e 79 75 38 be
       -0.42679453 0.3038339 0.16224913 -0.18013562
000020 a6 c4 2d 3e 69 5c e7 3e fa 17 8d bf 4c 32 7c be
       0.16969547 0.4518769 -1.1022942 -0.24628562
000030 96 2a dc be 41 f8 9a bf 97 e6 53 be a7 eb d5 bd
       -0.4300124 -1.2107011 -0.20693432 -0.10445338
000040 4a 74 c5 be 6a 82 8b 3e 28 13 05 be 22 0f af bd
       -0.38565284 0.27247936 -0.12995589 -0.08547808
000050 ec ac d5 be 8a 8f 81 3e 52 22 14 be 43 da ac 3e
       -0.4173349 0.25304824 -0.14466217 0.3376027
000060 37 7a 9e be e9 86 cf bd d3 37 3c 3f 58 af c8 be
       -0.30952618 -0.10133154 0.7352268 -0.39196277
000070 e5 6b 35 3e b7 a9 f7 be d6 af f0 bd b1 6c 1a bf
       0.1771694 -0.4837167 -0.11752288 -0.603221

1.1.running_var f4 [32]
000000 d3 e2 10 3f 3f df 24 3e fa 98 b3 3e be f3 23 3f
       0.56596106 0.16100787 0.3507765 0.64043796
000010 97 3b 8e 3e 55 83 b1 3e 3a fd 53 3d f0 58 7e 3e
       0.27779838 0.3467051 0.051755168 0.24838614
000020 9d cb 7a 3e d6 b9 e5 3d c2 e6 32 3f 2b 5d fe 3d
       0.24491735 0.11217086 0.6988336 0.12420114
000030 a1 08 a5 3e 39 a5 89 3f 95 76 57 3d 50 27 9a 3d
       0.32233146 1.0753547 0.052603323 0.075270295
000040 68 89 74 3e 70 fa 17 3d be a3 5e 3e 0e 9f b8 3d
       0.23880541 0.03710407 0.2174215 0.09014712
000050 00 18 f2 3d 1e 5a 79 3e 8c 3a 76 3e ce 41 18 3e
       0.11820984 0.24350783 0.24045771 0.14868852
000060 1e 7a a6 3e 4e 40 55 3e d8 cc 9b 3e b2 45 22 3e
       0.32515043 0.20825312 0.3042972 0.15846899
000070 b5 16 e6 3d 28 80 25 3e 35 a2 d2 3d cb e3 aa 3e
       0.112348 0.16162169 0.10284845 0.33376917

2.0.weight f4 [64, 32, 3, 3]
000000 cf 36 a4 bc cb c7 ff bc 0d 9a 88 3c 9c e3 c5 3c
       -0.020045666 -0.031223198 0.01667502 0.024156384
000010 4f 41 4e bd 5c 39 11 3c e8 63 f2 3c 64 ed 71 bd
       -0.050355252 0.008863773 0.029588655 -0.059064284
000020 23 1a 03 bd 66 a3 c8 bc 6d 56 84 bd 69 bf 06 3b
       -0.032007348 -0.024491977 -0.06461797 0.0020560867
000030 9f 86 09 3c 01 4f 4a bc d5 8a 71 bd 77 63 00 bd
       0.008393913 -0.012347938 -0.05897029 -0.031344857
000040 2c b6 ad 3b df 7c 56 bd b8 78 e9 3c e4 6b ed bb
       0.0053012576 -0.05236518 0.028499946 -0.0072455276
000050 db 54 bd bc f1 94 c5 bc bf 4a ab bc ce 53 ae bc
       -0.023111751 -0.024118872 -0.020909665 -0.021280196
000060 04 95 95 bd 1d 54 02 3c 4b 2d 82 3d e5 fb 35 bd
       -0.07303813 0.0079546245 0.06356295 -0.04442968
000070 50 3c 99 bc cd 28 bf ba fe 12 e3 3c 16 94 89 bc
       -0.018705517 -0.0014584303 0.027719017 -0.016794246
000080 67 50 08 bd 44 29 ac bc 56 0c 0d bd 5c 73 e1 bb
       -0.033279803 -0.02101577 -0.034435593 -0.006880207
000090 04 0c ed 3c b6 7a 06 3d f7 c9 e5 bc 24 11 e8 bc
       0.028936394 0.03283187 -0.028050406 -0.028328486
0000a0 b4 c3 b6 bb d5 cc 1f bd 56 78 9c bc 06 7a db 3a
       -0.005577529 -0.039013702 -0.01910035 0.001674474
0000b0 18 fc f8 39 2a 7e ba bb 3e 8b c1 3c 95 1c 52 3d
       0.0004749007 -0.0056913095 0.023625966 0.05129679
0000c0 bf f9 91 bd 28 fb 8f ba 51 c0 bd 3b 2f 11 65 3c
       -0.071277134 -0.0010984885 0.005790748 0.013981148
0000d0 1c 10 72 3d 9a 52 0d 3c 88 2e d1 bc 4c cf a0 bd
       0.059097394 0.008625651 -0.025534883 -0.07852039
0000e0 a3 b9 90 3c 13 ed 8a bc 4f 9f 40 3d 92 37 80 bc
       0.017666643 -0.016958749 0.04702693 -0.015651498
0000f0 d7 f4 bc 3a 1c 6c 0b bd a7 f5 c2 bc f5 05 45 3d
       0.001441623 -0.034038648 -0.023798777 0.048101384
000100 18 11 92 3c 68 2c 62 ba 7e b9 13 3d 23 12 9f bc
       0.017830417 -0.0008627833 0.03606557 -0.019417828
000110 98 ca 6c 3d 17 29 6b bc b5 eb eb bc c1 6e 6d 3b
       0.057810396 -0.014353058 -0.028798917 0.0036229345
000120 f0 70 80 3d 46 22 72 3c f3 42 19 3c 50 f0 ee ba
       0.06271541 0.014778679 0.009354341 -0.0018229578
000130 f7 b4 56 3d ac 22 e0 3c 53 28 c4 bc 28 c2 5c 3d
       0.052418675 0.027360283 -0.02394501 0.0538961
000140 f9 aa ca 3c 8f cd 30 3d ec 91 8f 3d 4b 89 f6 bb
       0.02473973 0.043164786 0.07010254 -0.007523691
000150 55 97 b5 bb 79 56 f5 bc f9 5b 68 3c 0d ce db 3c
       -0.005541722 -0.02994846 0.014182084 0.026831651
000160 7b 41 8e bd 16 83 64 bd a3 12 10 bd 0d 6e a3 bc
       -0.06946083 -0.055789076 -0.035174023 -0.019949937
000170 5e 76 4e bd 50 26 9f bb a5 08 0f 3d 83 e3 18 3d
       -0.050405852 -0.004856862 0.034920353 0.037326347
000180 fd a7 64 bd 08 0c 0b 3d c8 98 87 3d 59 3d d3 bc
       -0.05582427 0.03394702 0.066209376 -0.025786089
000190 f4 b4 1a bc 5d 66 95 ba 1f 80 81 3c 61 87 3c 3c
       -0.009442557 -0.0011398304 0.015808163 0.011506886
0001a0 a2 f9 52 bd 19 dc 50 3d 68 fa ad bc 90 f0 ec 3b
       -0.0515076 0.05099115 -0.021237567 0.0072308257
0001b0 8c 56 34 3c 71 1d 57 bc e4 36 09 bd 06 ef c0 3a
       0.0110069625 -0.013129578 -0.033499613 0.0014719672
0001c0 0b 8a 2c 3d fe d7 f7 3c 47 52 16 bd dc 8c 9a 3d
       0.042123836 0.03025436 -0.03669956 0.07546398
0001d0 46 43 54 bc e5 0f f3 bc 36 7e cb ba df bd 64 bd
       -0.012955492 -0.029670665 -0.0015525285 -0.055845138
0001e0 43 0c f0 bc 02 f7 f5 3c 7e c7 50 bd e0 15 46 3c
       -0.029302722 0.030025009 -0.0509715 0.012090176
0001f0 d7 e1 88 3c 10 f2 6c 3d 36 9d c1 bb 97 64 52 3d
       0.016709251 0.057848036 -0.0059086336 0.05136546
000200 95 c9 95 3c 40 46 c9 3d 53 d8 0e bd 75 b4 8a bd
       0.018284598 0.09827852 -0.03487427 -0.06772701
000210 d3 94 7e 3d 57 e6 be bc 50 b8 bc bc dd 53 1a 3c
       0.06215365 -0.023303194 -0.023037106 0.009419409
000220 aa 3c e3 3c e3 66 31 3d 89 96 92 bb ec 01 af bc
       0.027738888 0.04331101 -0.0044735116 -0.021363221
000230 7a e2 99 bc 45 6a 75 bd 75 79 3a bb 17 97 7e 3d
       -0.01878475 -0.0599158 -0.0028453742 0.06215581
000240 df 6a 15 3c d0 e2 2b bd 71 cd 38 bd 77 54 9c bc
       0.009119718 -0.041964352 -0.0451178 -0.019083245
000250 e3 32 8f 3d 44 d6 30 bd 2c c2 70 3d f7 17 ec ba
       0.06992128 -0.04317309 0.058778927 -0.0018012513
000260 ed 6d 88 bd 68 48 2f 3d cd c9 b6 b9 e9 1e 2f 3d
       -0.06661592 0.04279366 -0.00034864098 0.042754088
000270 ed cc e7 bc 79 88 9a bc fe ee 73 3b d5 fd 50 bb
       -0.028295958 -0.018863903 0.0037221308 -0.0031889577
000280 3a e4 36 3d 71 41 d9 bc e7 c1 0b bd 88 ed 51 bd
       0.044651248 -0.026520463 -0.034120467 -0.051251918
000290 48 78 88 bd 39 99 17 bd 60 80 a2 3c 50 29 22 3c
       -0.06663567 -0.03701136 0.019836605 0.009897545
0002a0 a8 83 fb 3c c1 2c 93 3d 6a f2 21 3d d3 4c b0 bc
       0.030702427 0.071862705 0.039537825 -0.021521008
0002b0 da 2b 89 3d cc d1 12 bd b0 8a 0f bd 9e 91 b3 3c
       0.06697817 -0.03584461 -0.035044372 0.021920022
0002c0 b9 45 b4 bc 52 4f 18 bd 83 a2 e3 bb 86 41 41 3d
       -0.022005903 -0.03718502 -0.006946863 0.04718163
0002d0 c9 e7 b0 3b 1c 2d 00 3d 1e 09 db 3c 47 d7 92 3d
       0.0053987247 0.03129302 0.026737746 0.07169967
0002e0 4f 81 4c bd 49 33 2a bc 43 4f 8e 3d a1 e8 ec bc
       -0.049928006 -0.010388204 0.06948712 -0.02891952
0002f0 6b f4 88 bd f5 55 18 bd 42 bc 3c 3c af d3 0b 3d
       -0.06687244 -0.03719135 0.011519494 0.034137424
000300 09 85 9e bc 90 a6 9a bc 9a ff b5 3c 02 48 7b bd
       -0.019350545 -0.018878251 0.022216607 -0.06134797
000310 19 d3 03 bd 11 4f db ba b1 16 6b 3c eb 9c c4 bc
       -0.03218374 -0.0016731938 0.014348672 -0.024000606
000320 fe 2f 2b 3c 33 1b 6e 3c 3a 83 b5 bc 99 e8 b0 bb
       0.010448454 0.014532852 -0.0221573 -0.0053988216
000330 ca ee 5f 3d 97 5a 33 3d 8c bc ad bc 98 77 0d bc
       0.054671086 0.043787565 -0.02120807 -0.00863447
000340 98 20 58 bd 0a 8d cb 3b 51 59 d5 3c 90 19 f4 bb
       -0.05276546 0.0062118815 0.026043566 -0.0074493363
000350 cc 3b 93 bc 26 66 0d bc ff a6 51 bc 33 08 75 3d
       -0.01797285 -0.008630311 -0.012796163 0.059822273
000360 ef a7 b6 bb 64 ec 28 3d 35 04 59 3c ab 88 b6 3c
       -0.0055742185 0.041241065 0.013245632 0.022281965
000370 92 57 79 3d e3 1d 92 3d f7 56 2b bd 76 36 e8 bc
       0.06087453 0.07134607 -0.041830983 -0.028346281
000380 72 59 9e bc d7 e2 b5 bc 44 eb e0 bc 1a 64 cf 3c
       -0.01932976 -0.022202892 -0.027455933 0.025316287
000390 ce fe b3 bc 49 ae b2 39 8d 09 e6 3b 8c 7b e3 bc
       -0.021972086 0.00034080658 0.0070201815 -0.027768873
0003a0 5d 6a 19 bd 88 9b 6b 3c dd b2 4a 3d 6f 7d d2 bc
       -0.03745495 0.014380343 0.049486984 -0.025694577
0003b0 89 30 3c bc 47 10 13 3d c9 61 50 bd af 23 61 3d
       -0.011486181 0.035904195 -0.050874505 0.05496567
0003c0 dc 60 d9 bc 72 85 0c bd 8d 2a c2 3c 70 7f 8b 3c
       -0.026535444 -0.03430695 0.02370193 0.01702854
0003d0 8c 46 58 bd 36 68 1c 3d f3 91 58 bd ae 5b 6f bd
       -0.052801654 0.03818532 -0.052873563 -0.058437042
0003e0 fa c8 e4 3c 59 39 22 3d ba df 75 3d f6 12 0e 3d
       0.027927864 0.039605472 0.060027815 0.03468605
0003f0 d5 70 78 3c b7 5d 66 ba d3 67 54 bd a9 c7 83 3d
       0.01516362 -0.00087877683 -0.051856827 0.064345665

2.0.bias f4 [64]
000000 d6 f7 96 bb a0 04 66 bd 7c 17 54 3d 6c b0 bc 3c
       -0.004607181 -0.056156754 0.05178021 0.023033343
000010 35 35 5d 3d b8 de 81 3c cf 90 49 bd 8c e7 51 3d
       0.05400582 0.01585327 -0.049210366 0.05124621
000020 1c 7a 34 bc 12 58 60 bc df 63 55 bd f1 a1 1c 3d
       -0.011015441 -0.013692873 -0.052097198 0.038240377
000030 d8 63 00 3b 9d d4 c1 3b 18 c5 e5 3c 94 33 14 bd
       0.0019590762 0.005915238 0.028048083 -0.036182
000040 0a b7 4f 3c cc 27 45 bd 54 4c 3f 3d 4d 59 f6 bc
       0.012677917 -0.048133656 0.04670365 -0.030071879
000050 99 62 d3 3c 46 47 12 bb 94 45 84 bc 06 eb db bc
       0.025803851 -0.0022320314 -0.016146459 -0.026845466
000060 68 3a 91 3c 0a 84 09 3d b5 47 4e bc cc a0 2b bd
       0.017728046 0.033573188 -0.0125903385 -0.041901395
000070 24 01 af bc 5b b2 1e bd c6 da 4a 3d da 2f 57 bd
       -0.021362849 -0.03874431 0.049525045 -0.05253587
000080 11 ad 4a bb 2d 41 51 bd e0 1a 7d 3c 75 83 42 3d
       -0.003092591 -0.051087547 0.015448302 0.04748865
000090 2b d5 3a bd 1b cd 9d 3b c7 f3 4b 3d 18 1c e0 3c
       -0.04561345 0.0048157102 0.04979303 0.027357146
0000a0 82 d1 3e bd dc c6 ed bc b9 00 1b bd ce c4 75 bd
       -0.04658652 -0.029025488 -0.037842486 -0.06000214
0000b0 16 5c 87 3c cf e8 c3 3c 77 ee f7 3c a5 f1 02 3c
       0.016523402 0.023914723 0.030265076 0.007992183
0000c0 04 fb 74 3d 99 49 d4 3c 69 de 01 3d 9a 11 77 3d
       0.0598097 0.025914 0.031706247 0.06031952
0000d0 2e 12 34 bd 66 49 c5 bc ef bd 12 3c d5 36 70 bc
       -0.04396265 -0.02408285 0.0089564165 -0.0146615105
0000e0 c0 73 36 bd ac f0 b5 3c cb c7 e1 bc b5 4c 2a bd
       -0.04454398 0.022209488 -0.027561089 -0.04157706
0000f0 db 02 77 bd 74 8f 24 3d 6b 13 64 3d 67 51 4b bc
       -0.060305458 0.04017587 0.05568258 -0.012409545

2.1.weight f4 [64]
000000 0f 2e 81 3f 6f 98 7e 3f 31 3a 7b 3f c7 bc 7d 3f
       1.0092181 0.99451345 0.9813567 0.99116176
000010 91 7b 7c 3f d7 14 7d 3f f5 b2 81 3f 1f 06 7f 3f
       0.9862605 0.98859924 1.0132738 0.99618715
000020 e6 87 84 3f e5 85 7e 3f 45 3b 79 3f 2d 44 80 3f
       1.0353973 0.99423057 0.97356063 1.0020806
000030 63 21 81 3f 76 17 81 3f b3 e8 79 3f 7e 5d 7b 3f
       1.0088314 1.0085285 0.97620696 0.9818953
000040 2e b7 7b 3f 87 aa 79 3f 2a 60 80 3f da 1e 83 3f
       0.98326385 0.9752583 1.0029347 1.024379
000050 77 e7 83 3f 22 06 7f 3f e4 40 7b 3f 11 da 7d 3f
       1.0305012 0.9961873 0.9814589 0.9916087
000060 30 3b 80 3f 44 9f 81 3f 8c 84 7f 3f 23 b6 80 3f
       1.0018063 1.0126729 0.99811625 1.0055584
000070 a4 f7 7f 3f 80 e9 7f 3f 41 50 7f 3f 9f 45 81 3f
       0.99987245 0.9996567 0.9973183 1.0099372
000080 c7 86 81 3f 03 e1 7d 3f 8a 07 7d 3f 81 4a 84 3f
       1.0119256 0.99171466 0.9883963 1.0335237
000090 c0 e3 82 3f 06 86 7b 3f f8 8f 7f 3f 82 c6 81 3f
       1.0225754 0.9825138 0.99829054 1.0138705
0000a0 df 1d 82 3f f7 3a 7f 3f ad 41 7e 3f 8e e6 74 3f
       1.0165366 0.9969935 0.99318963 0.956643
0000b0 41 36 80 3f 6d 56 7c 3f e7 13 77 3f c7 ac 84 3f
       1.0016557 0.98569375 0.96514744 1.0365227
0000c0 c4 a6 7a 3f 2d 95 81 3f fa 3d 79 3f 2d c0 7e 3f
       0.97910714 1.012365 0.97360194 0.99511987
0000d0 48 0b 7f 3f 2f af 7e 3f 9b 5c 79 3f 72 df 81 3f
       0.9962659 0.9948606 0.9740693 1.0146315
0000e0 23 8e 80 3f 3a 4c 7f 3f bd 23 82 3f b9 5a 7c 3f
       1.0043377 0.9972569 1.0167156 0.9857593
0000f0 fd 90 84 3f f8 2e 79 3f 62 48 7f 3f b4 6f 81 3f
       1.0356747 0.97337294 0.9971982 1.0112214

2.1.bias f4 [64]
000000 26 56 c3 bc e9 d1 d5 bc 22 d6 0b bd ba 5e f4 bc
       -0.02384479 -0.02610107 -0.03413976 -0.029830325
000010 e1 d6 13 bd 26 3f 3d bd 2a dd af bc 6c c4 10 bd
       -0.036093596 -0.0462028 -0.021467764 -0.035343572
000020 83 2c 4b bd 9e 33 55 bd b8 ce f2 bc 33 71 34 bd
       -0.049602997 -0.05205118 -0.029639587 -0.044053268
000030 31 f5 57 bb 83 fc 55 bc 75 29 c7 bc e1 4c 12 bd
       -0.0032952542 -0.013060692 -0.02431176 -0.03571785
000040 11 64 1a bd 92 aa 3a bd de de 5b 3b 5d 82 05 bc
       -0.037693087 -0.045572825 0.0033549587 -0.008148757
000050 31 8d 65 bd 6a 75 20 bd 8a 31 e3 bc e7 d1 4d bd
       -0.056042854 -0.039174475 -0.027733583 -0.050249007
000060 50 a1 18 bd f8 5d d3 bc 16 40 9d bc ac 27 35 bd
       -0.037263215 -0.025801644 -0.019195598 -0.044227287
000070 9e 60 f2 bc b6 34 fa bc 89 3a fe bc af a9 7b bc
       -0.029587086 -0.030542713 -0.031033771 -0.01536028
000080 74 77 2e bd 38 fb 18 3b 56 b2 23 bd 53 01 ac bc
       -0.042594388 0.0023343097 -0.039964996 -0.020996725
000090 9e 14 17 bd cb f0 e8 bc ba d6 37 bd 9c cc 27 bd
       -0.036884896 -0.028435132 -0.044882514 -0.040966615
0000a0 18 d8 77 bd 45 59 e0 bc 33 6a cd bc 90 2c 5f bd
       -0.060508817 -0.027386317 -0.025075054 -0.054485857
0000b0 ed 29 01 bd 8d 75 0d bd 57 9d 05 bd 6f 25 cc bc
       -0.031534124 -0.034535933 -0.032620754 -0.024920193
0000c0 55 17 d4 bc ca ce ea bc cf 5a c4 bc f7 1e cb bc
       -0.025890032 -0.028663058 -0.023969082 -0.024795039
0000d0 dc 56 f5 bc 1e e7 ea bc 23 7f 2b bd 80 96 ee bc
       -0.029948644 -0.028674658 -0.041869294 -0.029124498
0000e0 13 c2 19 ba 3b b9 5a bd 1f e8 58 bd 83 31 5f bd
       -0.0005865406 -0.053399306 -0.052955743 -0.054490577
0000f0 0b f1 30 bd 07 44 e3 bc c5 d5 df bc 56 1d ee bc
       -0.043198626 -0.027742399 -0.027323613 -0.029066723

2.1.running_mean f4 [64]
000000 09 76 74 bd a8 e6 fb be 49 95 92 be 89 e8 0c bf
       -0.05968288 -0.49199414 -0.2862952 -0.5504232
000010 31 c4 23 3e 18 9e a6 3d 29 6c c4 be 1a 0b 6f be
       0.1599281 0.08135623 -0.3836377 -0.23344079
000020 d7 4c 49 bf c4 7b 6c be e7 ab 1c 3f fc 8a 5f bf
       -0.78632873 -0.23094088 0.611998 -0.8732145
000030 d3 44 96 bf 21 78 d7 bd 0c 60 b5 3e 03 56 05 bf
       -1.1739753 -0.1052096 0.3542484 -0.5208437
000040 6e a0 4a be f6 44 a0 bd 0d e8 d1 be a2 33 81 bf
       -0.19787762 -0.07825653 -0.40997353 -1.0093882
000050 20 e2 8b bd 00 e7 0f 3f c9 5a 74 3f 61 4a f8 be
       -0.06830239 0.56211853 0.9545103 -0.48494247
000060 63 da 50 3e dd bd aa 3e a4 e5 ab be 87 dc 6d bd
       0.20395808 0.3334798 -0.3357364 -0.05807164
000070 9d 7b bc 3d 95 a3 3c 3f 30 dd b3 3b bc 9e f4 3e
       0.09203265 0.73687106 0.005489014 0.47777355
000080 67 6c cb be fc aa 1b bf 6c 3a 0e be 1e 6f db be
       -0.39731142 -0.60807776 -0.13889474 -0.42858213
000090 38 2d 6d be 0b cf a9 bd de 63 62 3e 7b 86 1d be
       -0.23161781 -0.082914434 0.22108409 -0.15383331
0000a0 d6 a5 d6 3e 71 11 82 3d 6d b6 92 be ec 89 fe be
       0.41923398 0.06350983 -0.28654805 -0.497146
0000b0 7d 01 d1 bd 09 22 b5 be b0 0b 0a bf f7 4d 1e bf
       -0.10205362 -0.3537753 -0.53924084 -0.61837715
0000c0 1f 86 87 bf bc 97 56 bf ab 43 30 bf 93 28 23 3f
       -1.0587806 -0.8382528 -0.68853253 0.63733786
0000d0 74 45 d3 be 32 b7 4e bf 42 39 54 bf 53 b5 52 bf
       -0.41263926 -0.80748284 -0.8289987 -0.8230793
0000e0 de f4 f5 be f7 1d 0c 3d 25 2e 80 be 55 e0 e7 bd
       -0.4803838 0.034208264 -0.25035205 -0.11322085
0000f0 ec 2e 33 bf f3 0e 12 bf 02 3e 3c be 93 90 a6 3c
       -0.6999347 -0.5705406 -0.18383029 0.02033261

2.1.running_var f4 [64]
000000 d1 cc 87 3e f2 fd de 3e 19 4b a1 3e 72 e6 85 3e
       0.2652345 0.4355312 0.31502607 0.26152378
000010 ef 7d aa 3e a3 a5 92 3e 7e fc 77 3e 97 43 19 3e
       0.33299205 0.28641996 0.24217412 0.1496719
000020 f6 58 69 3e 18 eb 7f 3e de 85 01 3f 95 44 1a 3e
       0.22787842 0.24992025 0.5059489 0.15065224
000030 24 32 aa 3e 06 27 74 3e 1b 3e 38 3e 58 49 67 3e
       0.3324138 0.23843011 0.17992441 0.22586572
000040 15 45 1a 3e ab 05 13 3e dc 28 4b 3e 55 60 72 3e
       0.15065415 0.14357631 0.19839805 0.2366956
000050 9f ae 31 3e 97 6d b6 3e 04 6b 0f 3f c4 e1 f3 3e
       0.17351769 0.35630485 0.5602267 0.47633183
000060 76 a3 85 3e 41 2d 05 3e b8 42 c2 3e b7 66 89 3e
       0.26101273 0.13005544 0.37941527 0.26836178
000070 57 6f 90 3e 6a 2e 98 3e cc cd 58 3e 24 90 a8 3e
       0.28209946 0.2972291 0.21172255 0.3292247
000080 cf 44 59 3e 23 58 86 3e c3 03 51 3e 65 5d 2c 3e
       0.21217655 0.26239118 0.20411591 0.16832502
000090 10 ba 06 3e c8 4f a7 3e a4 0e 78 3e af 4c b0 3e
       0.13156915 0.32678056 0.24224335 0.34433505
0000a0 82 5f 46 3e 30 30 ef 3e d5 2a a2 3e d7 70 26 3e
       0.19372371 0.46716452 0.31673303 0.16253982
0000b0 a4 95 99 3e 18 66 40 3e 9d dc 25 3f 9f a1 89 3e
       0.2999698 0.18788946 0.64789754 0.2688112
0000c0 24 5c ae 3f 1f 5a 83 3e 42 e7 02 3f 20 c2 82 3e
       1.3621869 0.25654694 0.5113412 0.2553873
0000d0 22 87 25 3e c2 c0 8d 3e 8f 18 0a 3f 44 1c 57 3e
       0.1616483 0.27686125 0.53943723 0.21006876
0000e0 ea 3f 88 3e 27 8c 69 3e 1a b8 4f 3e 7f 0c 93 3e
       0.26611263 0.2280737 0.20285073 0.2872047
0000f0 82 94 18 3e f4 71 de 3e ff 23 70 3e 7c 08 33 3e
       0.14900401 0.43446314 0.23451231 0.17483705

3.0.weight f4 [64, 64, 3, 3]
000000 6c f9 2c 3c ff 2f 37 bc 47 bd 89 3d 6f 8a ad 3b
       0.010557514 -0.011180877 0.06725555 0.0052960436
000010 7e 16 03 bc 09 9f c4 3c df 7a 14 3d b1 79 cd bc
       -0.008000968 0.024001615 0.03624999 -0.025082441
000020 d0 fa 5f bd 43 b4 6b bc 30 d3 96 bd b2 fd 87 3c
       -0.054682553 -0.014386239 -0.073644996 0.016600464
000030 c1 c1 58 bc da 53 eb bc af fc 86 3b 8f 85 b7 bb
       -0.013229788 -0.028726507 0.0041194777 -0.005600638
000040 ec 90 8b bc 96 81 25 bc dd 2d 2d 3c ac 7d 48 3b
       -0.017036878 -0.0101016965 0.010570017 0.0030592484
000050 62 a6 0e bd eb 6c 2b bb 37 6b c0 bc 8a da 44 3c
       -0.034826644 -0.002615745 -0.023488624 0.012014994
000060 c4 69 5c 3d b4 1c 84 3c fb 11 0d bd 73 e5 97 3c
       0.053811803 0.016126968 -0.034440976 0.018542027
000070 76 96 2d bc e8 b0 88 bc c0 2e f8 bb 2e c1 2f ba
       -0.010594955 -0.016685918 -0.0075739324 -0.0006704506
000080 5b 10 e9 3c 22 f2 c9 3c c4 e1 0a bd 9e 3a 01 3d
       0.028450182 0.02465159 -0.033906713 0.031550042
000090 a2 fb 1b 3c 59 d2 af 3c df 56 3e 3b 62 cc 61 3c
       0.009520443 0.021462606 0.0029043478 0.013781639
0000a0 1e 1a 1e 3d 98 f5 5a 3d a3 d2 32 3d bd c9 bb bc
       0.038599126 0.053456873 0.04365791 -0.022923345
0000b0 6d be 4e 3c 2c 61 cb 3c 46 ee f5 3c d2 78 fe 3c
       0.012618643 0.024826609 0.030020844 0.031063471
0000c0 4a c7 01 bd ce 5d 0a 3d 7a 69 9b bb fc 03 6c 3b
       -0.031684197 0.033780865 -0.0047427984 0.0036013117
0000d0 ab 5e 85 3b 80 f9 20 3d 61 c9 3e ba d5 4d d5 3c
       0.004070123 0.03930044 -0.00072779326 0.02603809
0000e0 dc c7 be bc 64 a7 79 bc 6f 19 40 bd a3 2d 02 3d
       -0.02328866 -0.015237663 -0.046899255 0.031781804
0000f0 dc e1 a3 bc 07 b5 3b bd 9e 6e f9 bc e6 e9 73 3b
       -0.02000516 -0.045826938 -0.030448254 0.0037218272
000100 08 f8 10 3d 58 a6 34 3d ca fc 4f 3b 3f ba 93 3c
       0.03539279 0.04410395 0.0031736367 0.018033145
000110 dd c2 37 3c 47 70 37 3c 44 36 04 bd 91 80 78 bd
       0.011215893 0.011196203 -0.032278314 -0.060669485
000120 e2 98 0e 3d 66 25 36 3d d3 18 1d 3c 5b b0 41 3d
       0.03481377 0.04446926 0.009588438 0.047287326
000130 08 30 c6 bc 87 2e a3 ba 85 6f 1c 3c 61 02 6f bc
       -0.024192825 -0.0012449779 0.009548073 -0.0145879695
000140 f9 1a b3 3a cb ef ec 3b 60 de 10 bd 16 c0 35 3b
       0.0013664655 0.007230734 -0.035368323 0.00277329
000150 22 d9 1e bd 3f bb 70 bd f2 eb 2b 3d b9 b5 c2 3b
       -0.038781293 -0.05877232 0.04197306 0.005942073
000160 26 dc 6b 3a f2 82 27 bc f7 d8 b0 3c 3f b6 c4 bc
       0.0008997343 -0.010224091 0.021587832 -0.024012683
000170 cd fb b0 bc 12 43 4c bd 85 ea 33 bd 74 47 28 bd
       -0.021604443 -0.04986865 -0.043924827 -0.041083768
000180 b5 5a 07 3d ea 59 e9 3c 53 da 8f 3c a2 2b fb 3a
       0.03304549 0.028485257 0.01756016 0.0019162784
000190 b3 68 20 3d a4 9f 3b 3d b6 b8 25 bd 98 6e 7d 3c
       0.03916235 0.045806542 -0.040459357 0.015468262
0001a0 d8 d5 1b 3d f0 e4 22 3c 8b 26 da bb 45 43 11 3d
       0.038045734 0.009942278 -0.0066574267 0.035464544
0001b0 aa 5e 09 bd 8a c2 89 3b 6f 8e ff bc a3 79 d7 3b
       -0.033537544 0.004204099 -0.031195847 0.0065757795
0001c0 f8 10 3a bd 08 61 98 3a c5 a0 f9 3c a4 f0 1e 3c
       -0.04542634 0.0011625597 0.030472169 0.009700928
0001d0 84 67 da bc bc b9 ed 3c ca 94 ea 3b b5 ad 46 3d
       -0.026660688 0.02901923 0.0071588503 0.048505504
0001e0 02 d1 48 bc 3e a0 cf bb fd f7 bb 3c f7 d9 82 3c
       -0.012256863 -0.006336241 0.022945398 0.015973074
0001f0 2b 6d 4e bc 23 e6 b3 bc 7a 0f c5 3c f2 64 f1 3c
       -0.01259927 -0.021960324 0.024055231 0.02946708
000200 70 03 17 3c 8c 56 f6 bc e2 d5 a3 3c 7a 2c 27 bc
       0.009217128 -0.030070566 0.019999448 -0.010203475
000210 b7 7e c6 3c 45 e2 38 ba 10 ca 0e bd 28 7d ae bc
       0.024230344 -0.000705276 -0.03486067 -0.021299914
000220 4b 63 21 3c e5 19 24 3c 83 fd 88 3c e9 d9 aa 3a
       0.009850333 0.010015939 0.016722446 0.0013034913
000230 09 14 1c 3c e6 9a 4c 3d 58 2d ea bc b4 f5 b2 bc
       0.009526261 0.04995241 -0.028586075 -0.021845676
000240 0d 56 ff 3b 95 0b 0c 3d 20 d1 1f 3c cd cc 03 bd
       0.0077922405 0.034190733 0.009754449 -0.032177735
000250 53 a8 37 3b 99 6b 97 bb 18 84 a2 3b 30 f7 13 bd
       0.0028023913 -0.004620981 0.0049595945 -0.03612441
000260 d5 24 d9 3c a9 a1 aa 3c 29 4f 53 3c 23 03 c4 3c
       0.02650682 0.020829039 0.012897291 0.023927277
000270 45 6d f7 bc 1e e0 5c bb 22 48 97 3c 38 f4 46 3c
       -0.030203471 -0.003370292 0.018467013 0.012143187
000280 14 36 ed bc e6 b7 d1 bc 63 0d 1b bd 5e c7 9a 3b
       -0.02895645 -0.025600385 -0.037854563 0.0047234735
000290 03 6d 32 bd c5 91 e3 bc e9 0c ec bc a9 91 3e ba
       -0.043560993 -0.02777947 -0.02881475 -0.000726963
0002a0 ee 67 eb bb 14 8d 28 bd 7a 8a 41 bc 6f 67 1f bc
       -0.0071840202 -0.041150168 -0.011812801 -0.00972925
0002b0 f4 2a fa bc 57 ab 36 bd 82 dc 36 bc f4 a3 ee 3c
       -0.03053806 -0.044596996 -0.011160972 0.029130913
0002c0 c8 30 29 bd 5d 90 ac 3a 65 59 bb 3c 98 d7 02 bd
       -0.041306287 0.0013165582 0.022869775 -0.031943887
0002d0 b9 8a 52 bd b8 d6 c1 3b a2 ad dc bb 09 54 f7 3c
       -0.051401827 0.005915489 -0.006734566 0.030191438
0002e0 b5 0e 53 bd 0b d2 cd 3c 50 ee 16 3d e9 36 44 bc
       -0.051527698 0.02512457 0.036848366 -0.011975982
0002f0 c3 b7 d4 bc 6e e2 29 3b b0 80 bc bc 19 a7 87 bc
       -0.02596653 0.0025922316 -0.023010582 -0.01655917
000300 8e 92 f8 bc d7 50 de 3c 1f bc 32 3d 33 65 9b 3b
       -0.03034332 0.027138157 0.043636438 0.0047422885
000310 76 3c 04 bd ce a6 1d 3d 41 b9 9b 3c c9 7e d3 bc
       -0.032284223 0.038489155 0.019009234 -0.025817292
000320 08 80 2a bc b9 90 e5 bc f7 22 1c bd 4f af b4 3b
       -0.010406502 -0.02802311 -0.038119283 0.0055140625
000330 7d 85 31 3d 9d 74 12 bc 23 4b 1b bd d0 0a 96 bb
       0.043340195 -0.008938936 -0.037913453 -0.0045789257
000340 02 3c 27 3c 8f 58 77 3c f7 30 a1 bc 83 43 0f bd
       0.010207178 0.015096798 -0.019676669 -0.034976494
000350 b4 64 ea 3c 46 8b 10 3c 70 f7 ce 3c 4a 75 e1 3c
       0.028612472 0.008822268 0.025264472 0.027521748
000360 91 f9 8a 39 df 20 41 bd 8d d7 9c bc 90 1c 1e 3d
       0.00026507353 -0.04715049 -0.019145751 0.038601458
000370 34 81 2b bd 3c d2 f0 3c d8 10 1a 3d 61 06 a3 3c
       -0.041871265 0.029397123 0.03761372 0.019900503
000380 57 b1 21 bd 67 5e e2 39 37 39 60 3d d9 91 98 3c
       -0.039475765 0.00043176414 0.054742064 0.018624233
000390 aa bf 3f bc 0a fb 39 bc 5b 04 3a bc 8f 8f f0 bc
       -0.011703411 -0.011351356 -0.0113535775 -0.02936533
0003a0 7e c3 fc bc 28 b8 03 3b 9f b4 1b 3d 9c b2 aa bb
       -0.030854937 0.002009878 0.03801405 -0.00520928
0003b0 16 27 45 bd 7e 39 5a ba 0e c8 4d 3b e3 4a 08 bd
       -0.04813298 -0.0008324607 0.003139976 -0.033274543
0003c0 55 8c 9a 3b e6 78 6f bd df 64 b6 ba 3d 9c 8e 3c
       0.004716436 -0.058464907 -0.001391556 0.017408485
0003d0 f7 cc 1d bc b6 59 33 bd 91 cc d1 3c 49 de f4 bc
       -0.009631387 -0.043786727 0.02561024 -0.02989115
0003e0 55 aa 16 bd 3d ef e9 3c 4b c4 8b bc 2d 07 24 bd
       -0.036783535 0.02855646 -0.017061373 -0.040045906
0003f0 77 b5 c3 3c 15 58 19 3d f4 c5 c5 3c 4f d1 df bc
       0.02389024 0.037437517 0.024142243 -0.027321486

3.0.bias f4 [64]
000000 f7 78 b6 3b 08 2f 57 bb 8b 24 24 3d b9 98 fd 3c
       0.0055686194 -0.003283443 0.040073913 0.030956613
000010 ee 62 c4 3c d6 2a 19 3b b4 a6 f3 bc 2d 5e 2c 3c
       0.023972955 0.002337148 -0.029742576 0.0105205
000020 2b c2 89 bc 52 e7 2f 3c ff c3 17 3d fe d5 ec bc
       -0.01681622 0.010736303 0.03705215 -0.028910633
000030 85 2d fd 3c 33 f7 ab 3c 05 cb d8 bb 26 81 dc 3c
       0.030905494 0.020991897 -0.0066159987 0.026917052
000040 9d 7e 59 ba 1a 3f 98 bc b6 db 18 bd c3 6e b4 3c
       -0.000829676 -0.018584777 -0.037318908 0.022025472
000050 0d 93 25 3c e2 e3 54 bc 0a 2a f8 bc 79 02 9c 3b
       0.01010586 -0.012993785 -0.030293483 0.004761037
000060 18 b2 07 3d 0d 39 07 3d 75 93 28 bd 1a 12 0d 3d
       0.033128828 0.033013392 -0.04115625 0.03444109
000070 7f 34 12 bc f2 3c 28 3d 0b d8 15 bd 74 e7 e8 bb
       -0.008923649 0.041073747 -0.036582988 -0.0071076695
000080 d8 db 9f bc ec f6 d5 bc be 4d 40 bc 46 55 d9 3c
       -0.01951401 -0.026118718 -0.011737285 0.02652992
000090 8b 18 4a bc fd 86 e8 bc 31 f8 ba 3c d3 3f 10 3d
       -0.012334953 -0.02838468 0.022823425 0.035217118
0000a0 b4 73 0e 3d e4 3f b5 bb 04 35 86 bc 69 7d 0a bd
       0.03477831 -0.005531298 -0.016382702 -0.033811007
0000b0 0c f9 d1 bc f7 df 25 3c 22 a8 d3 3c 03 a9 c0 3c
       -0.02563145 0.010124198 0.025837008 0.023518091
0000c0 72 63 bb bc 3f 91 d7 bb 40 39 00 bd 7b f0 df 3c
       -0.022874568 -0.006578594 -0.031304598 0.02733635
0000d0 57 6e a8 ba 6e 8b 01 bc 7c ee 94 3c 72 3f 1a 3c
       -0.0012850267 -0.007906778 0.018180124 0.009414541
0000e0 26 cb 48 3c 78 ca 05 bd 09 21 f9 3c ab ba b6 3c
       0.012255466 -0.032663792 0.03041126 0.022305807
0000f0 f0 45 31 3d 8b 0b 0f 3d 29 76 43 bc 77 99 73 3c
       0.04327959 0.034923118 -0.011930027 0.014868132

3.1.weight f4 [64]
000000 29 4f 74 3f 29 6b 83 3f 43 d2 77 3f 01 83 7b 3f
       0.9543329 1.0267078 0.9680521 0.9824677
000010 4d 67 81 3f f8 57 7a 3f 6d aa 7a 3f dc da 79 3f
       1.010965 0.9779048 0.979163 0.9759958
000020 b4 81 84 3f 34 17 79 3f 43 c5 7c 3f 97 4b 76 3f
       1.0352082 0.9730103 0.987385 0.9620909
000030 9d a9 77 3f aa 7a 87 3f b4 37 81 3f 81 84 78 3f
       0.96743184 1.0584309 1.0095124 0.97077185
000040 4d bb 80 3f 82 3e 7a 3f 97 34 84 3f a3 03 81 3f
       1.005716 0.9775163 1.0328549 1.0079235
000050 22 bd 76 3f 32 47 83 3f 76 16 83 3f 30 2e 7c 3f
       0.96382344 1.0256102 1.024123 0.98507977
000060 b8 f8 7d 3f 59 4c 81 3f c9 d7 83 3f 18 bd 77 3f
       0.9920764 1.0101424 1.0300227 0.9677291
000070 f0 5a 81 3f 9e f2 82 3f 15 d8 7b 3f 31 dc 75 3f
       1.0105877 1.0230291 0.9837659 0.9603911
000080 06 8f 88 3f fa 01 75 3f ec f2 7f 3f d4 be 83 3f
       1.0668647 0.9570614 0.99980044 1.0292611
000090 22 c3 7a 3f 7b 3b 7f 3f ee 51 81 3f 06 8c 79 3f
       0.97954 0.99700135 1.0103128 0.97479284
0000a0 07 0a 7f 3f e3 7f 83 3f bf f6 7e 3f 7a 20 7e 3f
       0.99624676 1.0273403 0.99595255 0.99268305
0000b0 58 00 81 3f d6 cf 7f 3f e1 8a 80 3f ba 21 76 3f
       1.007823 0.9992651 1.0042382 0.9614521
0000c0 6d 87 74 3f 4d bd 7b 3f 18 b8 81 3f c1 ae 7c 3f
       0.95519143 0.98335725 1.0134306 0.98704153
0000d0 e5 4a 7d 3f 33 aa 81 3f ae 1f 7a 3f eb 60 75 3f
       0.98942405 1.0130066 0.9770459 0.9585101
0000e0 32 15 81 3f e2 76 7e 3f 9f 24 78 3f 78 48 74 3f
       1.0084593 0.9940015 0.9693088 0.9542308
0000f0 d3 88 80 3f d8 d4 82 3f 86 e6 7c 3f cc 12 7b 3f
       1.0041755 1.0221205 0.9878925 0.98075557

3.1.bias f4 [64]
000000 29 d6 19 bd 10 3c 15 bd e9 5d 23 bd eb 6f 52 bd
       -0.037557755 -0.036434233 -0.03988448 -0.051376265
000010 df 70 3b bd 75 02 42 bd bc 39 26 bd 63 53 69 bd
       -0.04576194 -0.047365624 -0.040582404 -0.05696429
000020 22 8c 6d bd 3c ff 11 bd 91 18 92 bc d1 81 5a bd
       -0.05799497 -0.0356438 -0.01783398 -0.05334646
000030 b7 7a 70 bd 8a 1f 26 bd 7a 1c 67 bd ed 5b 21 bd
       -0.05871078 -0.04055742 -0.05642364 -0.039394308
000040 c8 76 20 bd c7 16 34 bd 9d 08 99 bd 4e 75 1a bd
       -0.03917578 -0.043967035 -0.07472346 -0.037709527
000050 be fd 27 bd 33 d2 dc bc ac 7d 64 bc b9 f0 45 bd
       -0.04101347 -0.0269557 -0.013945978 -0.048325274
000060 18 c4 31 bd 77 83 5b bd 81 c7 61 bd 50 02 78 bd
       -0.0433999 -0.05359217 -0.055121902 -0.06054908
000070 d3 66 81 bc 7f 18 ee bc 6f df 30 bd d2 6b 7b bd
       -0.0157961 -0.029064415 -0.043181833 -0.061382122
000080 b3 98 d6 bc 33 e6 00 bd 73 a4 4d bd 6e 46 0f bd
       -0.02619586 -0.031469535 -0.05020566 -0.034979276
000090 77 ed 08 bd 8a 99 bb bc 42 a0 cb bc 61 f4 02 bd
       -0.03342959 -0.022900362 -0.02485669 -0.03197134
0000a0 b5 88 59 bd ba 71 a0 bc 01 b6 29 bd 04 fa 47 bd
       -0.05310889 -0.019585479 -0.041433338 -0.048822418
0000b0 59 93 1d bd 48 da 1e bd 5f 98 45 bd 5b 32 d0 bc
       -0.0384706 -0.038782388 -0.048241016 -0.025414636
0000c0 49 c4 48 bd 37 e2 1d bd 3e a2 21 bd 0d 0b eb bc
       -0.049015317 -0.038545813 -0.039461367 -0.028691793
0000d0 3f 9a 15 bd 67 ba 3c bd a0 ca 42 bd c5 91 15 bd
       -0.036524054 -0.046076205 -0.04755652 -0.03651597
0000e0 3c 81 96 bc fa 6a 51 bd a7 69 5b bd 07 b5 14 bd
       -0.01837217 -0.05112741 -0.053567555 -0.036305454
0000f0 d0 22 27 bd 3f 1b d1 bc 79 09 0d bd fb db fa bc
       -0.040804684 -0.025525687 -0.034432862 -0.030622473

3.1.running_mean f4 [64]
000000 f0 6e 8b 3e 8b 9c 4c 3f fe aa 5e bf 62 f4 81 bd
       0.27233076 0.79926366 -0.86979663 -0.063454404
000010 7a 84 fd be 1f ef 38 be d4 c3 10 bf ef fb d5 3e
       -0.49515134 -0.18059967 -0.5654881 0.41793773
000020 09 ac 29 3f f9 6d b6 be da 72 54 bf 6f 15 cd bf
       0.6627813 -0.35630777 -0.8298775 -1.6022166
000030 1b d8 23 3d 70 83 ec 3d ea 96 9f be d1 61 25 3e
       0.040001016 0.11548507 -0.31169826 0.16150595
000040 bb f5 c3 be 08 49 34 bf a6 55 25 bf 7f f1 4b bf
       -0.38273415 -0.70423937 -0.64583814 -0.7966537
000050 b3 cf cc bf 61 c1 d9 bc 4b 86 41 bf 7d 37 35 be
       -1.6000885 -0.026581468 -0.7559554 -0.17696948
000060 21 b7 f6 be f2 06 11 bf 46 b7 b3 3e 77 89 53 bf
       -0.4818659 -0.5665122 0.35100764 -0.8263163
000070 0f a2 6b 3e db 1a 03 3f 6f 5e 43 3e 09 57 58 be
       0.23011039 0.51212853 0.19078992 -0.21126951
000080 fa 48 d6 be be 02 44 bf dc 6f c1 be bb 71 ba be
       -0.41852552 -0.76566684 -0.37780654 -0.36414894
000090 11 7f 20 3e ea c9 00 3e 25 fe 37 3e e0 2d 29 bd
       0.15673472 0.12577024 0.17968042 -0.041303515
0000a0 6d 7a 04 3f 90 c9 db be ef 33 aa bf f5 4b 84 3d
       0.51749307 -0.42927217 -1.3297099 0.064598
0000b0 9c e6 ee 3d 8f 9f 09 bf 28 b7 dd 3e 5c 2d 85 3e
       0.11665079 -0.5375909 0.433038 0.2601117
0000c0 e6 83 cc be 90 c9 37 bf b0 d3 e4 be e9 da ae bd
       -0.3994438 -0.71791935 -0.44692755 -0.085378475
0000d0 c0 25 aa be 35 01 88 be a7 6f 96 be 74 15 08 c0
       -0.33231926 -0.2656342 -0.2938206 -2.1263094
0000e0 47 3e f7 3d 92 28 a1 be 73 47 20 bf d4 59 0e c0
       0.12072425 -0.31476265 -0.6260902 -2.2242327
0000f0 56 29 2d be 64 92 8d bf ce 35 15 3f bf 0d ac bf
       -0.169103 -1.10603 0.58285224 -1.3441695

3.1.running_var f4 [64]
000000 1a db 33 3f ed 23 63 3e ec 4e a7 3f fa 63 42 3e
       0.702562 0.22181673 1.307096 0.1898345
000010 3e 62 64 3e 7f 57 8e 3e 17 6f 09 3f 55 ba 8b 3e
       0.22303101 0.2780113 0.53685135 0.27290598
000020 7d 3f 19 3e 14 db f4 3e cb 55 9f 3e 71 f3 3c 3f
       0.14965625 0.47823393 0.31120142 0.7380896
000030 b2 e8 9a 3e d5 18 e9 3d 35 f3 bf 3e 9c 59 05 3f
       0.30255657 0.113816895 0.3749024 0.5208986
000040 14 45 18 3f d8 fb 9a 3e 6c c4 19 3e 25 3f 89 3e
       0.59480405 0.30270267 0.15016335 0.26805988
000050 bf a9 ee 3f ff 84 56 3e 45 fc 39 3e a2 e6 81 3e
       1.8645552 0.20949171 0.1816264 0.2537127
000060 d5 29 51 3e 8d 93 31 3e 6a 00 6b 3e 39 49 c5 3e
       0.20426114 0.17341442 0.22949377 0.38532427
000070 8d c9 70 3e 7d 8c a7 3e 6b 27 c8 3e cb 4b b3 3e
       0.23514386 0.32724372 0.39092574 0.35018763
000080 43 05 27 3e 29 59 1a 3f 5e df 20 3e fd e1 2b 3e
       0.16310601 0.602923 0.15710208 0.16785426
000090 ce db 97 3e 46 d5 aa 3e 85 db b4 3e b3 3e 7c 3e
       0.29659885 0.3336584 0.3532373 0.24633293
0000a0 fa e1 87 3e ac 1b 58 3e 08 1e 77 3e 32 7f 8b 3e
       0.26539594 0.21104306 0.2413255 0.2724548
0000b0 02 c4 73 3e 39 19 2e 3e e9 7f 33 3e 6e 00 88 3e
       0.2380524 0.17001809 0.17529263 0.26562828
0000c0 9f 26 ed 3e 17 df 30 3e e4 a4 7e 3e c1 9b 6a 3e
       0.46318528 0.17272602 0.24867588 0.22910978
0000d0 e7 12 55 3e bf 33 30 3e 93 a7 8f 3e 06 2f c1 3f
       0.20807992 0.1720724 0.28057536 1.5092475
0000e0 65 d3 6e 3e e5 be 85 3e 22 da 8f 3e 92 78 b6 3f
       0.23322828 0.26122203 0.2809611 1.4255545
0000f0 6c 10 84 3e 9e 43 81 3e 3c ff 07 3f 5a d7 c2 3e
       0.2579378 0.252469 0.5312383 0.38054925
