pracs/prac6/model.pth (torch, 412053 bytes, 32 tensors)

0.0.weight f4 [16, 1, 3, 3]
00000000: 5d47 903e 2e34 a6bd 30ca da3c 2196 5e3e
00000010: fd8e 82be 8c69 c13c 4861 b13d 9d66 253c
00000020: 7949 9cbe b0ba f2bd c85f ebbd 4d79 00be
00000030: 7c1b 80be 942b 9f3e f35f a6be 74a9 f43c
00000040: f11e c7bc c987 7bbe d2e4 babd 002a 85bd
00000050: f68e e8bd f09d 21be b4ae 9d3e 2697 9fbe
00000060: e2f7 9f3e b773 863d 4fbc 813e f00f 613e
00000070: 9204 063e 1b5b 6e3e 7157 6bbe c2aa a63e
00000080: 7500 183e e6e3 72be 2232 f03d 40f5 453d
00000090: 5b67 3abd eaa6 85be 588c 7dbc 7299 32be
000000a0: 64e1 7fbd d214 8d3e 0a95 eebc 0cf9 ee3d
000000b0: 1191 743e 9fb0 81bd da46 8cbe 46e1 0f3e
000000c0: c233 7a3d 4b33 67be da0b 43ba 87c3 9a3e
000000d0: 801a 27bc 09be 3cbe ab11 9a3e ef15 183e
000000e0: 7328 0dbe fb4b 853e 3fa4 4a3e 4ebc e43c
000000f0: 1d5b 99bd e078 843e 0b27 183e 3cdb d7bd
00000100: a55d f53d 5ee6 7d3e f3d7 dfbd c54e 883e
00000110: ddc7 d5bd 858e 7c3e 5455 ef3a 8749 9ebe
00000120: 220c 26bd 4901 ad3d 7ebd 63be da39 adbc
00000130: 5062 983d 2874 c33b 9b15 a73d 1039 853e
00000140: bb69 743e c9f9 9cbd f8a4 6c3e e04d a2bd
00000150: 9b67 b3bc 6d49 68be 3680 40be 63f0 22be
00000160: d7b4 043e 9bd9 8bbe c380 e9bd 3fd7 693d
00000170: 6773 21be ec97 653e c68c 9dbe 6af9 5dbe
00000180: 8236 53be d5b8 a83e 3102 873e fcc3 47be
00000190: f89b bd3e 5496 8ebe 4459 07be 2acc e6bd
000001a0: 9363 3fbe 1018 23be a35b 7abc f186 7a3e
000001b0: cd15 933e 9766 e3bd 324f 33be 9385 66be
000001c0: 1ce1 69be 83c7 0a3e 3707 19be a5ea 6dbe
000001d0: 4d7d 2f3e e468 5bbe 74ea 503e a3a4 8d3e
000001e0: 61bf 6d3e c0e5 8fbe 5fdc 5ebd 8c1e 5d3e
000001f0: 01c9 32bd 543c 80bd 8c7e 333e 9451 733c
00000200: 4848 a63e 734c 453e 8f28 b73e cdd1 c93c
00000210: 1724 b6bc c344 a6be d9af c93d 387e 00be
00000220: e0b5 60be 3a9b 483e d0e8 b73b d4fa af3e
00000230: b93f e2bb f413 aabe 964c 053e 45eb 833b
0.28179446 -0.08115421 0.026707739 0.21736957 -0.25499716 0.023609899 0.08661133 0.010095266
-0.30524805 -0.11852014 -0.11492878 -0.12546273 -0.2502097 0.31087935 -0.32495078 0.029865958
-0.024306746 -0.24563517 -0.09125675 -0.065021515 -0.11355393 -0.15782905 0.3079735 -0.31170005
0.31243807 0.065650396 0.2533898 0.21978736 0.13087681 0.23276941 -0.22982575 0.32552153
0.14843924 -0.23719749 0.11728312 0.04832959 -0.045508724 -0.26103908 -0.015475355 -0.17441347
-0.06247081 0.27554947 -0.029123802 0.11668596 0.23883463 -0.06332516 -0.27397805 0.14050779
0.061084516 -0.2257816 -0.00074404257 0.302273 -0.010199189 -0.18431868 0.30091605 0.14852117
-0.13784961 0.2603453 0.19789217 0.027921822 -0.074880816 0.2587347 0.14858644 -0.105398625
0.11980752 0.2479491 -0.10929861 0.26622596 -0.104385115 0.24663742 0.0018259683 -0.30915472
-0.040538915 0.08447511 -0.22240254 -0.02114575 0.074406266 0.0059647746 0.08158418 0.26020098
0.23868458 -0.0766483 0.23109806 -0.0792501 -0.021899989 -0.2268426 -0.18798909 -0.15912013
0.1295961 -0.27314457 -0.114015125 0.05709004 -0.15766679 0.22421235 -0.30771464 -0.21677175
-0.20626262 0.32953516 0.2636886 -0.19508356 0.37033057 -0.27849066 -0.13217646 -0.1126941
-0.18690328 -0.15927148 -0.015280637 0.24465539 0.2872757 -0.11103552 -0.1751068 -0.22511892
-0.22839779 0.1355267 -0.14944158 -0.23234041 0.17137642 -0.21426731 0.20401937 0.2766467
0.23217537 -0.28104973 -0.05440938 0.21593684 -0.043648724 -0.06261507 0.17528743 0.014850993
0.3247702 0.19267444 0.3577313 0.024636174 -0.022234006 -0.32474336 0.098479934 -0.12548149
-0.2194438 0.19590464 0.00561247 0.34371054 -0.006904569 -0.33218348 0.13017496 0.004025849

0.0.bias f4 [16]
00000000: a778 7c3e 52ab 38be d990 913e 0985 0dbe
00000010: fcd5 af3e 4fe5 3bbe e92a 8fb7 e4b2 4fbe
00000020: b0be a23e 959c 7d3e 4b08 d0bd d9b1 903e
00000030: a63a 26be 62d2 913e 9458 51be 9bac 23be
0.246554 -0.18034104 0.28430822 -0.1382028 0.34342945 -0.18349193 -1.706691e-05 -0.20283085
0.31786108 0.24766763 -0.10157832 0.28260687 -0.1623331 0.28480822 -0.20443946 -0.15983813

0.1.weight f4 [16]
00000000: 2295 803f 64b3 803f fe6a 7e3f 3410 803f
00000010: a9ad 7c3f 37f8 7c3f cc45 833f e19e 823f
00000020: f327 7b3f 2b37 7c3f 5b3e 7e3f 2872 7b3f
00000030: dac4 7d3f 8838 7d3f d880 803f 047c 823f
1.0045512 1.0054746 0.9938201 1.0004945 0.98702484 0.98816246 1.0255675 1.0204736
0.9810783 0.9852168 0.99313897 0.98221064 0.99128497 0.98914385 1.003932 1.0194097

0.1.bias f4 [16]
00000000: e070 133d 7120 b53c 5d0d 2b3d 93ff 03bd
00000010: cb9a 983d 8034 78bc 6548 433b e0d9 28bc
00000020: 007a 1ebd af79 05bb eb9f b23b de65 2abc
00000030: 1c4d 8cbc 14c0 7ebc 979b c6bc eb80 8d3b
0.035996318 0.022110196 0.04176079 -0.032226156 0.074513994 -0.015149236 0.002979779 -0.010305852
-0.038690567 -0.0020366719 0.0054511926 -0.010400264 -0.017126612 -0.015548725 -0.024244113 0.0043183467

0.1.running_mean f4 [16]
00000000: 249f 803e 5954 f13e 224b 063e 39f8 37bf
00000010: 3c43 9e3e 4215 883c 8765 5ebf 9e74 ccbe
00000020: 932b 1bbd e5af 413f bf49 bdba d6b6 233f
00000030: cadf 7c3e 60db ad3d 0332 59bf 71d2 2bbe
0.25121415 0.47134665 0.13114598 -0.7186313 0.3091067 0.016611699 -0.8687367 -0.39932722
-0.037883352 0.7565902 -0.0014441534 0.6395086 0.24694744 0.08489108 -0.84841937 -0.16779496

0.1.running_var f4 [16]
00000000: eafb 153c a1f0 573d fb47 733c 55ea 473d
00000010: fd6f 2a3c 1270 043c a0ae ad3d 6500 e83b
00000020: 7628 ad3c 0ac6 fc3c 3243 f33b 7497 8c3c
00000030: f088 9e3c f93a e13b 2fa7 663d 9510 bb3b
0.009154299 0.052719716 0.014848704 0.04880746 0.010402677 0.00808336 0.08480573 0.007080125
0.021137457 0.030856151 0.007423782 0.017162062 0.019352406 0.006873485 0.056311782 0.005708764

1.0.weight f4 [32, 16, 3, 3]
00000000: d215 d8bb 5394 d0bd 138f 483b b78e 3a3d
00000010: 8e55 843d db7d fe3c beaf 543d eda7 ccbc
00000020: 7fbf 85bd 553a 853d 97fa 8d3d 6d03 c0bd
00000030: 55e9 88bd 8a8e 3cbd 2137 a83c d473 abbc
00000040: f250 88bb 6d8e d13c 9385 733c 4987 89bd
00000050: 8108 ee3c cf9f c4bd 1791 debd f165 86bd
00000060: 7ccf 293c 93cb e139 2c26 2838 6e92 1abd
00000070: 0b95 babb 27b7 ddbd 6009 44bd 09ce a0bd
00000080: 6fbf c2bc 7795 5b3d 0efe 30bc 7e37 fdbc
00000090: fae3 93bd 83a8 5c3d 9b19 a3bd d449 5cbd
000000a0: 9cec b6bd 6629 ac3d ff3a 03bd 484a 583d
000000b0: 3e65 6c3d 5640 e53c 9eb9 2d3d 968b 833c
000000c0: d41c 483d ef11 0d3d 64ca 343d 3bdf 37bd
000000d0: b852 133d d01f 383c 16de 6b3d f524 2abd
000000e0: c304 19bc 0330 5cba 7080 1bbd 0b31 5a3d
000000f0: a19a a6bd 994c 1f3d 48a0 31bd 0598 8cbd
00000100: 7fac 023d a915 aebd 5af6 153d 3c93 bbbc
00000110: 04a3 89bd 629f 01bd c984 243d ac91 9dbd
00000120: ccaf 3f3d a7ce be3c d363 82bd 848f 95bc
00000130: 2448 8ebd 90b8 86bd f639 7a3d 6627 833c
00000140: 56c4 3a3d 9f73 903d 4ead e8bc 6468 ffbc
00000150: 0b6f ddbc 3932 ac3b aa46 423c 9f6c a63d
00000160: 82b5 b03c 0378 86bd c1b1 81bd a7da 8cbd
00000170: a268 443d 897f 163c d84f 86bd 31a3 92bc
00000180: 869a 893d a320 bc3d a9ac b53c 5bd7 a23b
00000190: 4748 593d aaa6 74bd 6c0e 8d3d 55f0 c83b
000001a0: d918 9a3c 3204 06bd 8426 b9bc 698c 46bd
000001b0: 3b75 343d b28d 4cba ed5c 92bc 637b 8b3c
000001c0: d5f3 a1bd 91c1 c7bb 3a21 083d fa76 8c3d
000001d0: 2f61 36bd 3b2e c03c ff9a 8bbd 75d9 873d
000001e0: 7298 85bd be67 963d 3052 83bd 2b1d f7bb
000001f0: 1fcc a4bb d16a babc 8af5 3b3c 5965 0fbd
00000200: 342e 2fbd 6670 053b 4f4b 493d 262c 89bd
00000210: 7ace bf3c b2c2 9ebd f496 313c 2338 9dbd
00000220: cf4b 363c 785a a0bd 6037 793c f00b 8bbb
00000230: 5595 4d3d 8614 83bc e407 843d 6829 833d
00000240: 8e9b ac3b 5955 3c3c dd16 3b3c dab5 bebc
00000250: 9f05 1fbd fad0 0bbd 8863 6b3d ebcf a4bd
00000260: 0c92 f03d a020 75bb 85dd 963d 076d 3fbd
00000270: 03bd 903d 3082 6bbd 46eb 713d 4218 563a
00000280: b592 783d 50be 8ebc 4684 a03c 9d80 223d
00000290: 864a 4c3d df71 b7bc 6cab 86bd 8d97 f6bc
000002a0: 3c70 0d3a d5f6 a73c 2c21 8e3d 2b20 90bd
000002b0: 4d4f d1bb ca26 ba3d 7ab9 fcbb 64a1 763d
000002c0: f30b bd3d 816d ad3c 7119 3e3b c20a 25bd
000002d0: 9692 c23b f12d 36bd c892 053b 082f 833c
000002e0: 872c db3d e35d 633d 91ea 8d3d e630 6abc
000002f0: 74c6 d7bd 80ec 81bd 0bff 973d c398 143d
00000300: 890c 96bd 5498 d23d 4ce0 21bd 68fd b5bc
00000310: ad20 bb3d c1f5 7e3d 4614 df3c 528c 74bd
00000320: e74c 223c 1e49 53bd 5b89 95bd 690e bf3d
00000330: 1e58 92bd 6403 753d 5674 333c 9a06 123d
00000340: 0def 373d c21d a73d 9455 2dbd 11e5 40bd
00000350: 1444 a83d cffd 883d b05a 243c 6536 92bc
00000360: 0e93 80bd cfec 8dbc e17a ef3d bbe6 2dbd
00000370: a068 243d 43a6 f6bc 137c a8bc b652 83bd
00000380: 3146 583d 6673 1cbd 6768 803c 585b 3fbd
00000390: 79e4 65bd 5425 563d 19da 583d 4edc 3f3d
000003a0: 124c 52bc 7f6a 3a3d 25cf 07bd 8afc a8bd
000003b0: 3c52 c33b 11eb 2dbd 7e04 1bbd ab74 df3c
000003c0: 84f4 4d3d 106e 3bbd f8f0 dbbc 0b0f fa3c
000003d0: 2f54 623d 36d2 6fbb ca12 89bd 7ad0 12bb
000003e0: 373a 0dbb c1d4 9ebc 5ffe 07bd b504 6c3d
000003f0: 8aa2 f63a 3599 c8bc de02 7e3c 7e82 8cbd
-0.006594398 -0.101845406 0.0030602857 0.04554626 0.06461631 0.031065872 0.051925413 -0.024982417
-0.065306656 0.065052666 0.06932562 -0.093756534 -0.066851296 -0.046034373 0.0205341 -0.020929255
-0.00416004 0.02558061 0.01486339 -0.06715257 0.02905679 -0.096007936 -0.108675174 -0.065624125
0.01036441 0.0004306702 4.008987e-05 -0.037737302 -0.005694037 -0.10825949 -0.047860503 -0.07851798
-0.023772923 0.053609338 -0.010802759 -0.03091025 -0.072212175 0.053871643 -0.07963868 -0.053781345
-0.089318484 0.084063336 -0.032038685 0.052805215 0.05771374 0.02798478 0.042413346 0.01605777
0.048855618 0.03444093 0.044138327 -0.044890624 0.03596756 0.011238053 0.057584845 -0.04153915
-0.009339514 -0.0008399488 -0.037964284 0.053269427 -0.08134962 0.03889141 -0.043365747 -0.06864933
0.031902786 -0.08500225 0.036611892 -0.022897355 -0.06720546 -0.03164614 0.040165696 -0.076938
0.046798512 0.023291899 -0.06366696 -0.01825691 -0.069473535 -0.06578171 0.061090432 0.016009998
0.045597397 0.07053303 -0.02840295 -0.031177707 -0.027030488 0.0052550104 0.011857668 0.081261866
0.021570925 -0.06565859 -0.06332732 -0.06877642 0.047951348 0.00918568 -0.06558198 -0.017900081
0.06718926 0.091859125 0.022177057 0.00496952 0.053047445 -0.059729256 0.068875164 0.0061321654
0.018810676 -0.032718845 -0.022601373 -0.04847375 0.044057112 -0.00078030967 -0.017866576 0.017026609
-0.079078354 -0.006096073 0.033234812 0.068586305 -0.044526275 0.023459544 -0.068166725 0.066332735
-0.06523217 0.07344006 -0.064121604 -0.007541319 -0.005029216 -0.022756012 0.011472115 -0.035008762
-0.042768672 0.0020361184 0.049144085 -0.06697874 0.023413885 -0.07751979 0.010839213 -0.07676723
0.011126473 -0.078297555 0.015210956 -0.0042433664 0.050191242 -0.016000997 0.064468175 0.06404382
0.005267567 0.011494958 0.011419025 -0.023280073 -0.03882372 -0.034134842 0.057467967 -0.0804747
0.11746606 -0.003740348 0.0736647 -0.046734836 0.07067301 -0.057497203 0.059062265 0.0008167067
0.060686786 -0.017424732 0.019594323 0.039673436 0.04987576 -0.022393165 -0.06575665 -0.030101562
0.00053954474 0.02050344 0.06939921 -0.070373856 -0.006387627 0.0908943 -0.00771254 0.060212508
0.09230795 0.02117038 0.0029006863 -0.040293463 0.0059378846 -0.044477407 0.0020381678 0.016013637
0.10701852 0.05550946 0.069295056 -0.014293885 -0.10535899 -0.06343937 0.074216925 0.036278497
-0.0732661 0.102829605 -0.039520547 -0.02221556 0.09137092 0.062246088 0.027231347 -0.059704132
0.00990603 -0.0515834 -0.07301589 0.093289204 -0.07145713 0.059817687 0.01095303 0.035650827
0.04490571 0.08159973 -0.04231794 -0.047093455 0.0821611 0.06689035 0.010031387 -0.017848203
-0.062780485 -0.017324833 0.11693359 -0.04245637 0.04013884 -0.030108577 -0.020566976 -0.0641226
0.052801315 -0.03819599 0.015674783 -0.04671797 -0.05612609 0.052281693 0.05294237 0.04684096
-0.012835519 0.04551172 -0.033156533 -0.08251293 0.005960731 -0.042460505 -0.03784608 0.027277311
0.050282016 -0.04575926 -0.026848301 0.030524751 0.055256065 -0.0036593801 -0.06693037 -0.0022402094
-0.0021549591 -0.019388558 -0.03320157 0.057621676 0.0018816751 -0.024487117 0.015503613 -0.06860827

1.0.bias f4 [32]
00000000: ab9d 3abd 018a 803d 682f 943d e6cd a83d
00000010: 35ad 2e3d 5f16 053c 0190 b83a 76a0 043d
00000020: a3c2 0cbd 0137 0ebd 9b0e 9a3d fbac 4ebd
00000030: 556a 23bd 01f2 b83c 0c11 25bb cd6d 8fbd
00000040: 09bc f53c 6942 1b3d 0fb1 2e3d 9a5b 9cbd
00000050: 1490 3fbd bfce d5bc bcb6 0dbc 9a7a aabd
00000060: 8857 fe3c 09d4 b93d c0f2 f23c 925e 873d
00000070: edc2 883d 231d b23c bbd3 963c b34f 96bd
-0.04556052 0.06276322 0.072356045 0.08242397 0.04264565 0.008123009 0.0014081002 0.03237959
-0.034365308 -0.034720425 0.07522317 -0.050457936 -0.039896328 0.022576334 -0.0025187163 -0.07003365
0.029996889 0.03790513 0.042649325 -0.07634659 -0.046768263 -0.02609956 -0.008649524 -0.08324166
0.031047598 0.090736456 0.029656768 0.06609835 0.06677804 0.02174241 0.018411508 -0.0733942

1.1.weight f4 [32]
00000000: 2496 773f 7811 823f 6d01 813f 432d 773f
00000010: 38de 7f3f 18c2 7d3f bf42 813f 8d8e 803f
00000020: 6f38 803f f0bf 823f 553e 7e3f 7fa9 7c3f
00000030: a1fc 823f 1e9b 813f 73f5 7d3f 18e7 7d3f
00000040: 469f 833f f11a 7f3f 344b 803f eae3 7f3f
00000050: eb47 833f 47e9 813f fc48 803f c4a4 7b3f
00000060: a2cb 7d3f 4069 803f 9682 803f 5b03 823f
00000070: 787d 803f 70a9 7d3f 8f43 7a3f d76f 7d3f
0.9671347 1.0161581 1.007856 0.9655344 0.99948454 0.9912429 1.0098494 1.0043503
1.0017222 1.0214825 0.9931386 0.9869613 1.0233346 1.0125463 0.9920265 0.99180746
1.0282981 0.99650484 1.002295 0.99957144 1.0256323 1.0149316 1.0022273 0.9829829
0.99138844 1.003212 1.0039852 1.0157274 1.003829 0.99086666 0.97759336 0.9899878

1.1.bias f4 [32]
00000000: 6145 a3bc c3cb 96b9 9801 ddbc 1d4c 4abd
00000010: 4995 6dbc 098a 01bd 4e17 2cbd 2204 fcba
00000020: 7d08 ccbc 20f2 393c fb7e 9bbd 1715 f0bb
00000030: ba67 77bd 371c 6d3c 3159 88bd b0c3 bebc
00000040: cd58 5c3c bd9f f5bc 9a86 a2bc a88d a93c
00000050: 5235 963a 7355 cdbc ed1d f0bc 62a5 cebc
00000060: 9d22 be3c 2095 8cbc 3669 33bd 6154 3dbd
00000070: 894c 843c de0b acbc 7a1b 3dbd ec99 adbc
-0.019930543 -0.00028762044 -0.026978299 -0.049388994 -0.014500924 -0.03162578 -0.042014413 -0.0019227306
-0.024906391 0.011349231 -0.07592579 -0.007326733 -0.060401656 0.014472059 -0.06657637 -0.02328667
0.013448906 -0.029983396 -0.019839574 0.02069743 0.0011459982 -0.02506516 -0.029311145 -0.025225345
0.023209864 -0.017160952 -0.04380151 -0.046223048 0.016149776 -0.021001752 -0.04616878 -0.02119156

1.1.running_mean f4 [32]
00000000: 47fb 14bf a946 c93e e661 b7be 960f 393e
00000010: 7ac3 b5be 30fc d93e cc90 453d 2c38 00bf
00000020: ab19 68be c78a 11bf 4f21 4f3f dca4 8cbf
00000030: ea0c 32be 45eb 6abf 7a39 373e 9faa 11be
00000040: 872c 063d 5cae c2bd 473b 10bf 7547 03be
00000050: 5f92 2cbf eb47 043e 8cd6 f43e be17 113d
00000060: a118 783e ca08 fe3e 2aa7 b93d 1873 55be
00000070: 7238 97be 4833 f13e 334b 82bd 29bc 54bf
-0.5819592 0.39311722 -0.35816878 0.18072352 -0.355007 0.42575216 0.048233792 -0.5008571
-0.22666042 -0.5685238 0.809102 -1.0987811 -0.17387739 -0.9176524 0.1789302 -0.14225243
0.03275731 -0.09505913 -0.5634045 -0.12820227 -0.67410845 0.1291806 0.47819936 0.035423033
0.24228145 0.4961608 0.09065087 -0.20844686 -0.29535252 0.47109437 -0.06361999 -0.8309961

1.1.running_var f4 [32]
00000000: bd02 733f 0bf6 f13d ebc9 803e 8f33 ee3e
00000010: cfad 823e 07e6 093e 9aa4 b13d 9bd6 df3d
00000020: 8107 2d3e 0cf4 373e 280e 823e 68bc 153f
00000030: c1cc 0e3e 11c4 243f 83a2 793e e0db 3c3e
00000040: 1760 6d3e 2332 413e 5292 203e 3ab7 f13d
00000050: 36f9 5a3e 7b3e 6b3d f3d3 573e f593 523f
00000060: fd88 2e3e e2d0 803e 8367 813e f2f0 5a3e
00000070: fccb 9d3e b240 e03d 4e78 dd3e c2a5 373e
0.94926053 0.11814507 0.2515405 0.4652371 0.2552323 0.13466655 0.086739734 0.109296046
0.16897394 0.1796419 0.25401425 0.5849061 0.13945295 0.64361674 0.243784 0.1844325
0.23181187 0.18866782 0.15680817 0.11802526 0.21384129 0.057432633 0.21076946 0.82257015
0.17044444 0.25159365 0.25274286 0.21380976 0.3081969 0.1094984 0.43255848 0.17934325

2.0.weight f4 [64, 32, 3, 3]
00000000: c983 fa3c ebcf e4bc 4694 4dbd 5962 0bbd
00000010: 31a2 a3bd 6a59 6ebd 61b7 bb3c f700 30bd
00000020: d764 a8bb 6e85 013c 7226 5dbc 2d9d b1bc
00000030: eb54 bf3b 372c b6bc 180e 413d 3a47 1cbd
00000040: 23ed 5abd eb8d 4dbd 92b2 37bc 7871 aeb9
00000050: 2e5a 2c3d 1c07 d7bc 0c6e 9abd dac2 33bc
00000060: e030 b33d b881 adbc cb49 e9bc d634 7e3d
00000070: 1a35 373d 7de9 f1bc 3254 55bd f670 8ebd
00000080: 663f d1bc 5d85 183d 0446 31bd ab87 51bc
00000090: 649b 14bd 4977 e83c a176 9ebd c20c 7fbd
000000a0: 652c 99bc bb1f b73b 79a0 163c 7866 d4bc
000000b0: 3c93 abbc f0fb adbb 27ff d13c 476c 8a3c
000000c0: 2db9 02bd 01a9 0fbd 7fa6 123d c090 3abd
000000d0: 706f 80bd 1e2b 313d 9ac3 1fbc d796 d4bc
000000e0: a2a6 8a3d 4bfa 34bd bcf1 3dbd bbed 8f3d
000000f0: 4e04 5bbd 0169 943c 5a30 72bd 4d64 a23d
00000100: 04a2 aebc b513 5fbd 05d7 e2bb 3ab2 263d
00000110: 95fe 4bbb 67c2 3d3b c2c8 3b3d 6d41 debc
00000120: 778e c53c 125a 653b 9fb6 09bc 5839 803d
00000130: be94 b839 11f4 a73b 8411 49bc fdeb e23b
00000140: 9bd3 4d3b 7aa4 b93c ce72 cfbc 37f8 7c3d
00000150: 2769 36bd df70 9dbc 1932 c93c 0504 8e3d
00000160: f53a 4b3d 8076 2e3d e3ec 8dbc 83b7 273d
00000170: 261f ae3c f288 74bb e5c9 7c3c 7b47 623b
00000180: 7e5f 9d3c c9e5 c9bb ec7f afbc 4746 f7bc
00000190: 5011 e0bc 3059 3d3d 9425 27bd a1b1 94bc
000001a0: 79ff a0bc 1cbf 8b3d 1fb7 31bd 6e4e 6abd
000001b0: bdc9 12bb 3d94 ea3c 332d 323c 0361 97bd
000001c0: db11 9fbd d230 3dbd d41c 10bd 6110 0cbb
000001d0: f1fd 2c3d e4e5 2cbd f967 353d 2c16 93bc
000001e0: 62a3 803d 9e93 d6bc 2a43 723c f73d 2e3d
000001f0: d9ac 0dbd d45f 4dbd cd01 91bc 36a3 f3bb
00000200: f35f 343d b837 423d 1ac9 2abc 9b12 993d
00000210: 2679 a6ba d561 133d 7fd9 23bd 8914 833c
00000220: 038e febb f6f6 763d d7df 9cbd 6146 6abd
00000230: bf91 123d ae67 4fbd 7664 a0bc 3154 6dbd
00000240: 5d0b c23c 3a50 333d 7420 13bd 8e60 8cbd
00000250: cab5 4dbd a6a2 b8bc 843b 1a3c 9078 1ebd
00000260: a308 30bd 8b55 2a3c 11dc 86bd 7af7 c73c
00000270: aa29 97bc a633 55bd e448 fdbc ed26 19bd
00000280: ad8c 8d3c cbac 84bd 7832 45bd e37e 90bd
00000290: 20d6 c8bd 45de 24bd 0b4f fb3c 5f69 a7bd
000002a0: 6eca 6ebc 1cb2 073c b078 a43c 1799 6abd
000002b0: ccc6 0c3d c7f3 52bd 4a8a 8cbd 9cc0 a2bc
000002c0: c012 c5bd e7e1 11bd 7c39 49bd 6473 6b3c
000002d0: 52c8 ca3c 09e2 7abb 41ec 303d aa8c 2abd
000002e0: 5b59 0a3d 40a4 61bd 651b 73bb 9ddb 7d3d
000002f0: 5d5f 563c e648 52bc a475 29bc f1c0 8b3c
00000300: d107 39bd 03b2 96bd c11a 5fbd 3402 43bc
00000310: aab2 64bd 4721 17bd c735 ecbc 3176 403d
00000320: 4129 fe3b 024a 653d bdda 443d 4f99 403d
00000330: bc64 103d e75b 3abd dede 24bd ad7e b73c
00000340: cfcb 7ebc c287 003d 3e18 28bd 0eb9 e8ba
00000350: 8a7c 3c3b 9825 28bd 6596 0e3d bcfa c83c
00000360: be8d 2c3c 1c8c a2bc 0b94 193d a7df 233d
00000370: eed7 2cbd 412a 223d af27 113d 69ce 4a3c
00000380: dda7 28bd 8e29 04b8 fafe 22bd 204b 15bd
00000390: a581 f13c 14d7 613d e325 6b3d fae8 df3c
000003a0: dad2 903c 0308 363d afc6 19bc 1c34 1bbc
000003b0: 3663 dd3b a1b6 4f3d 6722 03bd 734c 163d
000003c0: 06e6 46bd 91b0 83ba 7e0a 943c 001f 02bd
000003d0: 850e a5bc c350 b2bc 230e 00bd 1d02 b2bc
000003e0: ce72 06bd 7985 62bd bd59 85bd 70d5 233b
000003f0: bf48 203d 7f6d 37bc 5cf6 a63c 748c 113b
0.030580418 -0.027931174 -0.050190233 -0.03402934 -0.0798992 -0.05819074 0.02291459 -0.04296967
-0.005138974 0.007905347 -0.013497936 -0.021681393 0.0058389804 -0.02223788 0.04713258 -0.038153864
-0.053448807 -0.05018417 -0.011212008 -0.00033272407 0.04207819 -0.026248507 -0.07540521 -0.010971749
0.087495565 -0.021180019 -0.02847757 0.062062107 0.044728376 -0.029530281 -0.052082248 -0.06955139
-0.025542926 0.03723656 -0.043279663 -0.012788693 -0.036281005 0.028377192 -0.077374704 -0.062268026
-0.018697927 0.0055884994 0.009193533 -0.025927767 -0.02094423 -0.0053095743 0.025634361 0.016897334
-0.03191488 -0.035073284 0.035803314 -0.0455482 -0.06271255 0.04325401 -0.009751225 -0.025950832
0.06770064 -0.04418401 -0.046373114 0.07027765 -0.053470902 0.018116476 -0.059128143 0.07929287
-0.02131749 -0.054462153 -0.006922605 0.040697314 -0.0031127085 0.0028954984 0.045845754 -0.027130807
0.024115784 0.0034996313 -0.008405357 0.062609375 0.00035206036 0.0051255305 -0.012272242 0.0069251047
0.0031406644 0.022661436 -0.025323298 0.061760154 -0.044533875 -0.01921886 0.024560021 0.069343604
0.049616773 0.04259348 -0.01732487 0.040946495 0.021255087 -0.003731307 0.015428995 0.003452747
0.019210573 -0.0061614257 -0.021423303 -0.030184878 -0.027352005 0.046227634 -0.04080732 -0.018151106
-0.019653069 0.068235606 -0.04338753 -0.057203703 -0.0022398077 0.028635139 0.010875034 -0.073915504
-0.077670775 -0.046189137 -0.035183743 -0.0021372067 0.042234365 -0.04221143 0.04428861 -0.017954908
0.06281163 -0.026193436 0.014786521 0.042539563 -0.03458867 -0.050140217 -0.017701054 -0.0074352277
0.044036817 0.04741642 -0.010423923 0.07474252 -0.00127009 0.03598197 -0.040002342 0.016001003
-0.007768394 0.060294114 -0.076598816 -0.057196025 0.035783526 -0.050635986 -0.019579154 -0.05794162
0.023687059 0.043777682 -0.03591962 -0.06854354 -0.050222196 -0.022538494 0.009413604 -0.038689196
-0.042976987 0.010396372 -0.06584943 0.024409998 -0.018452484 -0.05205121 -0.030918546 -0.03739064
0.017278994 -0.0647827 -0.048143834 -0.07055452 -0.09806466 -0.040251035 0.030677339 -0.08174395
-0.01457463 0.008282211 0.02007708 -0.057274904 0.034369275 -0.051502015 -0.06862314 -0.019867234
-0.09622717 -0.035615828 -0.049127087 0.014370773 0.024753723 -0.00382817 0.04319406 -0.041638054
0.033776622 -0.05508828 -0.0037095186 0.061977018 0.01308426 -0.012834763 -0.010342989 0.017059775
-0.04517347 -0.07358172 -0.054468874 -0.011902381 -0.05583445 -0.03689697 -0.028834237 0.046987716
0.0077563827 0.055978782 0.048060168 0.047021206 0.035252318 -0.0454978 -0.040251605 0.02239927
-0.015551521 0.03137947 -0.041038744 -0.0017755346 0.0028760755 -0.041051477 0.034811396 0.024533622
0.010531841 -0.0198422 0.0374947 0.040008213 -0.042198114 0.039591078 0.035438236 0.012378314
-0.041175712 -3.1509953e-05 -0.039793946 -0.036448598 0.029480765 0.055136755 0.05740918 0.027332772
0.017678667 0.044441234 -0.009385749 -0.009472873 0.0067562116 0.050711278 -0.03201523 0.036694
-0.04855921 -0.0010047128 0.01807141 -0.031767845 -0.020148525 -0.021767026 -0.03126348 -0.021729523
-0.03282433 -0.05530307 -0.06511257 0.0024999045 0.039131876 -0.0111955395 0.020381145 0.002220896

2.0.bias f4 [64]
00000000: bc0a 313d 7874 2ebd 14a9 523d 0d7a 45bc
00000010: d56e 273d 0573 1fbc 2ba0 2fbd a09c ae3c
00000020: 5b4d 233d f00c 713d 8625 3cbd e5ea f9bb
00000030: f669 57bd 6dd0 ddbc 756d ebbc 0075 943c
00000040: d82c acbb d1c0 1fbd 9fab 7cbb 973d 663d
00000050: 7d98 a83b 23c8 453d 2698 57bd 0cb5 e6bc
00000060: 6687 02bd 862d 133c 06b0 673b 0e69 d2bc
00000070: bed3 6bbd eec3 243c c674 55bd 3199 30bd
00000080: 3b2e 89bc f80a 03bd b7ee d0bc 0087 04ba
00000090: 12d5 2fbd 0f88 9a3c 243c 253d 6578 fe3c
000000a0: e011 0d3d ad59 413c aaa2 5e3c 6eac 48bd
000000b0: 4c97 17bd 7ea2 65bd 77b0 32bb 4c18 a7bc
000000c0: 0214 05bd 9e27 c63c a082 00bd 930e b2bb
000000d0: 9498 f43b 221a 54bc 87af 2d3d a5be d53c
000000e0: 18f2 323d af68 bf3b b328 8f3b b657 a43c
000000f0: 1327 d63c d793 e03c 2866 523c 346e 2abb
0.043223128 -0.042591542 0.051430777 -0.012053025 0.040877182 -0.009732013 -0.042877357 0.021314919
0.039868694 0.05885023 -0.045934223 -0.0076268786 -0.052591287 -0.027076924 -0.028738717 0.018122196
-0.005254369 -0.039002243 -0.0038554443 0.05621108 0.005145131 0.04828657 -0.052635334 -0.028162502
-0.031867407 0.008983022 0.003535272 -0.02568486 -0.05757498 0.010056479 -0.052113317 -0.043114845
-0.016745677 -0.031992882 -0.025504453 -0.0005055517 -0.04292781 0.018863706 0.040340558 0.031063268
0.034440875 0.0118011655 0.013588587 -0.048992567 -0.037009522 -0.056063168 -0.0027265826 -0.020397328
-0.032489784 0.024188813 -0.031374574 -0.0054338663 0.007464478 -0.012945684 0.042403724 0.026091883
0.04368791 0.0058413367 0.0043688654 0.020061355 0.026141679 0.027414246 0.012841739 -0.0026005628

2.1.weight f4 [64]
00000000: d80d 7f3f 152d 7f3f dafa 843f a776 7c3f
00000010: 25b1 7c3f 3130 7b3f f19f 823f 306e 7c3f
00000020: c75d 803f 06c5 783f 9031 7c3f e576 833f
00000030: 7f68 813f 3ff4 803f 1067 813f 8bf0 7d3f
00000040: 034f 813f e420 823f 932e 813f cb3b 803f
00000050: bfeb 7d3f 033d 7b3f ac59 823f e918 803f
00000060: 075f 813f 441e 833f 42f5 7a3f af8b 823f
00000070: ab89 803f 0509 7c3f fad2 823f 2d5f 7e3f
00000080: 11fe 7d3f 59d9 813f 63e5 7a3f 470d 7b3f
00000090: 2f49 803f f2ce 7b3f 1855 853f da5f 813f
000000a0: e2c5 7d3f 128c 7b3f 0058 7d3f a063 833f
000000b0: 17c1 803f 7234 803f 45df 7d3f 8e07 7b3f
000000c0: 69e0 803f e7e0 7d3f 353c 7d3f 627c 813f
000000d0: 35c4 7d3f 9944 813f ceeb 803f e36b 793f
000000e0: a540 803f 4191 7c3f f1ba 7a3f 33d5 803f
000000f0: 40bf 833f cea9 7a3f d1c0 7b3f 37e6 773f
0.996305 0.99678165 1.0389054 0.9861855 0.987078 0.9812041 1.020506 0.9860563
1.0028619 0.97175634 0.98513126 1.0270659 1.0110015 1.0074538 1.0109577 0.99195164
1.0102237 1.0166287 1.0092338 1.0018247 0.99187845 0.9813997 1.0183616 1.0007602
1.0107125 1.0243611 0.98030484 1.0198878 1.0042013 0.9845126 1.0220635 0.99363977
0.992158 1.0144454 0.98006266 0.98067135 1.0022334 0.9836265 1.0416594 1.0107377
0.9913007 0.98260605 0.989624 1.0264778 1.0058926 1.0016005 0.9916881 0.980584
1.0068485 0.991713 0.98919994 1.0116084 0.99127513 1.0099059 1.0071962 0.9743025
1.0019728 0.9865914 0.979415 1.0065063 1.029274 0.9791535 0.9834109 0.96835655

2.1.bias f4 [64]
00000000: e3e6 b3bc c66d edbc 60b5 85bc ee8c 28bd
00000010: bf3e 03bd 5e10 91bc 6ab8 3fbd 3ae9 14bd
00000020: f8a2 a4bc 562e 59bd f079 4abd b646 fbbc
00000030: 741a c9bc 8674 7ebc 18e1 32bd c398 01bd
00000040: 423a 18bd 46d9 06bd ee5a 2cbd fcbf 1cbc
00000050: e622 3bbd 1ff1 18bc 166f 69bc 4125 19bd
00000060: f079 c5bb 18f9 a1bc 13d7 d9bc af31 73bd
00000070: 1292 22bc d580 4dbc b0ab 6bbd 92b3 7bbc
00000080: 6c76 bebc 03ec f2bc 0953 27bd 6a63 a3bc
00000090: 9b4d f3bc 7c37 acbc 17cd 10bd 0bd2 a5bc
000000a0: 54eb 75bc f8a8 3bbd e4d8 07bc 3127 58bd
000000b0: a07a 1cbd 8d26 82bc 22fe 6cbc 6c32 0fbd
000000c0: 64e5 cbbc 7c8d 45bd 6465 14bd a9cc 2ebd
000000d0: a4f4 22bd c3d3 6bbc f073 14bd a600 0fbd
000000e0: d0ce 05bd 13eb bcbc 2a42 3fbd 7ca5 50bd
000000f0: 73ad 77bd 7614 1abd 3cde 95bd 4dd0 5fbd
-0.021960681 -0.028983008 -0.016321838 -0.041150026 -0.03204226 -0.017708 -0.04680673 -0.036355235
-0.02009724 -0.053022705 -0.049432695 -0.030673366 -0.024548747 -0.015530711 -0.043671697 -0.031639826
-0.037164934 -0.03292205 -0.042078905 -0.009567257 -0.04568758 -0.0093348315 -0.014247676 -0.037389044
-0.006026499 -0.019772097 -0.026591813 -0.059373554 -0.009922521 -0.012542923 -0.05753678 -0.015362637
-0.023249827 -0.029653555 -0.040850673 -0.019944865 -0.029700091 -0.02102255 -0.03535184 -0.020241758
-0.01500972 -0.045815438 -0.008291457 -0.05277175 -0.03820288 -0.015887523 -0.014464887 -0.034960195
-0.024889655 -0.048230633 -0.036229506 -0.042675648 -0.03978409 -0.01439375 -0.03624338 -0.034912728
-0.032667935 -0.02306131 -0.04669396 -0.05093907 -0.06046815 -0.03761717 -0.073177785 -0.05464201

2.1.running_mean f4 [64]
00000000: 73b6 adbf 5db6 febe ec00 29bf 8e88 313e
00000010: a58f a4be cff8 913d 0e2d 2ebe d500 04be
00000020: 39d0 81be 67e4 8abe 1d64 ccbd 89ce 073f
00000030: 5706 b7be 49d0 a43d c940 d8be d804 42bf
00000040: ce5e b13e 4512 e8bd 9800 2cbf 829c 51bf
00000050: 01f3 e73e 5fb7 afbf 10af 7dbf 4c64 173e
00000060: b0fc 9ebe 113a 77be 64ad 91be e53e fd3e
00000070: b64a ecbe 31da cdbe 043c 7cbc 070d 16bf
00000080: 8908 d43c 9148 ebbe c6ec 153f ed7a 73bf
00000090: a9cb e13c fa12 95bc 633e 49bf b5b8 27be
000000a0: 29a3 1fbf f5d7 283c 6b13 fabe 181c a93c
000000b0: a152 153c 6b0d a3bf aadc f1bf 41ac 933d
000000c0: 2701 f2be b3d1 623f 4e33 6d3e ddc9 8bbe
000000d0: 8022 563e e39f 2bbf 3aad eebe 89d2 4dbf
000000e0: 6795 9abe fc6c 25be b9c5 36be 5b42 9dbd
000000f0: d5a3 353e 10d7 04be 5a8e fa3b 3719 ccbe
-1.3571304 -0.49748507 -0.6601703 0.17337248 -0.32140842 0.071275346 -0.17009374 -0.12890942
-0.25354174 -0.27127382 -0.099800326 0.5304952 -0.35747024 0.0804754 -0.42236927 -0.7578864
0.34642643 -0.1133161 -0.67188406 -0.81879437 0.45302585 -1.3727835 -0.9909525 0.14784354
-0.3105216 -0.24143244 -0.284526 0.49462047 -0.4615075 -0.4020553 -0.015395168 -0.5861363
0.025882976 -0.459538 0.5856441 -0.95109445 0.027562933 -0.018197525 -0.7861082 -0.16379054
-0.6235834 0.010305394 -0.4884294 0.020643279 0.009113939 -1.273847 -1.8895466 0.07210589
-0.47266504 0.88601226 0.23164102 -0.27302447 0.20911598 -0.6704084 -0.46616536 -0.80399376
-0.3019211 -0.16154855 -0.17848863 -0.07678672 0.17738278 -0.12972665 0.007646364 -0.39862987

2.1.running_var f4 [64]
00000000: 9df7 073f be04 ab3e d412 773e cc24 6d3e
00000010: 238f 963e 7853 063f 8841 5e3e 79ec 503e
00000020: 033f 993e fd58 9c3e e065 803e 7fd2 8e3e
00000030: 05bc 643e 1b87 6f3e ee2a 643e ccfe 773e
00000040: dbbd 843e 071d d63e ab9e c63e 7440 ac3e
00000050: 9e2b b83e af42 a23f dd10 cb3e b1c6 523e
00000060: 4292 e73d ba8a 8e3e 4c3d d43e e734 923e
00000070: 9be7 bd3e 5231 613e 45d9 0c3e d83f f53e
00000080: f9ae 903e ba5c 523e 68ae 6d3e 272d ec3e
00000090: d36d b13e 802c bc3e 0f19 6e3e 2004 2f3e
000000a0: ca48 0b3f 6d00 9f3e 6b9f e83e a616 833e
000000b0: 01a4 913e 12c3 fd3e a109 673f 0b0f 8e3e
000000c0: c51d 8c3e 83a2 1d3f ef41 3b3e d7af 863e
000000d0: 4453 fb3e 041c b33e 0867 463e aa05 813e
000000e0: a36c bb3e 31aa f53e bd9b e73e 6ee7 993e
000000f0: 6456 313e af65 cc3e 55bf 5a3e c705 a83e
0.531122 0.33402056 0.24128276 0.23158568 0.2940608 0.52471113 0.21704686 0.20402707
0.29930887 0.30536643 0.25077724 0.2789497 0.22337349 0.23391382 0.22282001 0.24218291
0.25926098 0.4181902 0.3879293 0.33642924 0.35970777 1.26766 0.39661303 0.20583607
0.11307193 0.27840215 0.41453016 0.28555986 0.37090763 0.2199147 0.13754757 0.4790027
0.28258494 0.20543185 0.23211062 0.46128199 0.34654102 0.367527 0.23251747 0.17091417
0.5440794 0.31055012 0.45434126 0.25603217 0.28445438 0.4956289 0.9024907 0.27745852
0.27366462 0.615761 0.1828687 0.2630603 0.49086964 0.34982312 0.19375241 0.25199634
0.3660632 0.47981408 0.45236006 0.3005938 0.17318112 0.39921328 0.2136205 0.32816908

3.0.weight f4 [64, 64, 3, 3]
00000000: 2534 51bc fd37 143b 796b 3cbb c861 66bc
00000010: ef8d 95bc e9dd f73c 2ef9 f7bb a9b6 46bd
00000020: 3472 4a3b e60a ac3c ec39 a1bc ff98 cc3b
00000030: 0b2b d73b 0391 a6bc 616c 5b3c dbda 22bb
00000040: c0c9 dc3c c3e3 74bc f460 4a3b 23da bb3b
00000050: da5b 913b bf63 dc3c 34ef 9a3b 2376 803c
00000060: 1f73 153d 807a 1a3d 51a4 143d ccd0 473d
00000070: 99e9 ca3c bcf2 d93b eaef ea3b dcbd cd3b
00000080: 0998 d4bc f231 42bd 8311 4e3d bae9 6e3c
00000090: ba2e ffbc b4f4 2a3d 26e0 54bb 0a82 0d3d
000000a0: 9200 a83c 0577 bc3b 3fb3 e4bb df70 e8bc
000000b0: 35c8 0cbc f6ea c13b 197a 43bd 80b7 e43c
000000c0: 92ee d8bb 1e39 683c 5535 053d 7177 fb3c
000000d0: 20b1 c73c 2f5d 7ebc caa1 ea3c 3aa9 aabb
000000e0: 6785 023c 2bc9 7e3b 041c fb3c c576 413b
000000f0: 579c 4a3d 5ff3 a03b 177f 403c 7bc3 823c
00000100: 6b4d 3b3d f3e5 c4bc 4da8 9b3c e9dc 903c
00000110: e8cc 8bbc 1d65 9fbc db93 a8bc 448e ea3c
00000120: c616 813c 50c3 2fbc cf90 05bd 0bc9 06bc
00000130: 50a3 e13b fa78 1c3d 0fce 1cbd 1167 de3b
00000140: 07a6 e43b b252 72bc 2746 ac3c 2062 233d
00000150: 8506 a13c 7850 aa3c 6c66 ad3b cdfd 063d
00000160: b047 0e3d cd4a 943b 81c1 cabc 7292 553c
00000170: d195 1fbc 3f91 ee3c cea3 00bd baaf ab3c
00000180: 4d4b a2bb 3bdd a4bb 1c2c d33c 12a7 4c3c
00000190: c321 eb3c f4d1 0e3d 5956 04bd 25ac df3c
000001a0: a921 8fbc 374a d1bc 63fc 03bc b55a f7bb
000001b0: 3b07 42bc 37d3 32bd 3bbd ab3c a694 f63c
000001c0: 568b 37bd 8d87 d2bb e785 6bbc 33da 9f3c
000001d0: 782f 49bc a66a 143c d605 dd3c e0f7 ab3a
000001e0: 691c babb f417 febc 30b9 8c3c a000 8dbc
000001f0: 20c9 7a3c ae54 bdbc 8468 023d a897 82bc
00000200: c312 8fbc fc9c 85bc 4088 a23b 5c51 47bc
00000210: f4ba ae3c f3e7 fd3c 4ed7 77bd 6f40 dcbc
00000220: 5750 82bc 978d 38bb 29f3 c9bc e820 cf3c
00000230: 397f fabc 7e9d 153d 9481 78bc df4a bb3c
00000240: d7f6 09bd 6b34 953c fde3 43bb 6fe0 5b3d
00000250: bd52 64bc 39a3 dd3b a2fc d43c 19d9 a0bc
00000260: a15a 14bd dd28 0a3c 2adc 65bc 0252 cfbb
00000270: 0ea0 8bbc f5d5 39bb 1248 0abd 2363 0f3d
00000280: 7b26 5bbc df08 1c3d 2ad6 ae3c 5ab1 a9bc
00000290: 25eb 45bd 37c2 99bc 961f e63b a83e 873c
000002a0: ac03 18bd 37fb d5bc c761 403b 2605 323d
000002b0: a597 993c 516f 783b 1c95 1cbd c1e6 24bd
000002c0: ffb5 1e3c 0497 463d 0365 4dbd dbdd 69bd
000002d0: 7d48 efbc ff94 0e3d 4723 153d c424 543d
000002e0: e9e5 553c d7d7 a9bb fafb ecbb 47d8 94bc
000002f0: 66ba b7bc 5438 283d 8384 aabc c11a 143d
00000300: 187f a43a 1bfd 8b3a a309 a83c b883 723a
00000310: 058a 153d e7cc 6a39 1cb7 863c 7fc4 d6bb
00000320: 36bc 4c3d 872a 4ebd d505 ec3c dcf4 1e3d
00000330: 263a 35bd 98d8 b53b 9b96 103d c794 3bbd
00000340: 3d29 ad3c 1671 1a3c d946 b7bc 10f0 83bd
00000350: 47c2 03bd 69f7 f9ba 8341 94bc 81ce 2f3d
00000360: b605 fb3c e67d c3bc 985d 40bd 6b81 b5bb
00000370: 4b64 1c3d 1280 123c f4fb f53c 6ad1 093d
00000380: b4dc 38bc 5bce 3e3a 22be 243d eac2 bbbc
00000390: b51a f5bb 2160 acbc fe70 163d a6a2 2b3d
000003a0: 7ed4 663d 25c5 34bc e9b7 a13c 9b9b d5bc
000003b0: bd2f b13c 3afb 19bc 79b6 2c3d 3865 403d
000003c0: 165a c73c 5445 c23c 518c 07bc 5837 07bd
000003d0: 5198 c03c 8a59 40bc 098b 52bc a82f a73c
000003e0: 454d de3c 241c 8bbc 3fe3 7abc a6b1 e7bc
000003f0: d159 10bd 44a0 d63c 75e1 f7bc aaef 7cbc
-0.01276878 0.002261638 -0.0028750582 -0.014061399 -0.018256156 0.030257182 -0.0075675463 -0.048514042
0.0030890824 0.02100129 -0.01968094 0.0062438245 0.0065664104 -0.020332819 0.013392539 -0.0024849686
0.02695167 -0.014946881 0.0030880542 0.005732791 0.0044359984 0.026903031 0.0047282223 0.015681332
0.03648674 0.03771448 0.036289517 0.04878311 0.024769591 0.0066512506 0.0071697133 0.0062787365
-0.025951402 -0.047410913 0.05030967 0.014582092 -0.03115021 0.041737273 -0.0032482236 0.034547843
0.020508084 0.005751493 -0.0069793756 -0.028374134 -0.008592655 0.005917902 -0.047723863 0.02791953
-0.0066202367 0.014173774 0.032521565 0.030696603 0.024376452 -0.015525146 0.0286416 -0.0052081617
0.007966376 0.003887723 0.030653007 0.0029520255 0.049465504 0.0049118246 0.011749051 0.015962353
0.04572813 -0.02403543 0.01900115 0.017683463 -0.01706548 -0.019457394 -0.020578315 0.02863229
0.01575793 -0.0107277185 -0.032608803 -0.008226643 0.0068859234 0.03820131 -0.03828245 0.006787189
0.0069778 -0.014790224 0.021029545 0.0398885 0.019656429 0.020790324 0.0052917507 0.032956887
0.034736335 0.0045255185 -0.024750473 0.013035404 -0.009740309 0.029121993 -0.031406216 0.020957816
-0.004952824 -0.0050312555 0.025777869 0.012491005 0.028702622 0.034868196 -0.03230891 0.027303765
-0.017472105 -0.025548084 -0.008055779 -0.007548655 -0.011842544 -0.04365846 0.020964256 0.030100178
-0.044810615 -0.0064248503 -0.0143751865 0.019513225 -0.012279384 0.00905863 0.026980322 0.0013120137
-0.0056796563 -0.031017281 0.017178148 -0.017212212 0.015306741 -0.023111667 0.031837955 -0.015941456
-0.017465001 -0.016310208 0.00496009 -0.012165394 0.02132938 0.030994391 -0.060508065 -0.026886193
-0.01590745 -0.0028160566 -0.02465208 0.025284246 -0.030578243 0.03652715 -0.015167613 0.02286285
-0.03368267 0.018213471 -0.002989053 0.053680833 -0.013935742 0.0067638424 0.025999371 -0.01963477
-0.036219243 0.008432594 -0.014029542 -0.0063269148 -0.017044093 -0.0028356288 -0.033760138 0.035006654
-0.013375874 0.038094398 0.021342356 -0.02071445 -0.048319954 -0.018769367 0.0070228083 0.016509369
-0.037112877 -0.026120765 0.0029355155 0.04346194 0.018749068 0.0037908147 -0.03822814 -0.040259127
0.009686946 0.048483863 -0.05014516 -0.057096343 -0.02920937 0.034810062 0.036410596 0.051792875
0.013055303 -0.005183201 -0.0072321864 -0.018169535 -0.022427749 0.041069344 -0.02081514 0.036158327
0.0012550084 0.001068029 0.020512408 0.0009251195 0.03650858 0.00022392311 0.016444735 -0.006554186
0.04998418 -0.050333526 0.028811375 0.038807735 -0.044244908 0.0055495016 0.03529988 -0.045796182
0.021137828 0.009426376 -0.02237265 -0.06442273 -0.0321677 -0.0019070926 -0.018097645 0.042921547
0.030642372 -0.023863744 -0.046964258 -0.0055391095 0.038181584 0.008941667 0.030027367 0.03364698
-0.0112830885 0.0007278674 0.040220387 -0.02292009 -0.0074799904 -0.021041932 0.03672885 0.04190316
0.056354992 -0.011033331 0.019741016 -0.026075175 0.021629209 -0.009398276 0.042166207 0.04697153
0.024334949 0.023714699 -0.0082732 -0.033011764 0.02351013 -0.011740098 -0.012850531 0.020408466
0.027136454 -0.016981192 -0.015312969 -0.028282952 -0.035241906 0.026199467 -0.030258873 -0.015438

3.0.bias f4 [64]
00000000: 335e 1bbc 5065 e6bc bb0f 0c3a 4f1b 033d
00000010: 2d6d f73c 9ef7 a8bc 43da 1abd b39a f6bc
00000020: a732 dcbb 53e9 dbbc 5a6c 183d aa26 cd3b
00000030: 539c 9ebc c207 c7bc b51c 90bc 9362 7ebc
00000040: 50e0 f2bc c92c f53b 0cdc f4bc dbdd a63c
00000050: de0a 023b e127 9a3c db94 fa3c 928a e6ba
00000060: 5d5f 11bd c729 14bd b6f2 88bb 12d0 533c
00000070: 1c7c ff3c 774a e9bc a3e9 db3c c38a 08bd
00000080: bf50 01bd 8585 a7bc eda9 cc3c fd11 e63a
00000090: fa42 9d3c 924b 76bc 3204 e6bc d8b1 e73c
000000a0: a3ce 2b3c c15b f93b d6b6 8abc 475d de3c
000000b0: 3363 1c3d db73 983c 4f1a 06bd 5a58 493c
000000c0: d54f 38bc 9e85 1b3d fb15 433c 08d9 d53c
000000d0: bdd3 f0bc 715f 77bb a97d a1bc f136 0c3d
000000e0: 87cd f43a 8e17 80bc 17a1 c6bc 0529 ff3c
000000f0: dd7b 103d 8958 573c ba2f f43c 7a57 90bc
-0.009482908 -0.028124481 0.000534292 0.032008465 0.030203426 -0.020625886 -0.037805807 -0.030103063
-0.0067199054 -0.026844656 0.037212707 0.0062607126 -0.01936165 -0.024295691 -0.017591814 -0.015526432
-0.029647976 0.0074821454 -0.029890083 0.02036946 0.0019842903 0.018817844 0.030588558 -0.0017588905
-0.035491336 -0.036172654 -0.004179324 0.012928026 0.03118711 -0.02847789 0.026844805 -0.03333546
-0.031571146 -0.02044941 0.02498337 0.0017552968 0.019196976 -0.015032666 -0.028078172 0.028283045
0.010486278 0.007609815 -0.016932886 0.027144087 0.03818054 0.018609932 -0.032739934 0.012289131
-0.011249502 0.037969224 0.011907096 0.026104465 -0.02939784 -0.0037746096 -0.01971324 0.034232084
0.0018676975 -0.015636232 -0.024246735 0.03114749 0.035274375 0.013143667 0.029807914 -0.017619837

3.1.weight f4 [64]
00000000: faad 793f 4407 813f 9737 7b3f 7c62 753f
00000010: 5a3b 7d3f f31e 7b3f 2562 7e3f efc5 823f
00000020: 6a4e 743f 90ba 813f dcfc 783f 70ec 753f
00000030: 2e4c 803f 7122 813f b371 7c3f 442f 783f
00000040: 75da 7b3f c018 823f 8413 7f3f 0cb4 853f
00000050: 9110 7b3f 0b5f 803f db3d 7d3f e8d4 7e3f
00000060: 79d1 823f 71a0 793f b1ea 813f 3b32 763f
00000070: ff44 783f 96d3 773f 516d 833f 632a 813f
00000080: 729f 733f 81a9 833f 0a4d 7e3f d78c 7f3f
00000090: 946f 853f 51bd 843f 4efa 803f 8928 843f
000000a0: b8c7 803f 6437 7b3f efe2 7d3f bb25 793f
000000b0: 4515 7a3f fbc2 853f cf06 813f 70c8 823f
000000c0: 4412 7d3f c6e6 763f 61fa 763f 675c 7d3f
000000d0: 7165 803f 43b0 823f 757f 7f3f a22f 7b3f
000000e0: 5bf1 7d3f 0486 773f f5f8 853f b13f 7d3f
000000f0: f379 763f 01f1 813f 13ed 803f 734f 813f
0.9753109 1.0080342 0.981317 0.958534 0.9891869 0.980941 0.99368507 1.0216655
0.9543215 1.0135059 0.9726083 0.960639 1.0023248 1.0088636 0.9861099 0.9694712
0.98380214 1.0163803 0.99639153 1.0445571 0.98072153 1.0029005 0.9892251 0.9954362
1.0220176 0.9751044 1.0149747 0.96170396 0.9698028 0.9680723 1.0267736 1.009106
0.9516517 1.0286103 0.993363 0.9982428 1.0424676 1.0370275 1.0076387 1.032487
1.0060949 0.98131394 0.991744 0.973232 0.97688705 1.0450128 1.0080203 1.0217419
0.98855996 0.9644588 0.964758 0.9896912 1.0030957 1.0210041 0.9980386 0.98119557
0.99196404 0.96688867 1.0466601 0.9892531 0.9627983 1.0151674 1.0072349 1.0102371

3.1.bias f4 [64]
00000000: 7fcc 32bd 5367 20bd f12c 63bd 5262 8cbd
00000010: 2498 7bbd dc2d 73bd f00d 1fbd 5eeb 9cbd
00000020: f8f0 dcbc 8c93 8abd 9c0a 35bd 0239 5fbd
00000030: 4355 4abd 14b0 0ebd d718 3cbd 5003 42bd
00000040: 3989 d3bc 7bfb 9cbd ca4b 83bd edc2 66bd
00000050: 33eb 21bd 7f8e 85bd 8ffa 3bbd aea6 52bd
00000060: 7504 34bd 1a1f 52bd 9481 89bd 9b16 71bd
00000070: 90d3 a4bd 69ac 3cbd 906d 87bd 5152 5abd
00000080: 6521 74bd 94ef 87bd b291 2bbd 1e45 8cbd
00000090: a214 2abd f27c 5ebd 1b33 7bbd dcba 66bd
000000a0: d74f 82bd 1f46 5abd effe 81bd 02ea 3abd
000000b0: 0fda f2bc 2ce1 8cbd 49d7 46bd ae2b 48bd
000000c0: d5a0 5abd df6c 60bd 28fe 16bd 9499 00bd
000000d0: 30cb 6bbd c355 20bd 53a3 19bd 93a4 3bbd
000000e0: 5f55 b1bc 0c6e 3ebd 8490 4cbd 8857 24bd
000000f0: dc59 78bd ad33 67bd d432 49bd f23a d5bc
-0.043652054 -0.039161038 -0.05546278 -0.068546906 -0.06142439 -0.059369907 -0.03883165 -0.0766208
-0.026970372 -0.067664236 -0.04419957 -0.054497726 -0.04939772 -0.03483589 -0.045922127 -0.04736644
-0.025822269 -0.076651536 -0.0641094 -0.05633824 -0.039530944 -0.065213196 -0.04589325 -0.05142849
-0.043949563 -0.051299192 -0.06714168 -0.05885945 -0.08048165 -0.04606286 -0.06612694 -0.05330116
-0.05960216 -0.06637493 -0.041886993 -0.068491206 -0.041523583 -0.054318376 -0.061328035 -0.056330547
-0.063628845 -0.05328953 -0.06347453 -0.045633323 -0.029644994 -0.068788856 -0.048545156 -0.04886978
-0.053376038 -0.054791328 -0.036863476 -0.031396464 -0.05756682 -0.03914429 -0.037509274 -0.045811247
-0.021647153 -0.046491668 -0.04994251 -0.04012254 -0.06063257 -0.056445766 -0.04912074 -0.026029084

3.1.running_mean f4 [64]
00000000: 3679 df3e a67b 8abe 26a7 153c 3614 173f
00000010: 6e63 013f 98ff 5b3d 8e92 d43e 47a9 2cbf
00000020: da90 84bf 6a95 15bf 2d34 f53d ffb3 82bf
00000030: eb01 0ebf e1ec 32bf 90cd 2abf b99b d93e
00000040: 9b85 713c bd21 a8be 5c4b 59bf ea38 cfbe
00000050: 99ed f2bd bc85 05be 78de 813e 2045 163e
00000060: a5d1 2abf 92d4 0f3f 4854 a2be da0a 033f
00000070: d450 18bf a4c7 c0bf 760b 26bf baf3 f1be
00000080: ea31 ebbe d2d5 9d3e 7e59 3b3f d84a ebbe
00000090: 4413 8d3c 2f19 9bbe 6c1d 9dbe 98f5 9b3e
000000a0: 4335 ba3d 4421 103f 2e94 2fbf 6e5b a93e
000000b0: 56fd 9cbe b0c1 bbbd 9112 29bf 6009 e4be
000000c0: 356e eebe 8a3c 80bf f7ec 5abe 6ed5 1dbf
000000d0: 4bff 3dbf 8246 0ebf c12d 39bf 8fbc 7b3f
000000e0: e860 38bf 6e0b 7cbf ad03 b93c 2fb6 6ebf
000000f0: dac3 583e ccfb 733e 6e34 1cbe 7a28 26bf
0.43647164 -0.2704746 0.00913409 0.59015214 0.5054234 0.05371055 0.41518062 -0.67445797
-1.0356705 -0.5843111 0.11972842 -1.021118 -0.55471677 -0.698927 -0.66719913 0.4250162
0.014741327 -0.3283824 -0.84880614 -0.4047311 -0.118617244 -0.13039297 0.25365043 0.14674807
-0.6672614 0.5618373 -0.31704926 0.51188433 -0.59498334 -1.5060925 -0.6486124 -0.4725626
-0.4593652 0.30827194 0.7318343 -0.4595554 0.0172211 -0.3029265 -0.3068651 0.3046081
0.0909219 0.5630076 -0.6858548 0.33077568 -0.3066203 -0.09167802 -0.66043955 -0.44538403
-0.46568456 -1.0018475 -0.21379457 -0.6165379 -0.7421767 -0.55576336 -0.7233544 0.9833459
-0.7202287 -0.9845494 0.02258476 -0.9324674 0.21168461 0.23826522 -0.15254375 -0.6490551

3.1.running_var f4 [64]
00000000: fa45 9a3e 8455 7e3e c8fa ee3e b076 933e
00000010: ff45 883e d152 a13e 78bf 1e3f 94f3 763e
00000020: e802 843f 3f0e 3f3e d890 233f 4f0c e73e
00000030: b255 8f3e 7cdf b33e 5fbe df3e b6de 383f
00000040: 848c 553f 8c5d 453e 0c82 753e a355 683e
00000050: a4ba be3e 9ab3 923e 3b09 5c3e 0fce 9a3e
00000060: 4581 5f3e a28a 243f 4b6d d63e c08c 123f
00000070: 458a 713e 53bd 263f 3034 743e 8d4f 993e
00000080: fc60 e53e 5ea7 083e 236a b63e e50c 833e
00000090: 1c55 8c3e 68e3 723e 4613 793e ca17 883e
000000a0: de43 803e a12b 023f efc5 c43e 3510 b83e
000000b0: e46e 083f 056b 7d3e d845 853e e0ab da3e
000000c0: 9661 c93e adc5 833f 9b84 2d3f f80c 103f
000000d0: 48e3 c13e 48da 803e 1ab9 d03e a750 b93e
000000e0: 509e b23e fbb6 2b3f 7b12 7d3e c26d d53e
000000f0: 9275 243f 10a8 813e 9fb8 943e 957e 583e
0.30131513 0.24837309 0.46675706 0.2880149 0.26615903 0.31508496 0.6201091 0.24116355
1.0313387 0.18657778 0.6389289 0.45126578 0.27995068 0.35131443 0.4369993 0.7221483
0.83417535 0.19273967 0.2397539 0.22688918 0.3725177 0.2865265 0.21487896 0.30235335
0.21826656 0.64274037 0.4188026 0.5724602 0.23587902 0.65132636 0.23848033 0.29943505
0.44800556 0.13345096 0.3562785 0.25595775 0.27408683 0.23719561 0.24323758 0.2658065
0.2505178 0.5084782 0.3843226 0.35949865 0.53294206 0.24747856 0.2602985 0.42709255
0.39332265 1.0294701 0.67780465 0.5626979 0.37868714 0.25166535 0.4076622 0.36194345
0.34886408 0.6707608 0.24714081 0.416853 0.642419 0.25323534 0.29047105 0.21142037

4.0.weight f4 [64, 64, 3, 3]
00000000: e3ab b1bc e380 1bbd da3a 20bd 544c 44bd
00000010: 28cc c53c b540 dd3c 52d7 383c 77c2 e7bc
00000020: 7e4b d73b 5490 373d b46b c0bc fe87 753b
00000030: bb5c 373c d01d 793c 32f3 f33c fbc8 1e3d
00000040: 355d d93a daa8 933b 5111 fcbb 3a98 783b
00000050: eb4e b43c 15d8 873d afbd 533c f4e4 9abb
00000060: 0a80 14bd 84f7 d9bc 4e3a 093d 7b24 1b3b
00000070: 2e49 e4b9 93c7 4dbb a967 21bc 78df d3bc
00000080: a625 263d 6b29 a43c b926 51bc 6827 363d
00000090: e32f 25bd 5e68 c3bc 81ea 12bb dc39 123d
000000a0: b185 40bd a560 7e38 bb1f 78bc 20e2 e3bc
000000b0: 7bef 253d f468 1abc 21fa b43c cd84 32bc
000000c0: 43a2 32bd 576b f13c 1139 7e3c 084d 26bc
000000d0: 7d0e 453d 920f 04bd 95b5 f73c ab02 333d
000000e0: 2bc5 d83b d987 c2bc 5b83 2ebd 1bbd a6bc
000000f0: 06b7 98bc 5a61 f33b 7deb dcbb c394 2f3d
00000100: 8130 4a3d 8d5a 623c 0875 3a3d dd31 953a
00000110: ad83 a6bc 5e50 13bc 17aa dabb 5446 b53c
00000120: 88db 6b3c 7937 e8bc 86fd 8cbc ef6b 153c
00000130: e25d 16bc c213 03bd 8214 d0bc 8e23 03bd
00000140: a957 ccbc 0399 84bc d13d d8bc aa33 8f3c
00000150: e826 e5bc 052e 9b3a a258 073c 21d5 0e3d
00000160: be7e 423d 69e5 df3c 3b06 9a3c e833 03bd
00000170: c90c 85bc c097 843a 6aad 113d 685c b03c
00000180: e7ff 8e3b ddb8 2c3d 0098 8dba 1a9a e13b
00000190: 929f 45bd 9464 c83b 25af 92bc 74d9 fbbc
000001a0: bdaa c2bc 42f4 0e3d 58f9 723c 474d 91bc
000001b0: 8994 1a3d 5a0c 46bc f081 25bd 9ce5 25bd
000001c0: cda2 aabc 55b5 febb bc8d 213c 014b 8b3c
000001d0: 7f35 a63c 3c5b a6bc ab0f e6bc 2901 04bc
000001e0: f863 6b3d ccb8 e5bb 551d 49bc 0896 e13b
000001f0: e929 963c 00c1 613b 3dc2 e93c 1aff f8bc
00000200: ec42 65bd f490 8b3c aa36 98bc 2a24 a5bc
00000210: df13 943c 06f0 b2bc 479a 413c 68bb d23c
00000220: 7f17 b33b 1fb7 14bc 768f b93c bef7 25bc
00000230: 8807 263d 05c4 473c 6df1 8e3c 65ae cebc
00000240: e11e 00bd 310a 44bc eabe e2bb ffb3 583c
00000250: d967 9ebc 11fa 81bc 6d8d ec3c 1614 e6bc
00000260: b1c7 b43c 96cc 7b3d 178c 593d 00ea 21bd
00000270: e9cd 39bd 0bd7 95bc 30a4 56bc 3c32 303c
00000280: 1fab 7a3c 30df 86bc 38c5 81bc adcb aabc
00000290: 040b 68bc 715a c43c b177 8a3c f6eb d7bc
000002a0: 3412 67bd ea78 e63c 8b4c 8f3c 7efd c5bc
000002b0: d3e0 543d e025 b33c 3bda 8d3c 69da 1a3b
000002c0: 0c27 e93b 0fc0 4ebc b08c 1abd e4d2 8bbc
000002d0: aaa7 87bc 73d2 6cbb 7d83 91bc 4ed8 d5bc
000002e0: 183b 07bd a464 dcbc 41da a7bc 5c13 b23b
000002f0: f36e b5bc fd33 083d f46c 6cbb 25f3 08bb
00000300: f575 27bd 309e 363d e3dd a9bc 1c6f 8a3c
00000310: ca88 273d db57 493c 1b8f 183d 601b 91bc
00000320: 1ef6 aeba 57e8 30bd 15e3 9b3c a4f6 dcbc
00000330: e493 563b cdb7 ba3a 43ae b7bb b1aa b93c
00000340: 2168 ba3b e0c0 01bd 1c18 f03c 394c c53c
00000350: 9514 74bc 962b ef3c 3536 eebb 2535 c7bc
00000360: 6e9b 443c 26b4 a53b f4d4 fbbc 77e8 bbbb
00000370: 1582 313d 9769 5e3c 6bad 623b 8694 45bb
00000380: e9ae 793c 1650 f3bb 5710 863c 1b44 023d
00000390: 3020 f3bc 0f1e 273d 9b58 f73b f7d3 b1bc
000003a0: 0b3b e43b adb3 643c aedb 0d3d dcd8 bdbc
000003b0: 7f0e deba 67e4 98bc 02da b83b 6f93 6abb
000003c0: 10fc 313d c840 f4bb 17eb 97ba 0f88 2dbc
000003d0: 172f a4bc 278c 3b3c 1b3a eabb 0bb9 37bb
000003e0: e268 e7bc c1fe 343c 7c22 06bd 5686 46bc
000003f0: 5f7e 9c3b 73cf 5f3c 9b8c 9c3c e0c6 a6bc
-0.021688407 -0.037964713 -0.039118625 -0.047924355 0.0241452 0.027008394 0.011281805 -0.02829097
0.0065702787 0.044815376 -0.023488857 0.003746509 0.011191542 0.015204862 0.02977905 0.03876589
0.0016583564 0.0045062127 -0.007692494 0.003793253 0.022010287 0.06633011 0.012923642 -0.0047270004
-0.03625492 -0.026607282 0.03350287 0.0023672867 -0.00043542072 -0.0031399473 -0.009851375 -0.025863394
0.040563248 0.02003928 -0.01276558 0.044471174 -0.04032887 -0.023853477 -0.0022417607 0.03569971
-0.047002498 6.0648326e-05 -0.015144284 -0.027817786 0.04051159 -0.009424437 0.022091927 -0.01089592
-0.043611776 0.029470129 0.015516535 -0.010150202 0.04810952 -0.03224141 0.030237952 0.043703716
0.006615301 -0.023746418 -0.04260574 -0.020353844 -0.01864196 0.0074273767 -0.0067419396 0.04286648
0.049362663 0.013815534 0.045521766 0.0011382658 -0.02032646 -0.008991329 -0.0066731083 0.022128262
0.014395602 -0.028346764 -0.017210733 0.009119972 -0.009177657 -0.032001264 -0.025400404 -0.03201633
-0.024944143 -0.016186243 -0.026396664 0.01748069 -0.027972654 0.0011839276 0.008260878 0.034871224
0.047484152 0.027331071 0.018801799 -0.032031924 -0.016241448 0.0010116026 0.03556577 0.021528438
0.004364002 0.042168487 -0.0010802746 0.0068848254 -0.04824788 0.0061155055 -0.017905781 -0.030743338
-0.023763055 0.03490091 0.014829956 -0.017737044 0.03773931 -0.012087906 -0.04040712 -0.040502176
-0.020829583 -0.0077730813 0.009860452 0.017003538 0.02028918 -0.020307176 -0.028083643 -0.008056917
0.057468385 -0.007010555 -0.01227506 0.00688434 0.018330531 0.0034447312 0.028535003 -0.03039508
-0.055972025 0.017036892 -0.018580753 -0.020158846 0.018075882 -0.021842968 0.011816568 0.025724128
0.0054654474 -0.009076863 0.022651415 -0.010129867 0.040534526 0.012192731 0.017449105 -0.025229642
-0.03127945 -0.01196532 -0.0069197314 0.013226508 -0.019336628 -0.015866311 0.02887603 -0.02808575
0.022067877 0.061474405 0.053112116 -0.0395298 -0.045362387 -0.018291017 -0.013100669 0.010754164
0.0152995875 -0.016463846 -0.015841112 -0.020849073 -0.014162783 0.023968907 0.016902776 -0.026357632
-0.056413844 0.028133828 0.017492553 -0.024168726 0.05197222 0.021868646 0.017315974 0.0023628718
0.0071152505 -0.0126190325 -0.037731826 -0.017068334 -0.01655944 -0.003613618 -0.017762894 -0.026104119
-0.03301534 -0.026903458 -0.020489814 0.0054344367 -0.022147631 0.033252705 -0.0036075683 -0.0020896879
-0.040883977 0.044584453 -0.020735687 0.016898684 0.040901937 0.012289013 0.03724585 -0.017713249
-0.0013348495 -0.043190327 0.01902918 -0.026973076 0.0032741958 0.0014245451 -0.0056054904 0.0226644
0.0056886827 -0.03167808 0.029308371 0.024084197 -0.014897485 0.029195588 -0.0072696456 -0.024317333
0.011999948 0.0050568758 -0.030741192 -0.005734499 0.043336947 0.013574979 0.0034588228 -0.0030148341
0.015239456 -0.0074253185 0.016365213 0.03180323 -0.029678434 0.04080015 0.0075484044 -0.021707518
0.0069650463 0.013958854 0.03463333 -0.023174696 -0.0016941576 -0.018663598 0.005641223 -0.0035793444
0.043453276 -0.0074540116 -0.0011590448 -0.010591521 -0.020041985 0.011446989 -0.00714804 -0.0028033878
-0.028248254 0.011047066 -0.03274773 -0.012116989 0.004775807 0.0136603 0.019110015 -0.020358503
