pracs/prac6/model.pth (torch, 412053 bytes, 32 tensors)

0.0.weight f4 [16, 1, 3, 3]
000000 82 40 93 3d cd 06 7d be 07 bd 47 3d 91 2a a2 be
       0.07190038 -0.24709626 0.048764255 -0.316731
000010 16 24 1b bd e9 2b 1f bd 54 d9 0d be 9a f5 33 3d
       -0.03787621 -0.038860235 -0.13852435 0.043935396
000020 13 9f 12 bd df b1 ab 3c 89 a6 c4 3c 78 58 72 be
       -0.035796236 0.020958839 0.024005191 -0.2366656
000030 41 9b 6d 3e c2 04 86 3e 0d 78 b5 3c d8 4d 25 bd
       0.23203756 0.26175505 0.022151971 -0.04035744
000040 e3 72 30 3e 99 5f fe 3d f4 c5 8b 3e 47 e9 b3 be
       0.17231326 0.124205776 0.27299464 -0.35138914
000050 c6 00 91 be 73 89 89 bd 41 38 87 3d de 9c 8e 3d
       -0.28320903 -0.067156695 0.066025265 0.06963514
000060 d5 83 15 3c 5a 55 6b be b0 a8 50 3b f6 89 4a bd
       0.0091256695 -0.22981778 0.0031838827 -0.049447976
000070 8d 9a 48 bd c8 fd 4a 3c 6e 66 49 bd 77 27 6c bc
       -0.048975516 0.012389608 -0.04916995 -0.014413706
000080 c7 be 51 be 9d 4d 7c be 7a 91 29 bd f9 29 a9 bd
       -0.20482932 -0.24638982 -0.041398503 -0.08259959
000090 85 87 d7 3d d9 58 63 3e 95 c9 7e bc 2c 62 bb bd
       0.10523895 0.22201861 -0.015550991 -0.09149584
0000a0 d8 b0 5e 3d 4e 40 89 bd 22 43 60 be 77 99 00 3e
       0.05436787 -0.06701718 -0.21900609 0.12558542
0000b0 3c 25 63 bc d0 12 3a 3e 83 59 e0 bd 3e 5c 0c be
       -0.013863858 0.18171239 -0.10954573 -0.13707063
0000c0 ac 74 a0 be 2e aa 75 3e bd 10 62 3e 64 4d 96 be
       -0.31339014 0.239907 0.22076698 -0.2935592
0000d0 cf 2e 17 be cc 14 fb ba 7b 27 a7 be 5f e5 5a 3d
       -0.1476395 -0.0019155978 -0.3264731 0.0534414
0000e0 64 74 c2 3d b4 f8 84 3e 80 ce 65 be 5a 20 95 3e
       0.09494856 0.25970995 -0.22442055 0.29126245
0000f0 1d 9e 14 3e 3f 60 3b 3e 79 35 28 be a4 13 40 be
       0.1451344 0.18298434 -0.16426648 -0.18757492
000100 3b fc 82 be 59 2f 9a 3e 51 53 4f be 29 ad 75 3e
       -0.25583062 0.30114248 -0.20246626 0.23991837
000110 7c 00 56 bd 33 75 8f 3e cb a7 99 3e dc cc 53 3e
       -0.052246556 0.28019103 0.30010828 0.20683616
000120 fe 55 70 be 47 42 2c 3e 96 dd 6b 3e 68 18 6a b9
       -0.23470303 0.16822158 0.23033747 -0.00022325071
000130 29 c6 e4 3c df 68 76 be ca 1f 0c be f0 55 51 3e
       0.027926521 -0.24063443 -0.13684002 0.20442939
000140 f2 01 3b 3e ed 95 29 be 42 7f 4e bd 79 1a 00 be
       0.18262461 -0.16561098 -0.05041433 -0.12510099
000150 51 4c 6b be 81 e3 75 3d 54 58 ff 3d f5 bc 83 be
       -0.22978331 0.060031418 0.12468019 -0.257301
000160 c4 00 a5 3d 04 8f 57 3e fd 0f 16 bd 53 b9 43 be
       0.08056787 0.2105065 -0.03663634 -0.19113664
000170 46 9e dc 3d fa 6e 34 bb 9d e9 89 3e d8 dd 84 3e
       0.10772376 -0.0027531967 0.26936045 0.25950503
000180 98 7d 3d be 04 ea 07 3d 42 64 38 3e d6 d6 8c 3e
       -0.18504941 0.03318216 0.18006995 0.27507657
000190 02 1d 31 bd 4b 65 9b be 80 ac df 3d 39 13 9a 3c
       -0.043240555 -0.30350718 0.10921574 0.018807994
0001a0 41 7b 25 3e de 49 c2 3b 74 36 66 be 75 c3 a5 3b
       0.16160299 0.005929216 -0.2248171 0.0050587007
0001b0 f7 06 a7 3d 25 48 29 bd 51 4e 0b 3d 0d 6e c7 bd
       0.08155625 -0.041328568 0.034010235 -0.097377874
0001c0 38 6b 72 3e 6c f5 8b 3e 7c de 48 be 08 3b 17 be
       0.23673713 0.2733568 -0.19616121 -0.14768612
0001d0 b4 3a 43 3e a2 e5 48 be 9b 79 5b 3e 4e 84 27 be
       0.19065362 -0.19618848 0.21433108 -0.16359064
0001e0 e6 6c 82 3d fa 59 ee bd 30 91 65 be 24 c1 fa bd
       0.06368427 -0.116382554 -0.22418666 -0.1224387
0001f0 66 11 9c be c3 28 ec 3c 93 d3 61 bd bf 02 cd 3d
       -0.30482024 0.02882803 -0.055133414 0.100102894
000200 c7 21 42 bd a0 23 e8 3d fe 8a 8e bd 44 db 54 be
       -0.047395494 0.1133492 -0.069601044 -0.20786768
000210 87 24 85 be e5 e8 6c 3d 6d 92 a5 be 9b de ee 3d
       -0.2600443 0.057839293 -0.32338277 0.116635524
000220 f6 a3 18 be d0 f8 8b 3e f4 6e 37 bc 3d 80 87 be
       -0.14906296 0.27338266 -0.011195887 -0.26465026
000230 29 3d cd 3d b5 1a 12 bb c3 e4 14 3e 01 a7 82 bd
       0.10021431 -0.002229375 0.1454039 -0.0637951

0.0.bias f4 [16]
000000 fd 72 8b be 17 59 32 3e 62 3f 97 3e 06 f0 94 3e
       -0.27236167 0.17416798 0.29540545 0.29089373
000010 25 b9 82 be 36 00 82 3e 70 8b 7a be c0 f9 49 be
       -0.2553188 0.25390786 -0.24467254 -0.19724178
000020 89 96 6f bd 32 ab b0 3c 42 25 dd bd 28 c8 81 3e
       -0.05849317 0.021566007 -0.10798122 0.2534802
000030 d5 15 3f be 1f 16 aa be 47 4c c5 bc 83 2e fd 3d
       -0.18660672 -0.33220002 -0.024084223 0.12362387

0.1.weight f4 [16]
000000 3f 3f 75 3f b2 39 85 3f 8a be 7b 3f 5f 29 7b 3f
       0.9579963 1.0408232 0.98337615 0.9811
000010 a4 f4 80 3f 78 dc 80 3f 44 7c 82 3f 72 22 81 3f
       1.0074658 1.0067282 1.0194173 1.0088637
000020 85 c4 80 3f ce af 78 3f 45 2c 7f 3f 92 93 81 3f
       1.0059973 0.97143257 0.99676925 1.012316
000030 c1 5d 82 3f 16 c3 7d 3f 85 92 77 3f f7 96 75 3f
       1.0184861 0.991258 0.96707946 0.9593348

0.1.bias f4 [16]
000000 5f 23 05 bd eb d2 93 bc de 32 d3 bb 39 60 f4 bb
       -0.032504436 -0.01804491 -0.006445273 -0.0074577597
000010 0e 68 f9 bb f3 eb bc 3b b5 55 8b 3c 89 3f 40 3c
       -0.0076112812 0.005765432 0.017008642 0.011733898
000020 e2 89 fb 3b 8c 62 66 bc ed 21 2b 3c f6 44 60 3d
       0.007676349 -0.014061581 0.0104451 0.054753266
000030 ca 95 c1 bb d8 27 93 3c dc 0b bd bc a9 36 80 bc
       -0.005907749 0.017963335 -0.023076944 -0.015651064

0.1.running_mean f4 [16]
000000 09 3a 6a 3e 7b 85 90 be 22 31 2f 3f af ee 57 3f
       0.22873701 -0.28226838 0.68434346 0.8434858
000010 42 8a a9 be 46 5e 06 3f 1a b0 fa be 65 3f 2d bf
       -0.33113295 0.524876 -0.4896248 -0.6767486
000020 c5 06 57 be 9e 32 92 3e 48 b2 e6 be fa fb 7c 3e
       -0.20998676 0.28554243 -0.45057893 0.24705496
000030 b0 0f e5 be b4 20 97 3e 94 4e 00 3f b4 3a c5 3c
       -0.4473853 0.29517138 0.501199 0.024075843

0.1.running_var f4 [16]
000000 0d 59 e8 3c 14 36 c5 3c 12 3f b1 3c 84 3c 0f 3d
       0.028362775 0.024073638 0.02163652 0.03496982
000010 c7 4d 85 3b 9b 36 74 3c e4 4f 00 3c e5 15 27 3d
       0.0040681097 0.014905597 0.007831547 0.040792365
000020 6e 4f f8 3b e0 c4 8d 3c 37 ff 92 3c 67 ad 92 3b
       0.007577828 0.017305791 0.017943962 0.0044762376
000030 e1 fa 59 3c b7 e1 37 3d c5 81 16 3d 99 47 70 3b
       0.013304443 0.044892993 0.03674485 0.003666377

1.0.weight f4 [32, 16, 3, 3]
000000 07 bc 8d 3b 9c e0 d3 bc 07 b8 60 bc 9c c5 72 3d
       0.004325393 -0.025863938 -0.013715751 0.059270486
000010 71 2f 8c 3d bd af 83 3d 8a f9 83 bc 78 14 b2 3c
       0.06844986 0.06430004 -0.0161102 0.021738276
000020 9d 06 bd 3d d0 9b 76 3c d0 d0 3a 3d 8b 9d e5 ba
       0.09229777 0.015051797 0.045609295 -0.0017518265
000030 6a 1d aa bd 96 82 a8 3d 59 a0 a0 3d b1 bb 86 bd
       -0.083063915 0.08228032 0.07843084 -0.06578768
000040 f4 bd a5 bd 76 84 da 3c 1e 98 77 bd 34 db 5c 3d
       -0.08092871 0.02667449 -0.060447805 0.053919986
000050 eb 29 0e 3c 82 36 7b 3c 09 27 9f 3c 52 81 40 bd
       0.008676986 0.01533282 0.019427793 -0.04699833
000060 e1 44 55 bc c8 4c 0f bd 65 cf 74 bc 16 0d ae bc
       -0.01301691 -0.034985334 -0.014942025 -0.021246474
000070 39 c9 23 3d 44 13 4c bd f7 80 a0 3d a8 3b b0 3d
       0.039986823 -0.04982306 0.07837098 0.086051285
000080 2a 29 3e 3d 53 c0 86 bc 54 41 59 3d 2f 4c d4 ba
       0.046425976 -0.01644913 0.053040817 -0.0016197021
000090 9e c0 8f bd f3 4b 0e 3d 85 12 b2 3d 43 cc d3 bc
       -0.07019161 0.0347404 0.086949386 -0.025854236
0000a0 fa e6 24 ba 55 8b 06 bd 33 cc 91 3d 5f ae 05 3d
       -0.00062905217 -0.03284772 0.07119026 0.032636996
0000b0 7d a4 b1 3d 79 48 41 3d d1 08 a9 3c a4 50 d3 3c
       0.08673952 0.047188256 0.020634087 0.025795288
0000c0 9f 7c b1 3d 40 4f a3 3b cf 50 92 bd c6 c9 90 bd
       0.08666348 0.0049838126 -0.07144319 -0.07069735
0000d0 2a 2e 90 3d ec 82 8b bc e7 ec dd 3a f2 eb 90 3c
       0.07040055 -0.017030202 0.0016931564 0.017690632
0000e0 75 ce d5 3d e8 5d 8c 3d 45 63 cf 3d 25 38 8a bc
       0.10439769 0.06853849 0.10126356 -0.016872475
0000f0 d1 df 7e bd 37 83 96 3c b9 98 93 bd 3d 49 87 3d
       -0.062225167 0.018373115 -0.07206864 0.06605766
000100 47 87 c0 bc 65 a3 98 3d 57 ba b0 3d 3d 74 63 3d
       -0.023502005 0.0745304 0.086292915 0.055530775
000110 02 53 2f 3d 8e 6f a8 bd b3 36 3b 3c 62 e7 f5 3b
       0.04280377 -0.08224402 0.0114266155 0.0075043896
000120 e1 dd 0f 3d a8 c0 29 ba a2 a3 d4 3b 2c 7f f5 3c
       0.03512371 -0.00064755464 0.006489233 0.029967867
000130 30 d8 7c 3d f7 41 40 3d a8 a3 12 3d f6 aa ca bc
       0.06172961 0.04693791 0.035800606 -0.024739724
000140 0e 36 74 bd cd 26 eb 3d ca ff 65 bd d4 93 fb bc
       -0.059621863 0.1148201 -0.056152143 -0.030710138
000150 f7 52 56 3d d8 ad 83 3c 7d eb 42 3d d2 7a d5 3c
       0.052325215 0.016074106 0.04758786 0.026059542
000160 60 f4 72 bd 7b 9c 9e 3c c4 86 6d bd 14 52 f3 3c
       -0.059315085 0.019361725 -0.05798985 0.029702224
000170 be 3e 39 bd a0 7c 9f 3c 96 5c 2b bd 8f 79 82 3d
       -0.04522585 0.019468606 -0.041836344 0.06370842
000180 d0 97 8c bc 96 40 51 3b c6 e3 b5 bd 3e 16 07 be
       -0.017162234 0.0031929365 -0.08881335 -0.13192078
000190 42 86 bb 3c 2b a0 86 bd 63 47 ff bd c7 a1 13 bc
       0.022891168 -0.06573518 -0.12464788 -0.009010739
0001a0 a4 57 12 3d 10 70 e4 3c 17 80 9f 3d e2 08 44 bd
       0.035728112 0.027885467 0.07788103 -0.047860034
0001b0 d1 59 be bc a0 7d 75 3d b1 e5 0d bd 2d ba 02 bd
       -0.023236187 0.05993426 -0.03464288 -0.031915832
0001c0 7a dc 14 bc f1 5e e0 3a 4a 1b 86 3c 8d 8c 52 bd
       -0.009085769 0.0017118138 0.016370434 -0.05140357
0001d0 39 50 55 bd f8 41 58 bc d0 f1 88 3b 64 5b 79 3d
       -0.05207846 -0.013199322 0.004179217 0.060878173
0001e0 03 98 29 bd 72 ba 51 3c 6b 70 50 3d 11 33 b8 3d
       -0.041404735 0.0128008 0.05088846 0.08994115
0001f0 5b 9a 73 3d 2f ce 55 bd ef 55 e0 bc 1c f7 7d bd
       0.059473377 -0.052198585 -0.027384726 -0.06200324
000200 eb cb d4 3b 1a 0c 04 3c 89 a8 a7 bd 2b 1d 04 bc
       0.0064940355 0.008059526 -0.081864424 -0.008063595
000210 1e 7b 4e 3c 5d e4 9a bc 37 4a 9f bc cb 72 95 bc
       0.012602596 -0.01890772 -0.019444568 -0.018243214
000220 d2 38 47 bd dc 39 ed bc f3 0c f2 3b eb 80 43 bd
       -0.048638172 -0.028958254 0.0073867976 -0.047730368
000230 ca 49 f0 bb 4c dc e5 bc 2f 2e 9a bc e3 b2 a4 3d
       -0.007333015 -0.028059147 -0.01882085 0.080419324
000240 7e a3 2e 3d 5a 63 29 bd 6a 15 b4 3c 87 9d 2d 3d
       0.042636387 -0.041354515 0.021982867 0.042386558
000250 33 73 c7 bd df 8f 82 3d ee 50 c9 bd 18 79 b5 3a
       -0.097387694 0.063750975 -0.09829889 0.0013845293
000260 e5 51 12 3d 04 34 62 3c c9 d1 7c bd 45 21 2e bb
       0.035722632 0.013806347 -0.061723504 -0.0026570123
000270 e5 2c 77 bd d0 e2 11 bc 0a c1 25 bd f4 06 29 bd
       -0.06034555 -0.008904174 -0.0404673 -0.041266397
000280 14 60 d2 bc bb 91 25 bd 26 a3 91 3d 8d 4e cc bc
       -0.02568058 -0.040422183 0.07111196 -0.0249398
000290 ea 5e 32 3d bc 58 df bd 3a c2 13 3b f2 9b ba 3d
       0.04354755 -0.109055966 0.0022546188 0.091117755
0002a0 4a e4 dd bd 31 79 98 bd 1c aa b2 3c 28 b6 38 3d
       -0.10834558 -0.074449904 0.02180963 0.045095593
0002b0 98 04 b1 3c 38 8b 98 38 cb 6a 8e bc 64 0d b4 3b
       0.021608636 7.273856e-05 -0.017384907 0.0054947603
0002c0 b4 c3 0c 3d b5 72 26 bd 4d bc 98 bd cd 3a 96 3d
       0.034366325 -0.040636737 -0.074577905 0.07335434
0002d0 3f 91 a4 bc 49 f4 89 bb f5 6b ec 3c f4 70 55 3d
       -0.02008879 -0.0042100293 0.028860072 0.052109674
0002e0 34 d7 e4 3c 5e 4e c6 3c 7a 53 c1 3c d8 d8 28 3d
       0.027934648 0.02420729 0.023599375 0.041222423
0002f0 83 c7 91 3d ce 09 8e 3c 58 b6 8e bd 4d 0c 68 3d
       0.07118132 0.01733866 -0.06968373 0.056652356
000300 f9 36 d3 bd 7b 8a ca bd 09 99 0f 3d 27 ff 1c 3d
       -0.103132196 -0.09889694 0.035058055 0.03832927
000310 53 80 16 bd 97 fb b4 bc 7a f2 b4 3d d5 ea 80 bd
       -0.036743473 -0.022092624 0.08835311 -0.06294791
000320 de 11 4c bc 15 ac 81 bc 2a 5a cc 3c df 66 38 bd
       -0.012455432 -0.015829125 0.024945337 -0.04501998
000330 0a 26 f8 3d 83 8f ab 3d 61 55 f6 bb 8e df 3c 3d
       0.121166304 0.08376982 -0.007517502 0.046111636
000340 e9 46 6f 3d 06 33 16 3d 68 d4 5a 3d 2b 00 65 3d
       0.058417235 0.036669753 0.053425223 0.055908363
000350 52 f8 27 3d 80 77 0f bd 18 fb 62 3d 02 f0 98 3d
       0.0410083 -0.035026073 0.055415243 0.07467653
000360 83 45 88 bd 28 ab 5e 3d 8f 35 0e 3d 93 d1 87 bc
       -0.06653883 0.054362446 0.034719046 -0.016579425
000370 5a 2b ae bb 6e 94 02 bd 03 6b 56 ba 39 e1 91 3d
       -0.0053152265 -0.031879835 -0.0008179398 0.07123036
000380 d2 9a 4d 3b 71 76 f7 3b 9d 28 58 3d d4 86 c5 bd
       0.0031372798 0.007551961 0.052773107 -0.09644857
000390 63 45 1d 3d 1f 34 b6 3b 4a d0 c2 bd ea 76 3e bc
       0.03839625 0.0055604125 -0.09512384 -0.011625031
0003a0 27 2e da 3c f9 54 a7 bd 92 5d 08 3d 7c 4c 91 bd
       0.026633335 -0.08170504 0.03329236 -0.07094666
0003b0 df c5 9f 3d 41 91 41 bc 18 7f 34 bd f1 67 91 3d
       0.07801413 -0.011814416 -0.04406652 0.070999034
0003c0 7b 32 9a 3c 28 a9 52 3d 02 d1 5f bd 75 6b 7b bd
       0.0188229 0.05143085 -0.054642685 -0.061381776
0003d0 d6 11 d8 bd 90 5d cd bc ce 4f 89 bc 97 83 6e bd
       -0.10550277 -0.025069028 -0.016761687 -0.058230963
0003e0 9b 90 cd bc 3d e6 98 3d 73 96 5a 3d 31 1a af bd
       -0.025093367 0.074657895 0.053366136 -0.085499175
0003f0 74 43 5e bd e9 67 fa 3c 4f f9 d4 bb 98 8c 8c bc
       -0.054263547 0.030567126 -0.0064994465 -0.017156884

1.0.bias f4 [32]
000000 a9 6f c2 bc 9d c1 7e bc 2b fc 7b bd 31 df 92 bc
       -0.023734884 -0.015549091 -0.061519783 -0.017928692
000010 a9 50 a4 bd 02 60 56 3d 3b f4 11 3d 34 6c 8a 3d
       -0.08023197 0.052337654 0.035633307 0.06758919
000020 7e fe 22 bd e5 d6 a5 3d b5 88 7e bd 5c 98 08 3d
       -0.039793484 0.080976285 -0.062142093 0.033348426
000030 36 ec 6a 3d 96 7e 92 bc 6b 92 55 3d 44 27 5f bd
       0.057354175 -0.017882627 0.05214159 -0.054480806
000040 14 69 bc ba ca 30 64 bd 7a ab e0 bb 8e 48 89 bd
       -0.0014374577 -0.05571059 -0.006856379 -0.06703292
000050 ae 38 5b 3d 02 2a 0c 3d 34 2a 57 3d 12 af 1d bd
       0.05352085 0.03421975 0.052530482 -0.03849704
000060 45 8f 3f bd c7 21 a3 bd a7 90 32 bd d6 95 b9 3b
       -0.04676749 -0.07965427 -0.043594982 0.005663614
000070 7c 48 81 3c 3c 19 cc 3b 84 9f 4c bb 80 e4 20 3d
       0.015781634 0.006228594 -0.0031223008 0.039280415

1.1.weight f4 [32]
000000 cd 28 81 3f 58 96 75 3f 67 fe 7c 3f 66 88 81 3f
       1.0090576 0.9593253 0.9882569 1.011975
000010 b0 88 7f 3f 63 ed 7a 3f 5b dd 7e 3f 54 3a 7a 3f
       0.99817944 0.98018473 0.9955651 0.9774525
000020 84 80 7e 3f fd 3c 83 3f b7 98 84 3f 0b f6 82 3f
       0.9941485 1.0252987 1.0359105 1.0231336
000030 a7 5d 7b 3f 77 43 7b 3f 36 63 73 3f 96 b3 7d 3f
       0.9818978 0.9814982 0.9507326 0.9910215
000040 c1 d4 82 3f bf 5a 7d 3f 92 a6 82 3f 49 eb 77 3f
       1.0221177 0.9896659 1.0207083 0.9684339
000050 64 22 7d 3f 03 29 81 3f 3d 0e 7c 3f 80 2f 78 3f
       0.988806 1.0090641 0.98459226 0.9694748
000060 7f 01 8b 3f 18 6a 87 3f 3c 12 7b 3f 25 4b 81 3f
       1.0859832 1.0579252 0.980747 1.0101057
000070 ee b9 88 3f d6 13 79 3f 19 f3 7d 3f 27 6f 7b 3f
       1.0681741 0.9729589 0.9919906 0.9821648

1.1.bias f4 [32]
000000 ae a3 03 bd de 52 62 bd 80 fb 0d bc a4 ac 37 ba
       -0.03213852 -0.05525481 -0.008665919 -0.00070066215
000010 13 75 4d 3c 84 ba a7 bb 59 12 d7 bc f5 a7 56 bc
       0.01254012 -0.00511867 -0.026253866 -0.0131015675
000020 9a 9b 17 bd 74 ba 44 3c 02 2e a5 3b da f4 80 ba
       -0.037013628 0.0120073445 0.005040885 -0.0009838596
000030 a9 50 ba bc cb 22 50 bd c5 b5 a8 bc 81 77 29 bd
       -0.02274354 -0.05081443 -0.020594487 -0.041373733
000040 bd b9 44 3c 11 a4 1e ba c7 72 d4 bb ec df 1a bd
       0.012007174 -0.00060516695 -0.006483409 -0.037811205
000050 c6 38 26 bd 56 9d b2 3c e9 12 dc bc 15 2f 0f bd
       -0.040581487 0.02180354 -0.026864486 -0.03495701
000060 6d ca ad bc c0 e1 e4 bc 4f fc 1b bd 1a 2a 98 bd
       -0.021214688 -0.027939677 -0.038082417 -0.07429905
000070 96 05 00 3d dd 2f fc bc d5 d1 ed bc 5d f0 99 3c
       0.031255327 -0.030784542 -0.02903072 0.018791372

1.1.running_mean f4 [32]
000000 8a 8b b4 3e 15 53 b5 be dd ce 2c bc 9d b5 94 3d
       0.3526271 -0.3541495 -0.010547367 0.072612025
000010 17 e4 a1 be 82 98 b7 3e 13 e5 53 3e 78 aa 08 3f
       -0.3161933 0.35858542 0.20692854 0.53385115
000020 a8 8c 44 3f 4e 35 8b be bc ab 7c bf 04 98 9b bc
       0.76777124 -0.27189106 -0.98699546 -0.018993385
000030 af da 89 3e 9a 0b 08 3e 0c 06 bc 3e 3a 66 87 bc
       0.26924655 0.13285676 0.36723363 -0.016528238
000040 d3 2f 77 bf aa e4 81 3e a5 f2 13 bf 62 9c c4 3e
       -0.9655735 0.2536977 -0.5779212 0.3840056
000050 7e e5 87 3e a0 fd 07 3e 2b 26 25 be cd 6d c1 3d
       0.26542276 0.13280344 -0.16127841 0.09444771
000060 22 fb 06 3d ac 8c 06 be 3e 61 4b be 9a 92 98 3e
       0.032954343 -0.131396 -0.19861314 0.29799348
000070 26 4f 61 be f7 15 57 3d cd 26 98 be 44 b9 3e bf
       -0.22002849 0.05251118 -0.29717103 -0.7450144

1.1.running_var f4 [32]
000000 53 e5 58 3e 94 4b d9 3d 55 03 e6 3e 56 bd 28 3e
       0.2118123 0.106101185 0.44924417 0.16478476
000010 20 84 ca 3e 14 c8 aa 3e ef d7 a3 3d 6e c5 c5 3e
       0.39553928 0.33355772 0.080001704 0.3862719
000020 e8 f3 9e 3e 45 f4 db 3d bc a7 a2 3e 95 c3 fe 3d
       0.3104546 0.1073995 0.31768596 0.12439648
000030 b7 46 3f 3e 7c 51 2f 3e 60 cd fc 3e d0 26 5d 3e
       0.1867932 0.17120928 0.4937544 0.21596837
000040 1e 8d 3c 3e fd 00 f8 3d 17 83 b8 3e 87 af af 3e
       0.18413207 0.121095635 0.36037514 0.34313604
000050 38 66 14 3e 73 9d e8 3d 85 6b 0b 3f 95 83 a6 3e
       0.14492118 0.11358156 0.54460937 0.32522264
000060 88 76 9a 3d 4d 3f ca 3d 8e fb c6 3d 22 ac 33 3d
       0.07542139 0.09875355 0.09715949 0.04386533
000070 c2 ad 0c 3e c7 12 e1 3e 12 b8 b2 3d 1c eb 1c 3e
       0.13738158 0.43959638 0.08726515 0.15324062

2.0.weight f4 [64, 32, 3, 3]
000000 92 fc 0b bd 4e 92 0f 3d a5 a5 0e bd 7b 3a 33 bc
       -0.034176417 0.035051636 -0.03482594 -0.010939236
000010 ea ca c4 3c 38 d6 46 3d dc c5 0d bd 05 cd 07 bd
       0.024022538 0.04854414 -0.03461252 -0.033154506
000020 76 5b 71 bc e8 fd dd 3c 11 0d c1 3c 9f c3 fb bc
       -0.014731279 0.027098611 0.0235658 -0.030732928
000030 d1 ca 80 ba 00 a3 9c bc 43 76 69 3d 07 fe 13 3c
       -0.0009826069 -0.019120693 0.05699755 0.009032733
000040 4c 31 36 bc 4e b2 03 3d 4a 2d 69 bd 49 12 06 bd
       -0.011120152 0.032152466 -0.056927957 -0.03273228
000050 76 b2 6d 3d 2a 34 48 3d d6 7d 1e bd 25 3d 41 bd
       0.05803152 0.048877873 -0.038694225 -0.047177453
000060 6b 56 20 3d 0f dc 2e 3d 88 fe 61 3d 5d 73 2c bc
       0.039144915 0.042690333 0.05517438 -0.010525552
000070 75 a0 14 3d 29 bf d6 3c ed 1a 2f 3d a4 7e 6b bd
       0.036285836 0.0262142 0.042750288 -0.05749382
000080 68 a5 a7 3c 31 f4 7a bd 86 75 89 bc bd d9 0b bd
       0.020464614 -0.061268035 -0.016779672 -0.0341432
000090 60 d2 4e bd 8f 51 9e 3c 27 84 32 bd 52 0a 73 bc
       -0.050493598 0.019326 -0.04358306 -0.0148340035
0000a0 ac 97 f7 37 09 f2 71 bd 1a 41 02 3b de d2 97 bc
       2.9515322e-05 -0.059068713 0.001987523 -0.018533166
0000b0 c4 c8 01 bd 2c a4 41 3c d0 da 2c 3d b1 c3 60 3c
       -0.031685606 0.011818927 0.042200863 0.0137185315
0000c0 eb ac 8b 3c 5e 19 f9 ba df 39 d2 ba 27 47 fb 3c
       0.017050227 -0.0019004752 -0.0016038975 0.030673577
0000d0 93 12 2b 3a b4 78 aa bc 55 18 f9 3c 97 8a aa 3c
       0.00065259 -0.020809509 0.03040711 0.020818038
0000e0 f1 8d 83 bc 1b 83 4b 3d 35 ce 87 3b 9b 74 ba 3c
       -0.016058894 0.04968558 0.004144455 0.02276068
0000f0 24 82 cd ba 88 a3 a7 bc 1e 62 93 bd ad 6c 39 3d
       -0.0015679044 -0.02046372 -0.07196449 0.045269657
000100 bd a6 af 3c 9f 50 0c 3c b4 4f 2b bd 3d 1f 67 3c
       0.021441812 0.008564143 -0.041824058 0.014106569
000110 0b e5 66 bd b7 b9 bd bc 24 7a 09 3a bb 51 0e bd
       -0.056370776 -0.023159845 0.00052443356 -0.034745913
000120 01 3e 50 bd d4 1e 3d bc 36 1a 25 3d 9e 89 41 bd
       -0.05084038 -0.0115429945 0.0403082 -0.047250383
000130 18 f2 cd bc 2d ff 2d 3d 55 e2 fc 3c 3c b8 4e bd
       -0.025139853 0.042479683 0.030869642 -0.05046867
000140 fa 6e 8a bc 7c b3 2d 3d 54 c5 92 3c 64 99 0e 3d
       -0.01689862 0.042407498 0.017916359 0.034814253
000150 ba ae 23 bd b9 4c 4e bd 10 60 66 3c a5 a0 1d 3d
       -0.039961554 -0.050366137 0.014060989 0.03848328
000160 dc 08 78 39 df d6 60 3c 43 91 8b 3d cd 15 26 bd
       0.00023654423 0.013723104 0.06814816 -0.040548135
000170 cc 51 39 3d ce a5 3f bd c3 8c 12 3d 8d 3b 38 3c
       0.045244023 -0.046788983 0.035778772 0.011244667
000180 8d 87 7a 3d 1b 19 14 3d 46 68 aa bd 35 21 b8 3b
       0.061164428 0.036156755 -0.0832067 0.005619193
000190 c4 44 92 3c 48 9f 18 3d 65 45 ce bc 2a 39 13 bd
       0.017855056 0.037261277 -0.025179574 -0.035943188
0001a0 83 f3 22 bd dd 31 b3 3c 55 f5 09 bd ed 59 da 3c
       -0.039783012 0.021874363 -0.033681232 0.026654208
0001b0 82 1e e2 bc 7c c6 07 bd a5 29 89 3d 64 0e fc 3c
       -0.027602438 -0.033148274 0.06697396 0.03076858
0001c0 8f 8a 16 bd fa 36 35 bd a1 4c 67 3c c9 2f 73 bd
       -0.036753234 -0.044241883 0.014117391 -0.059371743
0001d0 99 4b 60 bb cb 81 3a 3d bf a2 67 bd fd 72 52 bd
       -0.0034224747 0.045533936 -0.05655169 -0.051379193
0001e0 ed 05 55 3a e0 be 5d 39 a2 e9 48 bc e7 2e 07 bd
       0.0008126188 0.00021147309 -0.012262734 -0.033003714
0001f0 7d 1a 28 bd dd ac ec bb 93 7e 19 3d 69 84 22 3d
       -0.041040886 -0.0072227553 0.037474226 0.039677057
000200 57 9f af bc 13 20 42 3d cc cf 18 3d 6b 23 2a 3d
       -0.021438284 0.04739387 0.037307546 0.041537683
000210 51 9b bc bb 0c 0a 59 bd 9f 89 78 bc ac 97 f5 bc
       -0.00575582 -0.052988097 -0.01516953 -0.02997955
000220 a4 85 e3 bc be 81 1a 3d fb e3 1f bd 51 06 2d bc
       -0.027773686 0.037721388 -0.03903578 -0.010560588
000230 e5 7b 44 bc c0 bf ce 3c 1d ba de 3c 9f 69 55 bd
       -0.011992429 0.025237918 0.027188355 -0.05210268
000240 8a c1 20 3d 45 53 91 bc 50 91 d9 bc a4 8b 57 3d
       0.039247073 -0.017739901 -0.026558548 0.052623406
000250 b0 c2 25 3c 75 e6 b4 bd 1f cc 1b bb 34 9f ff 3b
       0.010117218 -0.08833019 -0.0023772789 0.007800961
000260 ba 2d 9e bc e7 2c c4 3b 10 b2 15 bd 36 8c 86 bc
       -0.019308913 0.005986798 -0.036546767 -0.01642428
000270 6f e1 73 3b 13 e5 ff 3c 7c a6 b4 3c ca 0e 7e 3d
       0.0037213226 0.03123716 0.022052042 0.062025823
000280 2c 43 f7 3b df a3 61 bd ad 62 14 bc a4 df 20 bd
       0.0075458493 -0.05508792 -0.009056729 -0.03927578
000290 50 60 3c 3d 30 90 42 bd 27 83 d4 3c 18 71 52 bd
       0.04599029 -0.04750079 0.025941445 -0.051377386
0002a0 76 36 81 bd cc 4c f4 bc fd dd 00 3d b4 08 5b bd
       -0.06309216 -0.029821776 0.031461705 -0.053475097
0002b0 ce 8c ee bc dc b8 90 3c 18 ee 3c bd 7a e5 56 bc
       -0.029119875 0.017666273 -0.0461255 -0.013116235
0002c0 16 20 0d bd 0a e7 81 3d cb 50 7d bd a3 a0 24 3d
       -0.034454428 0.06342895 -0.06184463 0.040192258
0002d0 75 ec f3 3b c8 57 84 3d 20 53 27 bd 23 5f 67 3d
       0.0074439594 0.064620554 -0.04085076 0.056487214
0002e0 47 b5 08 bd 96 87 25 3d 33 3b 49 3c 11 0f 48 bd
       -0.033376005 0.040412508 0.012282181 -0.048842493
0002f0 94 a9 31 3d 79 d9 92 3b af d5 96 bc f8 5c d8 3b
       0.043374613 0.004481491 -0.01841244 0.0066028796
000300 cb 14 9e bc cf 28 7f 3c 8d 97 34 bd fb 39 5c bb
       -0.019297024 0.015573694 -0.044089843 -0.0033603895
000310 17 b3 a9 bc 27 65 f6 bb c8 35 1d 3c 04 6f 0d 3d
       -0.02071528 -0.0075193825 0.009595342 0.0345297
000320 eb 7e fc 3b 5c a1 1d bd 35 14 16 bd 60 5b 49 3d
       0.0077055595 -0.038483962 -0.036640365 0.049159408
000330 b4 84 0b 3d ca 13 82 bc a6 45 a9 bb 5a d8 09 bd
       0.034062102 -0.015878577 -0.0051657734 -0.033653595
000340 38 49 24 3c f3 c8 59 3d 96 7b 81 bc 75 56 15 3d
       0.010027222 0.053170156 -0.015806 0.036459405
000350 25 f4 a6 3c f6 6d 50 3c df 15 1e bd 1a ff 98 bc
       0.020380089 0.012721529 -0.038595077 -0.01867633
000360 98 82 4d bd da 3e 54 bc 77 a7 9b bd 00 80 30 3c
       -0.050173372 -0.012954438 -0.07600301 0.010772705
000370 99 69 15 3d 03 70 a6 3b 83 4f 49 3d 41 86 50 bd
       0.03647766 0.005079271 0.049148094 -0.050909285
000380 1f 3d b1 bc 65 f7 88 3d ea 08 6e bd d4 95 ff 3c
       -0.02163559 0.06687812 -0.05811397 0.031199373
000390 09 55 bb bc b8 65 66 3d fa a8 97 bc cb b6 35 3c
       -0.022867696 0.05624935 -0.018513191 0.0110909445
0003a0 17 91 dd bd 44 11 c7 3c bd ee ec 3c e3 72 86 3b
       -0.10818689 0.024300225 0.028922433 0.004103051
0003b0 5f b0 26 3d 38 8b 02 bc d8 d1 4d bd 4d 4c 24 bd
       0.040695544 -0.007967763 -0.05024895 -0.04011183
0003c0 8e e8 02 bd cf ee ea bb 1c 20 1b bc 33 17 b3 3c
       -0.031960063 -0.0071695815 -0.009468105 0.021861648
0003d0 86 09 8c bc cb d8 64 3d c3 08 0b bc 71 63 71 bd
       -0.017094385 0.055870812 -0.008485976 -0.058932725
0003e0 f0 b9 a1 3d 8d 02 f0 3c 10 50 84 bd 11 8b 07 bd
       0.07896793 0.029298091 -0.06460583 -0.03309161
0003f0 9b a7 e0 3c 69 62 67 bd 3e 72 9e 3c e7 98 e3 3a
       0.02742367 -0.056490336 0.019341584 0.0017364294

2.0.bias f4 [64]
000000 2d 58 06 bc 5a 0a b4 bc 75 ce 48 3d 8f ab 0f bd
       -0.008199734 -0.021977592 0.049025018 -0.03507572
000010 c5 41 c8 3c ab 50 0d 3c ab e5 0f 3a 1c 70 08 3d
       0.024445424 0.00862519 0.000548924 0.03331004
000020 6a a5 ce bc d1 29 75 3a 1e 21 5a 3d 27 5b f7 bc
       -0.02522536 0.00093522394 0.05325424 -0.030194832
000030 22 1f 3d bb 29 26 eb bc 5f cd d8 39 ff 51 c9 3c
       -0.0028857668 -0.02870472 0.00041351744 0.024575232
000040 2d 2a 49 bd 31 e4 c4 3c 71 08 6f 3d c1 c1 2b 3d
       -0.049112488 0.024034591 0.05835766 0.041932825
000050 95 0c 7d bc d6 51 d9 bc d4 88 3e 3d 4d a2 1d 3d
       -0.015444894 -0.02652828 0.04651721 0.03848486
000060 0a 83 f4 3c 74 2e a0 bc 0d e6 3d 3c fa aa 01 3d
       0.02984764 -0.0195534 0.011590493 0.031657197
000070 99 e0 97 3b ab c7 6a 3d 31 81 4a bc c3 76 64 3d
       0.0046349284 0.057319324 -0.012359903 0.055777323
000080 7f 17 4e 3d 5c a6 d5 bc 96 57 98 bb 24 37 c4 bc
       0.050315376 -0.026080303 -0.004649113 -0.023952074
000090 9e a7 0e 3d 9f 3a 57 bc 10 16 57 3d 5a ba c5 bc
       0.03482782 -0.013136535 0.052511275 -0.02413671
0000a0 b1 e6 e3 bc 26 06 45 bd e1 7b af 3b 4d 6c a2 bc
       -0.027819963 -0.048101567 0.0053553437 -0.019827032
0000b0 b6 1d 7c 3c b6 be b1 bc d6 94 1f bd 4b dd 37 bd
       0.015387943 -0.021697383 -0.0389603 -0.044888776
0000c0 74 b0 82 bb 0c 85 c0 3c 49 27 58 bd 7a e9 29 bd
       -0.00398832 0.023500942 -0.05277184 -0.041482426
0000d0 d8 14 4a 3d cd 3c 10 bc 5e a9 84 bc 1e 46 33 3d
       0.049336284 -0.008803559 -0.016194042 0.04376804
0000e0 e0 85 f1 bc ae 05 56 3d 92 a6 1a bd a7 59 de 3c
       -0.029482782 0.05225151 -0.03775651 0.027142359
0000f0 8d 58 d3 bc bf e2 ac bc 48 55 39 ba 5e e6 86 bc
       -0.02579906 -0.021104215 -0.0007069898 -0.01646727

2.1.weight f4 [64]
000000 0a 1a 7a 3f de 7f 7b 3f 1a 5a 79 3f 8a be 83 3f
       0.9769598 0.98241985 0.9740311 1.0292523
000010 12 c7 82 3f a1 fb 7b 3f 4a 7e 80 3f 0c 25 79 3f
       1.0217001 0.9843083 1.003854 0.97322154
000020 b2 93 7e 3f 22 cc 80 3f eb 80 82 3f e3 52 79 3f
       0.99444115 1.0062296 1.0195593 0.973921
000030 ed 65 80 3f 20 ee 7f 3f ca eb 7d 3f bf 87 83 3f
       1.0031105 0.99972725 0.9918791 1.0275801
000040 2e ac 78 3f e4 f3 7f 3f 9d f9 82 3f 2e 30 7d 3f
       0.97137725 0.9998152 1.0232426 0.9890164
000050 73 c9 80 3f d2 94 85 3f 65 97 7e 3f c6 bc 78 3f
       1.0061477 1.0436041 0.9944976 0.97163045
000060 4a 6c 81 3f cd 4a 7b 3f 5d 71 80 3f 0b 6f 80 3f
       1.0111172 0.9816101 1.0034596 1.0033888
000070 3f d9 7a 3f ac 4b 81 3f 4d 22 82 3f 81 39 80 3f
       0.9798774 1.0101218 1.0166718 1.0017549
000080 09 14 7d 3f 8f 27 7b 3f 74 3e 7b 3f 80 00 7e 3f
       0.98858696 0.98107237 0.9814217 0.9921951
000090 df b2 7c 3f 75 9f 78 3f ea aa 7f 3f a9 56 7f 3f
       0.98710436 0.9711831 0.9987017 0.9974161
0000a0 33 38 7b 3f 9a 2c 7b 3f be 2b 7f 3f ee fe 81 3f
       0.9813263 0.9811493 0.9967612 1.0155923
0000b0 45 b7 80 3f 45 7a 82 3f 1e 83 75 3f 17 0c 82 3f
       1.005593 1.0193564 0.95903194 1.015994
0000c0 26 6a 81 3f d4 69 7c 3f db 3d 7f 3f bf 8c 7f 3f
       1.0110519 0.9859898 0.9970376 0.99824136
0000d0 7c 08 7d 3f 05 9d 7e 3f 01 ab 84 3f 28 90 80 3f
       0.9884107 0.9945834 1.0364686 1.0043993
0000e0 a7 02 7b 3f 86 c4 80 3f 04 54 7d 3f 42 78 80 3f
       0.9805092 1.0059974 0.9895632 1.00367
0000f0 df e4 82 3f 35 81 85 3f ba 3c 83 3f 67 b0 7b 3f
       1.0226096 1.0430056 1.0252907 0.98316044

2.1.bias f4 [64]
000000 ae 6f 01 bd 46 a3 41 bd da a3 ca bc f8 5c 7b bd
       -0.031600647 -0.04727485 -0.024736334 -0.06136796
000010 24 1d ad bc b4 c1 3f 3c b9 ed 88 bc 1b ab 9a bc
       -0.02113206 0.011703897 -0.016714917 -0.018880418
000020 2a 63 e1 bc 3d b3 db bc 2d 95 81 bc b4 f1 90 bd
       -0.027513105 -0.026818866 -0.015818203 -0.07077351
000030 b6 13 18 bd a3 6b f3 bc 57 fa c2 bc 91 7f 7b bc
       -0.037128173 -0.029714411 -0.023801012 -0.015350238
000040 4a 49 75 bd 86 bd a4 bc 8b f2 76 bd ab bc d2 bc
       -0.059884347 -0.020109903 -0.0602899 -0.02572473
000050 97 f9 40 bd 69 dc 9f bc 1f f6 1e bd 61 02 62 bc
       -0.047113027 -0.01951428 -0.038808938 -0.0137945125
000060 d3 b4 c2 bc 55 ab b1 bc a1 69 46 bd 83 33 bc bc
       -0.023767864 -0.021688143 -0.04844058 -0.022973781
000070 f5 02 38 bd 16 a2 c0 bc 6b 1c 9a ba f4 99 1f bd
       -0.044924695 -0.023514789 -0.0011757737 -0.03896518
000080 14 79 b5 bc f7 2e 0e bd 60 a1 50 bd 1d c9 93 bc
       -0.022152461 -0.034712758 -0.05093515 -0.018040234
000090 f6 22 c2 bc 00 06 13 bc 3a 34 6b bd 01 ab fb bc
       -0.023698311 -0.0089735985 -0.057422854 -0.03072119
0000a0 7d 80 26 bd 79 a3 3b 3b 47 8a 25 bd 5a 2b 00 bd
       -0.04064988 0.0028631373 -0.040415075 -0.031291343
0000b0 a3 de 81 bd df cd 13 bd 4d 68 22 bd 10 0f dd bc
       -0.06341293 -0.036085006 -0.03965025 -0.026984721
0000c0 9e 43 d1 bc e5 e8 30 bc 34 85 27 bd ba b7 d2 bc
       -0.025544938 -0.010797714 -0.040898517 -0.025722373
0000d0 f3 d5 13 bd bc 7d db bc cf 6c 36 bd ae 6b 00 bd
       -0.03609271 -0.026793353 -0.04453736 -0.03135269
0000e0 bb 0c c6 bc 5d 8b 05 bd 8f 32 aa bc 43 02 5b bd
       -0.024175992 -0.03260361 -0.020776061 -0.053468954
0000f0 70 80 72 bc c0 ca a2 bc d0 ad b4 bc fe 03 1f bd
       -0.01480113 -0.01987207 -0.022055537 -0.038822167

2.1.running_mean f4 [64]
000000 d0 79 05 bf 50 94 e5 be 3c 74 b3 3d 92 47 ce be
       -0.52138996 -0.44839716 0.08762404 -0.4028898
000010 07 99 1d bf 96 4c 89 bf c9 47 4f be e5 a5 90 be
       -0.61561626 -1.0726497 -0.20242228 -0.28251567
000020 5a 13 9f bd 86 93 ad be 1b d2 28 bf c4 98 29 bf
       -0.07767363 -0.33901614 -0.65945596 -0.66248727
000030 83 97 91 3e 3d 96 29 be 6a 98 ea be 17 91 1a bf
       0.28435907 -0.16561218 -0.45819408 -0.6037764
000040 84 44 24 3d c2 8d 14 bf de 8b b5 be d6 a1 ed bf
       0.040104404 -0.58028805 -0.35458273 -1.8565013
000050 f3 eb f4 be 3a b4 bd bd ba bb e2 3a d8 a7 20 bf
       -0.47836265 -0.09262891 0.0017298379 -0.6275611
000060 60 0c 81 bf d3 fd 22 3e 98 bd b0 3d e1 7d d4 3e
       -1.0081902 0.15917139 0.08629912 0.41502288
000070 19 e0 09 be da c5 6c be b3 68 9d 3e 41 c5 b5 be
       -0.13464393 -0.2312235 0.30743942 -0.35502055
000080 91 65 30 3f 5d e9 a6 bf 93 3a 4f bf 09 69 22 bf
       0.6890498 -1.3039967 -0.8094875 -0.6344152
000090 a1 4f 15 3e 25 c6 bf bf 5c 15 cc 3e 53 5b ac be
       0.14581157 -1.4982344 0.39860046 -0.33663425
0000a0 ce ba 67 be 0f 78 5c bf 4c de 0a 3d 56 22 e6 3d
       -0.22629854 -0.86120695 0.033903405 0.11237018
0000b0 fb 8e 1c 3d a7 5f 7f be d9 92 b3 3e 73 f2 b6 be
       0.038222294 -0.24938832 0.35072973 -0.3573185
0000c0 16 5f e4 bd af 00 09 3f c1 9f 85 be 56 8e 72 be
       -0.11150949 0.5351667 -0.26098445 -0.2368711
0000d0 9a 06 75 bd 5b 32 2c 3e 4c 64 ac bd 7d 81 85 bf
       -0.05982075 0.16816084 -0.084175676 -1.0430142
0000e0 26 9c 26 3e fb a6 70 bb 7e fc 87 bf 16 cb 44 3e
       0.16270503 -0.0036720622 -1.062393 0.19218096
0000f0 54 05 6f bf eb 8c 3c bf 3a 06 89 bc 2c 3f b3 3e
       -0.93367505 -0.73652524 -0.016726602 0.35009134

2.1.running_var f4 [64]
000000 38 78 89 3e 09 22 07 3f 6a 4b 85 3e 95 80 25 3e
       0.26849532 0.5278631 0.260341 0.16162331
000010 34 f4 a5 3e ba bc c8 3e de be 0e 3e 58 5c 27 3f
       0.32412875 0.39206487 0.13939998 0.6537528
000020 c1 14 9a 3e 00 f2 37 3f 1c 9a ef 3d 09 01 9b 3e
       0.3009396 0.7185364 0.11699316 0.30274227
000030 33 b4 b3 3e de 53 c3 3e 10 56 ac 3e 26 ec 54 3e
       0.3509842 0.38149923 0.3365941 0.20793208
000040 a9 79 84 3e 10 b5 46 3e c8 cc 8d 3e 2c 12 92 3f
       0.2587407 0.19405007 0.27695298 1.1411796
000050 b9 5d 72 3e 90 c6 10 3e 10 12 58 3e e5 b8 00 3f
       0.23668565 0.14138246 0.2110064 0.50282127
000060 74 57 9c 3e 48 46 97 3e 84 40 80 3e e6 23 9b 3e
       0.3053547 0.29545808 0.25049222 0.30300826
000070 74 b3 89 3e 3f e8 89 3e d6 71 66 3e 17 f3 91 3e
       0.26894724 0.26935002 0.22504362 0.28505775
000080 ad 4f ec 3e 02 cc cd 3e 4f 9e 21 3f 2b 67 ac 3e
       0.46154538 0.40194708 0.63132185 0.3367246
000090 d5 0c b6 3e ae d3 ca 3f 36 59 3d 3e d2 e4 6d 3e
       0.35556665 1.584585 0.18491063 0.2323182
0000a0 e1 7c bc 3e f5 7b e7 3e a4 31 36 3e 03 57 59 3e
       0.36814025 0.4521176 0.17792374 0.21224599
0000b0 f8 ed ba 3e e3 8b 6b 3e d3 1f a0 3e dc d2 0c 3e
       0.3650968 0.23002581 0.3127428 0.13752311
0000c0 25 28 90 3e 36 96 aa 3e 87 94 c3 3e 34 0a a0 3e
       0.28155628 0.33317727 0.38199255 0.31257784
0000d0 dd fe 6a 3e 85 af 25 3e 50 e2 16 3e bb 7d 23 3f
       0.22948785 0.16180237 0.14734769 0.63863724
0000e0 11 b1 ef 3e c3 4b 3e 3e 83 07 4d 3f 1d 3d c6 3e
       0.46814778 0.18583588 0.80089587 0.387185
0000f0 95 89 9f 3e 4d d5 23 3e 96 68 6d 3e e9 b4 f0 3e
       0.31159654 0.15999337 0.23184428 0.47013023

3.0.weight f4 [64, 64, 3, 3]
000000 a7 d1 e8 bc 0e 53 88 bb 09 1f 55 bd 26 1c a1 3c
       -0.028420283 -0.0041602915 -0.05203155 0.019666743
000010 59 3c 10 bc 99 79 ac 3c 8e 41 0c bd d0 44 9b bc
       -0.0088034505 0.021054076 -0.034242205 -0.01895371
000020 91 03 2b 3d 10 52 04 bd 87 e8 a3 bc ac aa d3 bb
       0.041751448 -0.032304823 -0.020008339 -0.0064595547
000030 ac 7c 35 bd 72 e8 2c bc 91 f0 79 bc 0d 83 82 ba
       -0.04430835 -0.010553466 -0.015255109 -0.0009957269
000040 4a 8b 72 3c 74 10 83 3c 1d bc b9 bc 10 30 17 3d
       0.014803717 0.015999056 -0.022672707 0.03691107
000050 5c 6b 4f bd 99 f3 30 3c b5 ca b5 bb bb 02 03 3d
       -0.050639495 0.010800266 -0.005547846 0.031985026
000060 5d 0a 14 3d 84 68 fc bc 58 3a 22 bd 59 31 21 3c
       0.036142696 -0.030811556 -0.039606422 0.009838426
000070 d2 e2 50 3d 7d 44 fe 3b fa b5 eb 3b 3d f5 f9 bc
       0.050997563 0.0077596293 0.007193324 -0.030512447
000080 13 94 fe b9 d9 4c ac 3c 27 0c 39 bd 5e e7 14 3b
       -0.0004855698 0.021032738 -0.045177605 0.0022720913
000090 7a f9 af 3c 6f c4 b6 3b 19 0a 02 bd 34 38 7d 3c
       0.021481264 0.005577616 -0.03174791 0.015455294
0000a0 f3 86 b1 3c 48 13 5e 3d c4 d2 a4 3b f6 7b 3c bd
       0.021670794 0.054217607 0.005030008 -0.046016656
0000b0 88 fa df 3c 79 b9 10 bd d9 0b fa 3c c3 5e 86 bc
       0.027341142 -0.03533313 0.030523228 -0.016402608
0000c0 a3 e9 b2 bc c0 2a b8 3c aa f6 5e 3c 1c 40 aa 38
       -0.021839922 0.022481322 0.013608614 8.118173e-05
0000d0 af ad 93 3c b1 3b 77 3d 60 96 cb 3c 73 df 01 bd
       0.018027155 0.06035966 0.024851978 -0.03170724
0000e0 fa aa 28 bc ac ac 8c 3c f6 b2 af bb a9 f0 d1 bc
       -0.01029467 0.01717218 -0.00536191 -0.025627451
0000f0 98 81 e3 3c 60 6c 56 3c 9a 89 c8 3c 31 e6 66 bc
       0.027771756 0.013087362 0.024479676 -0.014092968
000100 53 6c 1b 3d 53 9c 91 bb d8 d5 96 bc 6e ae 92 3b
       0.037945103 -0.004443684 -0.018412516 0.00447636
000110 28 44 cc 3c 86 32 ad 3c da aa 00 3c ce f2 52 3b
       0.024934843 0.021142256 0.007853234 0.003218818
000120 d3 4a 21 bd 5c 6d c2 3c f2 7a c7 bc 62 a0 c6 bc
       -0.039378 0.023733787 -0.024350617 -0.024246398
000130 98 1f 11 3d d3 f8 4a 3c 0a 4d 5b bc d9 2b 23 bd
       0.03543052 0.012388426 -0.013385067 -0.03983674
000140 e7 36 93 3c f6 9e 68 39 44 40 6e 3c a4 12 1a 3d
       0.017970515 0.00022184462 0.014541689 0.037615433
000150 91 d4 32 3d 03 0d e8 bb a6 42 93 bc ad 4c 86 3b
       0.04365975 -0.0070816292 -0.017976116 0.004098496
000160 d6 62 bf bc d8 27 69 bd 1a 3e f6 3b 77 b6 b7 bc
       -0.023362558 -0.056922764 0.0075147273 -0.022425873
000170 6c ee 45 3c c2 82 56 bd 16 7e a5 bc 9e 8d 08 bd
       0.01208077 -0.052370794 -0.020201724 -0.03333818
000180 95 90 86 3c 6b e4 ff bc e3 70 45 3c 84 32 db bc
       0.016426364 -0.031236848 0.01205084 -0.026757486
000190 3f af 11 3d 55 2f 9d 3c 9a ec bb bc 4e 6e 82 bd
       0.03556752 0.019187609 -0.022939969 -0.06368695
0001a0 37 9f 20 3d e3 f3 39 bd 07 ce ad bc 8e f8 c1 3b
       0.03921434 -0.045398604 -0.021216406 0.0059195226
0001b0 a6 ca 59 3d 52 d9 5b bb 8d b4 9e 3c bb 7a 5b bc
       0.053171776 -0.003354628 0.019373203 -0.01339596
0001c0 a6 56 35 3b 07 c0 14 3d 4c a9 ac 3c ac 43 01 bd
       0.0027670055 0.036315944 0.02107682 -0.031558678
0001d0 9d 61 a8 3c aa e2 f5 3c 4b 6a be bc e0 ab cc bc
       0.020554358 0.030015308 -0.023244044 -0.0249843
0001e0 a8 6b 32 bd 50 39 58 3d 54 a2 b3 3c 7f ce 4c bd
       -0.0435597 0.052789032 0.02192799 -0.050001618
0001f0 06 77 0c bd 67 6e 78 3c 4c 17 a6 3c ef d4 83 bc
       -0.034293197 0.015163041 0.02027478 -0.016092746
000200 00 19 b5 bc 48 ce 05 3d e5 91 22 3d bb f3 f5 3b
       -0.022106647 0.03266743 0.039689917 0.0075058616
000210 fc 4d 54 bd 56 96 cf bc 5c af de bb 4b cc 7c bc
       -0.051832184 -0.02534024 -0.006795807 -0.015429567
000220 9b b5 ac bc d3 55 f7 bc f9 87 eb 3c 5b 0e 3f bd
       -0.02108269 -0.030192291 0.02875136 -0.04664455
000230 8d 7a c3 3c 32 64 b2 3c 13 53 5f 3d 44 34 24 3d
       0.023862148 0.021776292 0.054522585 0.040088907
000240 e4 21 6a 3c a8 90 d2 bc 2a 1c 21 bd 2b 83 79 3d
       0.014290307 -0.025703743 -0.0393335 0.060916107
000250 5b a0 34 3c 18 2c c9 bc 45 1d cc 3b 2d 9a 98 bc
       0.01102456 -0.024557158 0.006229075 -0.018628204
000260 75 6b 2d bd d6 8b e7 3c 3a 4b 80 3d 12 03 ff 3b
       -0.042338807 0.028264921 0.06264348 0.0077823484
000270 7f 54 0c 3c 4e 30 18 bb 21 4c 0d bd ab 04 a2 ba
       0.008565067 -0.0023222151 -0.03449643 -0.001236101
000280 54 6d b6 3c 31 37 cf bc cc bd 6e 3a c5 b3 17 3d
       0.022268929 -0.025294872 0.00091072614 0.037036676
000290 bf 9c ec 3b 11 8b 97 3c 78 dd cd 3a 62 9f 12 3c
       0.007220834 0.01849893 0.0015706262 0.008949133
0002a0 7c aa 11 3d 13 ed 23 bd e7 a1 38 bc 8e 3e ed 3c
       0.035562977 -0.040021013 -0.011269069 0.028960492
0002b0 71 73 51 bc c7 72 37 bc 49 2f 04 3b 1c 25 cb 3c
       -0.012783871 -0.011196799 0.0020169786 0.024797969
0002c0 e3 6b 04 bd fb c6 a6 3c 68 18 88 b9 93 95 82 3b
       -0.03232945 0.020358553 -0.00025958125 0.003985116
0002d0 74 d3 3b 3b ce f6 cb 3c 25 98 10 3d 5b 2b 3e bc
       0.0028659971 0.02489796 0.035301346 -0.011607016
0002e0 a2 61 3d bd f8 08 3c bc 01 95 43 bd 23 46 18 bd
       -0.046235688 -0.011476748 -0.047749523 -0.037176263
0002f0 c4 51 9d bc 93 98 9f 3b 6a 9f 67 3b 67 5f 58 bc
       -0.019204028 0.004870483 0.003534282 -0.013206339
000300 4e d1 38 3d 66 16 6c bd 50 fb 0f 3d 60 f0 08 bd
       0.045121484 -0.05763855 0.03515178 -0.033432364
000310 cf 4e d7 3c d0 0a bc bc f2 5e 03 3d d7 83 88 3c
       0.026282696 -0.022954375 0.03207297 0.016664429
000320 a9 14 b5 bc 8d 17 be bc 48 d8 a1 3b bb d0 e5 bc
       -0.022104578 -0.02320459 0.004939113 -0.028053632
000330 22 d3 83 bc a0 2e 02 bc c6 2b 55 bc 80 1f 9c bc
       -0.016091887 -0.007945687 -0.013010925 -0.01905799
000340 28 f5 98 3c 7d 63 a2 3c 62 da 56 bc 1a d9 5f 3c
       0.018671587 0.01982283 -0.01311359 0.013662601
000350 6e fe 13 3c 90 fb 1d 3d 60 35 89 bb da ce f6 3b
       0.009032829 0.038569987 -0.004187271 0.007531983
000360 86 b6 5e bd a3 55 3a bc b2 68 fe 3c 23 6b 18 bd
       -0.054373287 -0.011372956 0.031055782 -0.03721155
000370 e4 21 66 bd d2 6b 42 bd 23 de 46 bd db 05 ae bb
       -0.056184664 -0.047466107 -0.04855169 -0.0053107566
000380 be 04 c1 3b 66 fd 44 bc 34 ac 3b bc db dc d6 3b
       0.005890458 -0.0120233055 -0.011454631 0.0065570897
000390 45 86 07 bd 21 21 27 3d f9 09 de 3b ab 9a 7a bc
       -0.033087034 0.04080308 0.006776091 -0.015295665
0003a0 93 5a f5 3c a5 2a 12 3d 61 b9 a1 bc 59 42 5a bd
       0.029950416 0.0356852 -0.019741716 -0.05328593
0003b0 55 71 38 bd 93 4d 2c 3c 6e ee f5 3c 25 a3 36 bd
       -0.045029957 0.010516542 0.030020919 -0.04458918
0003c0 14 78 af 3c da 65 5b bc 5f 47 ac bc fa 84 28 3d
       0.021419562 -0.0133909825 -0.021030126 0.04114244
0003d0 3a af 95 bc 77 e2 2f 3c 93 0f 12 3c 77 fb 21 bc
       -0.018272031 0.010735146 0.008914846 -0.009886614
0003e0 f2 a6 f9 3c f3 c2 32 bc 4c fa 68 bc 65 0f 57 bc
       0.030475114 -0.010910737 -0.014219832 -0.013126229
0003f0 9b 56 ac bb d8 22 a0 bc ec 13 e1 bc c6 44 11 bc
       -0.0052593476 -0.019547865 -0.02747532 -0.0088664945

3.0.bias f4 [64]
000000 40 bb b8 bb ff 71 df bc ad 56 b8 bc 18 f3 d7 bc
       -0.0056375563 -0.027276037 -0.022502268 -0.026361033
000010 17 5a 4e 3c c5 d3 32 3d 72 dd ce 3b 29 07 15 bd
       0.012594721 0.04365899 0.0063130194 -0.03638378
000020 7d ee 82 3b 9c 87 19 3d a4 a0 5d 3c 7c aa aa bb
       0.003995715 0.037482843 0.013527069 -0.0052083116
000030 bc 45 71 bc 1f 15 12 bd 5f 28 dd bc f9 87 07 bd
       -0.014726099 -0.035664674 -0.02699679 -0.033088658
000040 6e 85 28 bd 81 54 e9 3c f1 ad 70 3b 7e ed 02 3c
       -0.041142873 0.028482677 0.003672477 0.007991193
000050 f7 80 49 3c 31 9a 45 3c 90 98 0c bd 6e 11 a0 3c
       0.012298814 0.012060688 -0.034325182 0.019539561
000060 bd da 2f 3c de 38 fc 3c 0a 47 8e 3c 15 90 6e 3c
       0.010733304 0.030788835 0.017367858 0.014560719
000070 13 db 1c bd 56 4f 99 3c 0e 92 38 bd f0 39 2d 3b
       -0.038294863 0.018714588 -0.045061164 0.0026432239
000080 82 ba 12 bd c5 60 bc bc 2c 46 c4 bc 68 1b a2 3c
       -0.0358224 -0.022995362 -0.023959242 0.019788459
000090 09 2b c2 bc 7e 37 a5 3c 88 a6 93 bc 87 9d 03 bd
       -0.023702161 0.020168062 -0.018023744 -0.03213265
0000a0 b0 db 25 bd 34 d4 d4 3c 19 74 a9 3c 6a 69 de bc
       -0.040492713 0.025980093 0.020685242 -0.027149875
0000b0 b1 a8 42 bc 3c 53 39 bc 96 51 03 3d 6d 05 2a 3d
       -0.0118810395 -0.0113113485 0.03206023 0.04150908
0000c0 eb d8 b1 bc 3e 95 a7 bc f8 a7 d8 bc b6 83 a2 3c
       -0.02170988 -0.020456906 -0.026447281 0.019838195
0000d0 4a 7d 21 3d b1 c6 aa bc 73 32 fe bc 2d 8e 59 bc
       0.039426126 -0.020846697 -0.031029915 -0.013278526
0000e0 e1 b0 d4 bc 65 43 0e 3d b9 bc aa bc 8f 9f 15 bb
       -0.025963249 0.03473224 -0.020841943 -0.00228307
0000f0 63 44 03 3d e7 7f 38 3b 62 d0 ce bc a0 7a 10 bc
       0.03204764 0.0028152408 -0.025245849 -0.008818299

3.1.weight f4 [64]
000000 b8 9a 81 3f 94 0a 80 3f 19 b0 7a 3f 9e 5c 7c 3f
       1.0125341 1.0003228 0.97924954 0.9857882
000010 d8 47 79 3f 56 4b 82 3f 3b 6a 7d 3f b7 40 82 3f
       0.9737525 1.0179241 0.9899022 1.0175999
000020 c3 d3 80 3f cc 9c 7d 3f 64 7b 82 3f 78 cc 7d 3f
       1.0064625 0.9906738 1.0193906 0.9914012
000030 d8 d8 7e 3f 50 96 76 3f 2e 52 7d 3f 9b be 7a 3f
       0.9954963 0.9632311 0.9895352 0.9794709
000040 08 c7 76 3f 19 61 7f 3f fc f2 7c 3f 37 f6 7d 3f
       0.9639745 0.99757534 0.98808265 0.9920382
000050 b3 ca 82 3f 93 91 77 3f d3 81 83 3f 07 91 81 3f
       1.0218109 0.96706504 1.0273994 1.0122384
000060 e1 f3 82 3f 24 3f 7b 3f a3 eb 81 3f e9 60 7d 3f
       1.0230676 0.9814322 1.0150036 0.98976
000070 1f 93 7d 3f 45 7e 81 3f 17 82 78 3f c1 fe 77 3f
       0.99052614 1.0116659 0.970735 0.968731
000080 af e5 7f 3f 9d a2 7c 3f 8a 2f 7e 3f 47 e3 73 3f
       0.99959844 0.9868563 0.9929129 0.9526867
000090 a9 56 84 3f 21 67 81 3f 73 d2 83 3f a4 89 84 3f
       1.0338947 1.0109597 1.0298599 1.0354505
0000a0 c0 c0 85 3f 7c 10 84 3f e2 c7 81 3f 6b 64 80 3f
       1.0449448 1.0317531 1.0139124 1.0030645
0000b0 40 6b 79 3f 46 a2 7c 3f 7d 16 79 3f c5 d0 80 3f
       0.97429276 0.9868511 0.9729994 1.0063711
0000c0 e7 8f 84 3f 17 9f 83 3f 63 2a 79 3f 28 ac 76 3f
       1.0356416 1.0282925 0.973303 0.9635644
0000d0 b5 b1 80 3f 63 3a 84 3f eb 31 7a 3f dc ae 84 3f
       1.0054232 1.0330318 0.9773242 1.0365863
0000e0 b0 50 80 3f 2f 0f 80 3f b5 b7 7a 3f 89 55 80 3f
       1.0024624 1.0004634 0.97936565 1.0026103
0000f0 a9 c5 7b 3f c6 ce 7f 3f bc 1b 7e 3f 2e b3 7d 3f
       0.9834848 0.99924886 0.9926107 0.9910153

3.1.bias f4 [64]
000000 cc d8 49 bd d9 61 8f bd 31 2e 42 bd 98 4e 8c bd
       -0.04927902 -0.07001085 -0.047407333 -0.06850928
000010 44 7f 5a bd 8e f4 ba bd c7 f5 34 bd 54 57 72 bd
       -0.053344026 -0.09128676 -0.044179704 -0.059165314
000020 78 3d c1 bd c8 db 19 bd a9 3d 1a bd b0 2f 08 bd
       -0.09435552 -0.037563115 -0.03765646 -0.033248603
000030 fc f4 8d bd 70 01 83 bd 02 18 a1 bd 93 06 5e bd
       -0.06931493 -0.063967586 -0.07865907 -0.05420549
000040 05 a1 48 bd cc 7b 7d bd e3 4b 5d bd e0 b0 f3 bc
       -0.048981685 -0.06188564 -0.05402745 -0.029747427
000050 13 d2 87 bd 1f 1f 30 bd 17 e9 57 bd fc 8c 30 bd
       -0.06631865 -0.04299843 -0.052712526 -0.043103203
000060 a2 dc 94 bd a2 2d 07 bd 80 ec 46 bd b1 d7 62 bd
       -0.07268645 -0.033002503 -0.048565388 -0.05538148
000070 4c b7 3e bd bb e5 38 bd 57 ff 73 bd 47 aa ff bc
       -0.046561524 -0.045140963 -0.059569683 -0.031209124
000080 78 27 4e bd 4f e9 4d bd f3 95 83 bd 41 52 86 bd
       -0.05033061 -0.05027133 -0.06425085 -0.065586574
000090 59 19 55 bd 42 9b 84 bd bb b6 78 bd 8f 57 28 bd
       -0.052026127 -0.064749256 -0.06072114 -0.041099127
0000a0 dc b1 9f bd fb 09 ef bc 53 3c 1c bd 24 60 3c bd
       -0.07797596 -0.029179564 -0.038143467 -0.045990124
0000b0 53 7c 16 bd 01 92 6d bd 20 74 4f bd f7 47 87 bd
       -0.03673966 -0.05800057 -0.050647855 -0.06605523
0000c0 3f e3 57 bd 95 1e 6a bd 60 54 26 bd c5 18 52 bd
       -0.052706953 -0.05715807 -0.04060781 -0.051293153
0000d0 6d 8c 99 bd 01 c5 7c bd cc ca 52 bd e1 3d 90 bd
       -0.07497487 -0.061711315 -0.051462933 -0.070430525
0000e0 4c 07 66 bd 98 cf 8f bd 20 89 f4 bc 18 02 4c bd
       -0.056159303 -0.07022017 -0.029850543 -0.049806684
0000f0 e5 93 7b bd 64 16 0b bd 06 e2 4b bd a1 f3 67 bd
       -0.06142034 -0.0339569 -0.0497761 -0.056628827

3.1.running_mean f4 [64]
000000 56 e1 1d bf c3 c9 5f be 0e 64 3c be 79 47 66 bf
       -0.6167196 -0.2185431 -0.18397543 -0.8995281
000010 d5 d2 dc 3e 1a 2f 98 be d8 b2 16 3e 6d ca 27 bf
       0.43129602 -0.29723436 0.14716661 -0.6554325
000020 08 ee 8b be 35 06 8f 3f 43 5b da be 70 66 9a be
       -0.2733004 1.1173769 -0.42647752 -0.3015628
000030 d2 86 52 be 04 56 95 be 2f 36 2b bf d0 2c 62 3f
       -0.20559242 -0.29167187 -0.6687955 0.8834963
000040 86 86 6e bf a1 3d 1e bf 19 d3 d0 bd 37 23 fb 3e
       -0.93174016 -0.6181279 -0.10196514 0.49050304
000050 07 d3 80 bf 9a 88 13 bf c9 39 3c bf bd 6d 81 be
       -1.00644 -0.5763031 -0.73525673 -0.25279036
000060 63 59 c1 be 63 e0 52 be f4 bd c4 be fb f4 32 bf
       -0.3776351 -0.20593409 -0.38426173 -0.6990506
000070 bc 78 b3 bf ae 9f c3 be c9 6d 31 3f 7c 3f a7 3e
       -1.402122 -0.38207763 0.69308144 0.32665622
000080 2b b2 d8 be 22 29 b7 be 58 83 a4 be 0e 1f aa bc
       -0.4232343 -0.3577357 -0.32131457 -0.020766761
000090 fb 00 34 be c5 d0 18 be e3 42 a1 bd 34 d7 27 bf
       -0.17578499 -0.1492339 -0.07874086 -0.6556275
0000a0 3d 46 05 bf 72 18 b4 be e3 79 fa be c6 5e 4b bf
       -0.520603 -0.351749 -0.48921117 -0.7944149
0000b0 42 1b 9c 3e 2b ac e2 3e c1 24 9f be f8 f8 52 bd
       0.30489546 0.4427198 -0.31082729 -0.051506966
0000c0 9f b4 15 bf bf dc 8d be 42 e3 09 3f 75 9e e0 3e
       -0.5847873 -0.27707478 0.5386239 0.43870893
0000d0 f6 ad b0 3c a4 a2 4e 3d 3e 1d 31 bd 87 5f 33 bf
       0.021567326 0.050448075 -0.04324078 -0.7006764
0000e0 9e 2e 29 bf 4a 65 a3 bd 56 3f 46 bd 2f 98 14 bf
       -0.6608676 -0.07978304 -0.048400246 -0.58044714
0000f0 a6 fc 2d bf d7 32 0c 3f 6c 62 2d 3d e1 8f 42 bf
       -0.67963636 0.54765075 0.04233019 -0.7600079

3.1.running_var f4 [64]
000000 4e 83 4d 3e 4e 19 2e 3e 00 67 d2 3e 30 8f 8c 3e
       0.2006962 0.1700184 0.41094208 0.27452993
000010 4e d4 95 3e 8b 19 54 3e 7c 66 9f 3e ba 16 ca 3e
       0.29263538 0.20712869 0.31132877 0.39470464
000020 c5 a0 5d 3e 44 94 ca 3e 86 1d e3 3e a0 32 c0 3e
       0.2164336 0.39566243 0.44358462 0.37538624
000030 fc 5a 42 3e 5d d0 a5 3e 37 cd bf 3e 9e 82 53 3f
       0.1898002 0.3238553 0.37461254 0.8262118
000040 2d da 1c 3f 51 c4 e8 3e 72 50 98 3e ff d0 08 3f
       0.6127041 0.45462278 0.29748875 0.534439
000050 8b c2 65 3e 3a c0 bc 3e ad 68 b6 3e 6c cd 0e 3e
       0.22437494 0.36865407 0.35626736 0.1394555
000060 d7 26 57 3e 71 62 d4 3e 95 6f d9 3e 94 e1 bb 3e
       0.2101091 0.41481355 0.42467943 0.3669554
000070 a2 5b d5 3e ef 19 85 3e 00 71 0e 3f 63 ac 3b 3f
       0.41671473 0.25996348 0.55641174 0.73309916
000080 28 99 58 3e 33 3c c2 3e 01 d3 f9 3e a8 61 90 3e
       0.21152174 0.37936553 0.48793796 0.28199506
000090 37 21 7f 3e d8 e8 8e 3e 98 29 73 3e 41 f1 72 3e
       0.24915014 0.2791202 0.23746336 0.23724844
0000a0 77 42 1f 3e d4 b0 82 3e 2b d6 77 3e bb 2c 5f 3e
       0.15552698 0.25525534 0.24202792 0.21794407
0000b0 c5 79 00 3f dc 6e 0d 3f 22 f6 e8 3e b1 cf 74 3e
       0.50185806 0.55247283 0.45500284 0.23907353
0000c0 03 a0 74 3e 49 d9 a5 3e f3 e1 c1 3e 6a 41 00 3f
       0.23889165 0.32392338 0.37867698 0.50099814
0000d0 92 7c 05 3f 41 1a 70 3e c1 b2 ec 3e d4 06 6f 3e
       0.52143204 0.23447515 0.46230128 0.23342448
0000e0 a9 48 c4 3e 49 e1 3f 3e e5 ec 14 3f 2b 38 9a 3e
       0.38336685 0.18738283 0.5817397 0.30120978
0000f0 48 60 d5 3e 74 59 b1 3e 1c 61 aa 3e 9d 70 6a 3e
       0.4167502 0.3463856 0.33277214 0.22894521
