pracs/prac5/model.pth (torch, 123646 bytes, 14 tensors)

0.weight f4 [128, 85]
000000 12 7a 8e bd 1e 7d f4 bd 73 91 ad 3d b8 65 32 3d
       -0.06956877 -0.11937927 0.08475008 0.043554038
000010 26 15 99 3c be 45 3e bd 74 34 49 3d 2a 9e 8d 3d
       0.018686842 -0.04645323 0.04912229 0.06914933
000020 dd d6 6f 3d c9 18 d4 b8 11 26 90 bd 6e 42 76 bd
       0.05855452 -0.00010113564 -0.070385106 -0.060121946
000030 ea f2 57 3c dd 73 04 bd 6c 81 08 be 3d b9 41 bd
       0.013180474 -0.03233706 -0.1333062 -0.047295798
000040 ae f4 f3 3d 0d e6 49 3d c8 ea 50 3d ae c5 1c ba
       0.11911903 0.04929166 0.051005155 -0.00059803843
000050 e2 24 d6 bb 4b 29 dc 3c 9f 0a e4 bc 77 a4 d8 bb
       -0.0065351585 0.026875159 -0.027837096 -0.0066114026
000060 b3 c7 7d 3b 39 5a 05 bc d1 0a 8f 3c 19 bd c7 bd
       0.0038723766 -0.008139187 0.017461212 -0.097528644
000070 22 13 b6 3c 7a 98 84 3d c9 bd 82 bc ca 86 4e bd
       0.02222592 0.06474395 -0.015959637 -0.050421514
000080 5a 29 26 bd 5e 30 4b 3b 13 90 31 3c 19 c0 23 bc
       -0.04056678 0.003100417 0.010837573 -0.00999453
000090 82 0f 10 3d 23 c4 30 3a 78 ad 19 bc b8 8c 2c 3a
       0.03517104 0.0006743094 -0.009379737 0.0006582248
0000a0 1c 80 17 3e fc 7c a0 bd ee 53 78 3d 3b 85 55 3d
       0.14794964 -0.07836339 0.060626917 0.05212901
0000b0 f0 b5 8e bd 60 92 3a bd 5a 34 5e bd e2 9a 40 bd
       -0.069682956 -0.04554975 -0.054249145 -0.047022708
0000c0 ed 76 96 bd 00 7b 87 bd 4a 20 3c 3d 0b 2d df bb
       -0.07346902 -0.06615257 0.04592923 -0.0068107895
0000d0 be 3d 75 3e b9 c4 b8 3c 88 d2 b7 3c 98 15 93 bd
       0.23949334 0.022554742 0.022439256 -0.07181853
0000e0 cb e9 f4 bb a1 db 77 3c 56 66 61 3d b5 2b 79 3b
       -0.0074741594 0.015128047 0.055029236 0.0038020436
0000f0 d0 ea 97 bd 8e f1 87 3c 83 58 cc 3b 29 b2 46 3d
       -0.07417834 0.016594674 0.0062361374 0.04850975
000100 4d 31 58 bd 53 1e 68 bd 00 72 83 3e bd 00 ae 3d
       -0.052781392 -0.056669544 0.25672913 0.084962346
000110 2e 84 09 bd 44 79 7f 3d 69 df 56 bc 30 7a fd bc
       -0.033573322 0.062371507 -0.013114789 -0.030942053
000120 3f 6a 2e 3d 98 5c 96 bd 04 4e d6 bb fc 6c f8 bb
       0.042581793 -0.073418796 -0.006540062 -0.0075813513
000130 c0 2e 1a ba 12 5f e7 3c 6c 10 25 3d 3e 6b af bc
       -0.00058816 0.028243575 0.040298864 -0.021413442
000140 5c ed 81 3d 30 d7 c8 ba b3 59 44 3d 6d b3 37 bd
       0.06344101 -0.001532292 0.047937106 -0.044848848
000150 c4 d0 22 3c 7b 12 44 be dd 84 c1 39 a7 97 28 bd
       0.009937469 -0.19147675 0.0003691082 -0.041160252
000160 90 47 3c be e4 ac b8 bc 9c 2f 63 3d 67 17 cd 3d
       -0.18386674 -0.022543378 0.055465326 0.10014229
000170 e5 18 87 bb 46 ef cb 3c fb f5 c1 3d 75 5f e0 bc
       -0.0041228407 0.024894368 0.09470745 -0.027389267
000180 1f e9 30 3c 80 1a 22 be 9f 93 3f 3b 3b 64 b8 bd
       0.010797768 -0.15830421 0.0029232276 -0.090034924
000190 f5 f1 6d 3d b0 ee ed 3d 59 92 83 3d 40 bf 05 be
       0.058092076 0.11617792 0.06424398 -0.13061237
0001a0 a8 b6 b6 3b c3 4c 3e bd f0 2c cf 3c 12 f9 12 3b
       0.0055759735 -0.046459924 0.025289983 0.002242629
0001b0 10 0f 89 bd 35 a3 0d bd 0a 17 9b 3d 0e 24 18 3e
       -0.06692326 -0.034579474 0.07572754 0.14857504
0001c0 01 37 81 3d 5e 65 94 bc a3 d9 b6 3b 21 91 e5 bd
       0.06309319 -0.018114742 0.0055801435 -0.11209322
0001d0 63 98 6e 3c aa 13 98 bc ff 79 90 3c e1 4d 11 bc
       0.014562699 -0.018564064 0.017636297 -0.008868665
0001e0 29 e9 e0 3c f4 8e 1d 3d 91 35 66 bd 24 3b d8 3b
       0.02745493 0.03846641 -0.05620343 0.006598847
0001f0 70 7e a6 3d 03 8c 19 be 9f 92 07 3d 06 5e 41 3d
       0.08129585 -0.14994816 0.033098813 0.04720881
000200 c9 95 d6 bd a5 6e dd 3c 89 5d a5 bc 21 2c 14 3d
       -0.10477788 0.027030298 -0.020186203 0.036174897
000210 86 3b c0 3d d4 64 f4 3a 77 a7 bc bb 43 b5 e5 bd
       0.09386353 0.0018645772 -0.005757268 -0.112162136
000220 84 e7 da 3c ae 98 99 3d 0c 25 38 3d 1c ca 63 3d
       0.026721723 0.074998245 0.044957206 0.05561267
000230 43 e3 52 3d 31 12 20 3c 5b 0e 62 3c f0 b7 30 3c
       0.051486265 0.009769962 0.013797368 0.010786042
000240 bf a0 91 bb 93 91 0b bd 16 9b 59 3d d2 a8 87 3d
       -0.0044442113 -0.034074377 0.053126417 0.06623997
000250 f7 5a 29 3c 0a 1c 08 bd be be d5 bc 19 5c b8 3d
       0.010336629 -0.033229865 -0.02609193 0.09001941
000260 83 f4 c5 3d 37 5d 28 bd 03 de f8 bd 59 9f bb 3d
       0.096657775 -0.04110452 -0.121517204 0.091612525
000270 73 d6 41 3d 49 f8 8b bc 36 ea 3e bd de 02 ba 3b
       0.047323655 -0.017086165 -0.04661008 0.0056766113
000280 e8 db 4c 3d 96 11 53 3d 1a 73 c1 bc 5a 4a 90 bd
       0.050014406 0.051530443 -0.023614455 -0.070454314
000290 43 29 cc bd 19 5b 74 bb f0 13 93 bd b1 9b ff 3c
       -0.099688075 -0.0037285744 -0.07181537 0.03120217
0002a0 83 d3 02 3d 51 9a 69 3d 40 ec fb bd 67 93 32 bd
       0.031939995 0.057031933 -0.123009205 -0.043597605
0002b0 80 36 b7 bd cd 55 03 be 0d 45 54 bd 54 7c 69 3d
       -0.08945942 -0.12825699 -0.051823664 0.057003334
0002c0 f8 d6 b7 b9 88 1a 4c 3d 3c 60 ab 3a b5 b4 e9 3d
       -0.00035064644 0.04982999 0.0013074945 0.1141142
0002d0 88 e9 8f bd 3f a2 a3 bd f5 db ab bc e8 0b a7 bd
       -0.070269644 -0.0798993 -0.020978907 -0.08156568
0002e0 40 03 4e 3d d0 9c d5 3d ff ff 8c 3c 39 83 c2 bd
       0.05029607 0.104303 0.017211912 -0.09497685
0002f0 13 86 3c 3d f7 3a 64 bd 88 37 fb 3c 44 23 16 3d
       0.0460263 -0.055720296 0.030666128 0.036654726
000300 25 b3 42 bb 8c ff 7d 3d 05 ba 1a 3c 65 62 11 bd
       -0.002970883 0.062011287 0.009443765 -0.035494227
000310 5f 90 d5 3d 1c ac a0 3d ef 36 b0 bd 05 a8 8a 3d
       0.10427927 0.07845327 -0.08604228 0.067703284
000320 bc 38 7a 3d 75 f5 73 bd 68 b0 11 3d 6a 62 4e 3c
       0.061089262 -0.059560258 0.035568625 0.012596706
000330 88 da d1 bc 36 2e e1 3c f7 98 78 3d 4f 2c ac bc
       -0.0256169 0.027487855 0.060692754 -0.021017222
000340 48 35 1d 3d 7a b4 5c bd d1 a0 0e 3e e0 2e 22 3d
       0.03838089 -0.053883053 0.13928534 0.039595485
000350 8a c6 5c 3d c2 66 02 bd 3e 17 82 bc fd 48 e9 3c
       0.05390028 -0.03183628 -0.015880223 0.028477186
000360 45 89 71 bd fb bd 75 3d f8 05 9d bd 6d 5d c6 3c
       -0.0589688 0.059995633 -0.07667154 0.02421447
000370 a5 27 ee bc 24 2d 15 3b ed ad 63 3d ae 7f ab 3d
       -0.029071638 0.0022762502 0.05558579 0.08373962
000380 6a 05 54 3d 04 18 15 3c 3b 4e 8e 39 7d 0a 84 3d
       0.051762976 0.009099964 0.00027142637 0.06447313
000390 1d 81 3a bc ea 9a c8 bc 8b 02 b3 bd 8b f9 81 bd
       -0.011383322 -0.024487931 -0.087407194 -0.06346425
0003a0 7e bf 01 3c 9a 1c 05 3c a8 03 75 3c d0 aa 87 bc
       0.00791919 0.008124495 0.014954485 -0.016560942
0003b0 f0 09 a2 be c0 96 38 bd 45 16 c1 3d 34 5f d4 3c
       -0.31648207 -0.04506564 0.09428076 0.025924303
0003c0 26 e9 78 3d 36 81 7f 3d e1 c8 bf bc 3a ae ec 3c
       0.060769223 0.062379085 -0.023411216 0.028891671
0003d0 56 79 66 bb e9 8d bc bd b7 e9 5c 3b d3 29 15 3d
       -0.0035167537 -0.09206755 0.003370864 0.03641684
0003e0 be 9c 51 bb 55 44 af bd 23 90 d5 3a d4 13 13 3e
       -0.0031984295 -0.08557955 0.0016293566 0.14363033
0003f0 9c 21 da 3c c8 16 12 3d 2a 62 56 3c 79 6e 72 3d
       0.026627354 0.035666257 0.013084928 0.059187386

0.bias f4 [128]
000000 4f cf 98 3d 74 ce 4c bd 46 91 b8 bc 38 29 c8 3d
       0.07461416 -0.050001577 -0.02253021 0.09773487
000010 a2 df f2 3c ff 57 cc 3c 97 fd 3b bb b1 40 3f bd
       0.029647652 0.024944304 -0.0028685087 -0.046692554
000020 7c 1d 02 bd 4a 70 d6 3c 8e 21 88 bd cc 61 54 bd
       -0.0317664 0.02617659 -0.06647025 -0.05185108
000030 b3 b4 40 3d 6e 7b 05 3d 3b 9a 9f bd 9b f5 1b 3d
       0.04704733 0.032588415 -0.07793089 0.038076025
000040 f6 50 7a 3d b6 38 63 bd 5c 68 59 3d ba d4 e1 3b
       0.061112367 -0.055474006 0.05307804 0.006891814
000050 29 ab cd 3d fc 7b 22 bd 0f 0d 91 bd b3 2b 99 bc
       0.10042412 -0.039669022 -0.07082569 -0.018697595
000060 1c 95 5b 3d be ed 66 bd 15 44 d2 3d a7 8a 2f bd
       0.053609 -0.056379072 0.10266892 -0.04285684
000070 b2 d7 69 bb d4 e5 a4 bc 32 ee 67 bc 03 74 9d 3d
       -0.0035681543 -0.020129122 -0.014155911 0.07688143
000080 80 f4 e5 3c d3 64 cb 3d 8f 10 d4 3c 4f 31 f3 bb
       0.028070688 0.0993134 0.025886802 -0.0074216495
000090 08 93 02 3d 65 d2 8b bd 8a 6b d0 3c 98 2e 95 3d
       0.0318785 -0.06827239 0.025441904 0.07284278
0000a0 b9 4d 87 3d de 32 20 3d d8 90 ef 3c 8d 3a 52 bd
       0.06606621 0.03911101 0.029243872 -0.05132537
0000b0 17 e9 a4 3d 58 d2 21 3b 75 05 b6 bd 7f e1 bb 3c
       0.08052271 0.0024692025 -0.088877596 0.022934673
0000c0 7d ed c7 bc c6 50 d9 3d b2 0d 54 bd fd 9b 98 3d
       -0.024405235 0.106111094 -0.051770873 0.074516274
0000d0 1c f0 3d 3d 89 e5 8e 3d 2f 15 1f 3d d7 b4 a6 bd
       0.046371564 0.06977374 0.03883856 -0.08139961
0000e0 c0 e9 ce 3d 62 47 69 3c 04 ea 96 3d 7d a4 03 bd
       0.10103178 0.01423821 0.07368854 -0.03213929
0000f0 0e ab d7 bd 50 b1 d1 3d a9 b3 59 3d 83 a0 66 3d
       -0.10530673 0.10238898 0.053149853 0.05630542
000100 ab 6b c4 3c a7 69 d8 3c 74 2b 2e 3b 24 34 4b 3c
       0.023977121 0.026417566 0.0026576193 0.012402568
000110 62 d7 b6 bc 26 ed 8c bd fe 3d 41 b7 16 67 6f bd
       -0.0223195 -0.0688117 -1.151813e-05 -0.05844792
000120 3b 77 d6 bd 93 83 ce 3d 31 4f b4 3d d7 6f 1b bd
       -0.1047196 0.100836895 0.08804167 -0.037948456
000130 56 a9 aa bc cf 32 ba bc bb 0f ad 3d 5d e3 93 3d
       -0.020832699 -0.022729306 0.08450266 0.072211005
000140 a6 28 44 bd 3a 5c 77 3c eb 4b cd 3d fb d2 8e 3c
       -0.047890328 0.015097672 0.10024246 0.017434588
000150 1b be e1 ba b0 d9 af bd 2c 25 18 bd c8 fe 05 bd
       -0.0017222794 -0.085864425 -0.037144825 -0.03271368
000160 21 a5 14 3c 87 dd dc bd 01 92 98 bc f4 80 9d bd
       0.009072573 -0.107844405 -0.018624308 -0.076906115
000170 c0 03 8d 3c 81 be 63 3c 4b ce a6 b9 d0 64 1a bd
       0.017213702 0.0139004 -0.00031815688 -0.0376938
000180 c0 da 64 bd a1 5d 0d 3d d5 b2 1e bd d0 45 aa bd
       -0.05587268 0.03451312 -0.038744766 -0.08314097
000190 1c f4 9d bc 1c 1d 9b 3d 74 d4 95 3b 5a 7d 3d 3d
       -0.01928144 0.075739115 0.0045724455 0.046262123
0001a0 e4 7b af bd fe ab 55 3d d0 09 90 bc 66 76 99 bd
       -0.08568552 0.052165978 -0.017582804 -0.07493286
0001b0 28 a1 4f 3d 2c 26 6d 3d d6 3e d1 bd e3 66 b9 3d
       0.0506908 0.05789773 -0.10217063 0.09052827
0001c0 21 b3 79 3d e0 05 4f 3d f7 32 03 bd ef 51 bd 3d
       0.060961846 0.050542712 -0.032031026 0.09244143
0001d0 d3 02 dc 3c 16 4b 69 3d 58 44 60 3d ee a9 8f bd
       0.026856815 0.056956373 0.054752678 -0.070148334
0001e0 1f 2b 7d 3d 8e 98 7b bd a1 2c e5 bb f1 bd 96 3d
       0.0618087 -0.061424784 -0.0069938456 0.07360447
0001f0 52 ea cd 3d 13 5e 4d 3d 9b d1 99 bd 90 80 62 3d
       0.10054459 0.050138544 -0.07510682 0.055298388

1.weight f4 [128]
000000 31 f7 78 3f 1a 27 7f 3f 50 2e 82 3f c9 af 81 3f
       0.97252184 0.9966904 1.0170383 1.013177
000010 7e 67 7d 3f 1c 09 7e 3f 3c e1 79 3f 80 f3 7d 3f
       0.9898604 0.9923265 0.97609305 0.99199677
000020 4c a5 82 3f 32 1b 7b 3f ab ba 7a 3f 9b 0e 76 3f
       1.0206695 0.9808837 0.9794108 0.96116036
000030 0b d8 75 3f fd 79 7f 3f f1 a8 78 3f 31 d3 7d 3f
       0.9603278 0.99795514 0.97132784 0.9915038
000040 a7 8f 76 3f 8a 2d 7b 3f f3 af 7a 3f 72 70 7f 3f
       0.96312946 0.9811636 0.9792473 0.9978095
000050 31 3b 75 3f 2d 08 79 3f 64 0b 7a 3f 3f f5 78 3f
       0.95793444 0.972781 0.9767363 0.97249216
000060 49 0b 7e 3f da 92 76 3f 58 9d 7b 3f 47 e7 82 3f
       0.9923597 0.9631783 0.9828696 1.022683
000070 d8 81 80 3f 4d 39 84 3f 9b 7a 72 3f 0f ad 78 3f
       1.0039625 1.0329987 0.9471833 0.97139066
000080 89 0d 7c 3f 84 49 7d 3f 45 aa 7c 3f 7f 20 78 3f
       0.98458153 0.989403 0.9869731 0.96924585
000090 cf 16 81 3f e8 a9 80 3f 9c 85 7e 3f 0e 14 80 3f
       1.0085086 1.0051851 0.9942262 1.000612
0000a0 53 34 82 3f a2 67 79 3f 7a dd 89 3f 2e 81 7d 3f
       1.0172218 0.97423756 1.0770714 0.9902524
0000b0 a6 07 80 3f f9 c1 75 3f 88 dc 73 3f a4 2c 7c 3f
       1.0002334 0.95999104 0.9525838 0.98505616
0000c0 9a f2 79 3f 4f 66 7b 3f 44 ad 7e 3f ef b8 71 3f
       0.97635806 0.98202986 0.9948313 0.9442281
0000d0 09 3d 7d 3f 5b b2 7e 3f df 03 7e 3f e5 ac 7b 3f
       0.9892126 0.994909 0.99224657 0.9831069
0000e0 23 17 7f 3f 36 84 75 3f 99 dc 78 3f 93 cf 81 3f
       0.9964468 0.9590486 0.97211605 1.0141472
0000f0 74 45 82 3f ba 0c 6e 3f 84 fb 7b 3f a5 80 7c 3f
       1.0177445 0.9298817 0.9843066 0.98633796
000100 5f 2e 7a 3f e4 85 77 3f cb 63 82 3f b8 ce 80 3f
       0.97727007 0.96688676 1.0186704 1.0063086
000110 99 b8 80 3f 9c cd 82 3f e1 6b 81 3f ce 31 76 3f
       1.0056335 1.0218997 1.0111047 0.96169746
000120 0d ca 79 3f 87 8a 79 3f 11 0d 87 3f 98 9a 7a 3f
       0.9757393 0.97477 1.0550863 0.9789214
000130 df 14 75 3f 26 22 80 3f 1c a2 7e 3f f5 fa 82 3f
       0.9573497 1.0010421 0.9946611 1.0232836
000140 25 66 7c 3f 88 b3 7d 3f 77 e1 79 3f 60 13 81 3f
       0.9859336 0.9910207 0.9760966 1.0084038
000150 7d 53 7e 3f 48 f7 7d 3f bf 45 80 3f 54 3b 80 3f
       0.99346143 0.99205446 1.0021285 1.0018106
000160 d8 a9 7b 3f 4f 65 81 3f 66 82 79 3f 11 4c 80 3f
       0.98306036 1.0109042 0.974646 1.0023214
000170 28 3a 7c 3f 6a b9 81 3f d6 fd 7c 3f d3 3b 75 3f
       0.9852624 1.0134709 0.9882482 0.9579441
000180 f6 00 7e 3f f0 8c 7b 3f df be 7f 3f 4c 1d 7a 3f
       0.99220216 0.9826193 0.9990062 0.97700953
000190 0e aa 82 3f 04 53 82 3f 12 8f 7f 3f ef ff 74 3f
       1.0208147 1.0181584 0.9982768 0.95703024
0001a0 77 c7 81 3f a9 b1 7f 3f eb 80 7b 3f 2e e7 78 3f
       1.0138997 0.9988046 0.9824359 0.9722775
0001b0 b6 7a 80 3f a4 9a 7d 3f 83 ef 7c 3f 08 b0 7f 3f
       1.0037448 0.9906409 0.98802966 0.9987798
0001c0 2c 96 70 3f ed b7 76 3f 3a e6 7f 3f 32 5e 74 3f
       0.93979144 0.963744 0.9996067 0.9545623
0001d0 ef 5a 80 3f 04 01 77 3f 98 ce 80 3f f7 f2 74 3f
       1.0027751 0.96485925 1.0063047 0.95683235
0001e0 94 6a 81 3f b9 d3 81 3f e2 49 75 3f 1d fc 7a 3f
       1.011065 1.0142738 0.9581586 0.98040944
0001f0 7b 92 7d 3f 0d 5a 85 3f a6 fa 83 3f e3 35 7d 3f
       0.99051636 1.0418106 1.0310867 0.9891035

1.bias f4 [128]
000000 59 c2 18 be 8d c0 1f be b0 45 0f be 40 c0 20 be
       -0.14917888 -0.15600796 -0.13991427 -0.15698338
000010 c5 01 00 be c4 49 21 be 57 f1 9c bd b2 41 3b be
       -0.12500675 -0.15750796 -0.076632194 -0.1828678
000020 5f e5 81 bd 2a 51 c5 bd 5d 0c c0 bd b5 ad 13 be
       -0.06342577 -0.096346214 -0.09377358 -0.14421733
000030 ab 40 ac bd a3 7a 0c be 5b f8 04 be bf d2 02 be
       -0.08410772 -0.13718657 -0.12985365 -0.12775706
000040 6f 5b 33 be 8f 6a 07 be 56 ff 84 be 3f 8a d5 bd
       -0.17515348 -0.13224243 -0.25976056 -0.10426759
000050 07 8a 10 be 0b 8a 0a be bb 8d 01 be 14 17 3d bd
       -0.14115153 -0.13529222 -0.12651722 -0.046164587
000060 ff 12 08 be a4 39 14 bd 9e 00 92 bd 1f ea 1d be
       -0.13288496 -0.036187783 -0.07129024 -0.15421341
000070 1f db d0 bd 9f f5 f4 bd a6 4f 24 be 7d 49 2b be
       -0.10198044 -0.11960911 -0.16046008 -0.16727252
000080 af 9b 52 be 89 63 12 be 50 41 08 be 2e 82 50 be
       -0.20567201 -0.14295782 -0.13306165 -0.2036216
000090 49 04 d3 bd f5 49 0a be 6c 82 14 be 31 1a f7 bd
       -0.10303552 -0.13504775 -0.14502877 -0.120655425
0000a0 fd 72 c7 bd a7 01 ca bd 5c 56 f0 bd 67 85 55 be
       -0.09738729 -0.098635964 -0.11735222 -0.2085167
0000b0 c8 06 b1 bd 58 d3 04 be 5a 48 ae bd 51 e0 27 bd
       -0.086438715 -0.12971246 -0.08509894 -0.04098541
0000c0 6a b6 ff bd 2b bc 0d be ff bb 15 be 36 b3 d6 bd
       -0.124859646 -0.13841312 -0.14622496 -0.104834005
0000d0 96 cc 1e be f8 65 08 be 8a ad eb bd ca 8f 21 be
       -0.15507731 -0.13320148 -0.11507709 -0.15777507
0000e0 04 73 01 be 88 5a e8 bd c4 9c b9 bd a4 68 14 be
       -0.12641531 -0.113453925 -0.09063104 -0.14493042
0000f0 8a 0a f1 bc f4 09 58 be c9 65 20 be b9 6b 43 be
       -0.02942397 -0.21097547 -0.15663828 -0.19084062
000100 be 98 0c be 58 c2 43 be 8c 80 ba bd 97 4a 5b be
       -0.13730142 -0.19117105 -0.091065496 -0.21415173
000110 d3 fd c7 bd bd f7 84 be d7 57 6a be f8 62 c2 bd
       -0.0976521 -0.2597026 -0.2288507 -0.09491533
000120 e3 cb 9d bd f8 63 1c be 92 38 b4 bd 12 c8 90 be
       -0.07704904 -0.1527251 -0.087998524 -0.28277642
000130 5d d4 b2 bd 42 ff 23 be 43 ed 20 be 33 b8 fa bd
       -0.08731911 -0.16015342 -0.15715508 -0.122421645
000140 49 e8 fb bd e2 1f 47 be 5b 8c 81 be 9c e6 93 bd
       -0.12300164 -0.19445756 -0.25302395 -0.072217196
000150 4c 72 8b be a3 b9 42 be b0 ef 14 be c3 0c d9 bd
       -0.2723564 -0.19016127 -0.14544559 -0.10598137
000160 4c 26 58 be 31 db 02 be 6a 58 03 be bb bd ec bd
       -0.21108359 -0.12778927 -0.12826696 -0.11559626
000170 54 5b a7 bd ab 3b 26 be 18 54 db bd c3 22 de bd
       -0.08171716 -0.16233699 -0.10709399 -0.10846474
000180 8f 7d 95 bd 45 39 63 be c4 23 f9 bd e7 7a 3a be
       -0.07299339 -0.22189815 -0.12165025 -0.18210946
000190 cc 9e cd bd 79 f1 2c be 2c 36 27 be 5e c0 a1 bd
       -0.10040054 -0.1688899 -0.16329259 -0.07898019
0001a0 59 10 af bd 88 9b e1 bd 55 2f c9 bd 0c f2 18 bd
       -0.0854804 -0.11015993 -0.09823481 -0.03734021
0001b0 cc fd 1a be 26 40 02 be de 5d 8a bd d4 78 60 be
       -0.15135878 -0.12719783 -0.06756185 -0.21921092
0001c0 0a 8d 1a be 6e 82 15 be 62 01 3a be a0 d3 09 be
       -0.15092865 -0.14600536 -0.1816459 -0.13459635
0001d0 0a 2b 4c be 33 7f 07 be 20 11 b4 bd e4 9c 6e be
       -0.19938293 -0.13232116 -0.08792329 -0.23302037
0001e0 b3 32 86 bd 79 20 26 be 04 fa 0f be 0e 65 b5 bd
       -0.06552639 -0.16223325 -0.14060217 -0.08857165
0001f0 04 23 32 be f6 e5 df bd b3 d8 2c be 49 3a 58 bd
       -0.1739617 -0.109325334 -0.16879539 -0.05278996

1.running_mean f4 [128]
000000 d1 10 9b 3d 9e 20 54 bd 46 e0 e4 bc fe 8a c3 3d
       0.07571567 -0.05178892 -0.027938973 0.09547995
000010 50 10 ce 3c d7 5d b5 3c b3 c2 cc b9 63 38 53 bd
       0.025154263 0.022139473 -0.00039054974 -0.051567446
000020 c8 fe f4 bc a4 9b b8 3c 44 66 87 bd 1b 77 4c bd
       -0.029906645 0.022535153 -0.066113025 -0.049918275
000030 61 bf 46 3d 59 98 01 3d 85 4c 9b bd 65 0d 25 3d
       0.048522357 0.03163943 -0.07582954 0.040295977
000040 f9 5a 5e 3d 16 44 4c bd 4a d9 51 3d 0f 0b ba 3b
       0.054285977 -0.04986962 0.051232614 0.005677588
000050 78 6a c5 3d 2e d8 13 bd a0 40 99 bd 1a 37 a3 bc
       0.09639448 -0.036094837 -0.07483029 -0.019923735
000060 b0 38 69 3d e0 07 5c bd 4d f0 e5 3d 70 27 34 bd
       0.056938827 -0.053718448 0.11227474 -0.043982923
000070 7a 47 b4 bb 25 c2 a2 bc 2e 64 9d bc d5 6f 99 3d
       -0.0055016847 -0.019867966 -0.019212808 0.074920334
000080 ee 77 fb 3c a4 f8 c7 3d 9c c3 e7 3c 35 51 77 bb
       0.030696835 0.09764221 0.028291516 -0.0037737612
000090 51 82 01 3d 4b 1f 90 bd e3 74 f9 3c a3 c6 96 3d
       0.03161842 -0.07037219 0.030451244 0.07362106
0000a0 69 4a 7f 3d bf bf 26 3d 66 08 e6 3c c5 c0 5e bd
       0.062326822 0.040710207 0.028080177 -0.054383058
0000b0 84 3a a7 3d bf be 53 3a 4b d6 bf bd 54 3d da 3c
       0.08165458 0.00080774346 -0.09367045 0.026640572
0000c0 c8 4d a2 bc b5 55 d3 3d b8 25 62 bd 40 e9 a2 3d
       -0.01981248 0.10319082 -0.055211753 0.07954645
0000d0 17 d4 39 3d dd ab 93 3d 61 df 1b 3d 08 7e a6 bd
       0.04536828 0.07210515 0.038054828 -0.08129507
0000e0 df 06 d1 3d 05 b7 4e 3c d4 b0 99 3d 22 6b f1 bc
       0.10206389 0.012616877 0.075044304 -0.02947003
0000f0 6e 8c cc bd c7 bf c9 3d f4 91 56 3d 96 73 73 3d
       -0.09987722 0.09851032 0.052385285 0.059436403
000100 e2 df cc 3c 97 d6 b2 3c 42 b8 42 bb e2 50 8a 3c
       0.0250091 0.02183084 -0.0029711877 0.016884271
000110 3d 76 b9 bc 38 ea 86 bd c8 dd ce bb fa 16 83 bd
       -0.022639388 -0.065876424 -0.0063130595 -0.06400867
000120 41 62 da bd b3 be bf 3d 7e 4e b2 3d 23 9e 23 bd
       -0.10663272 0.09362545 0.087063774 -0.039945733
000130 61 a5 c1 bc 3b a2 b1 bc 0c d5 ae 3d f1 e1 8e 3d
       -0.02363843 -0.021683803 0.08536729 0.06976689
000140 65 e9 35 bd 4f 4a 41 3c 33 d6 ce 3d 4f c6 83 3c
       -0.044412035 0.011797502 0.10099449 0.016085772
000150 5a fe 2a bb 31 71 b7 bd 74 92 00 bd cd 40 05 bd
       -0.0026091547 -0.089571364 -0.03138967 -0.032532502
000160 27 5a 3e 3c 63 8a de bd b8 c3 a3 bc a7 29 9e bd
       0.011618174 -0.10866239 -0.019990787 -0.07722788
000170 49 02 6c 3c cd fc a1 3b 54 b1 97 ba f0 b2 3c bd
       0.014404842 0.0049434663 -0.0011573234 -0.046069086
000180 fc 7e 50 bd 78 c7 0a 3d 4f 9e 15 bd df 86 aa bd
       -0.05090235 0.033881634 -0.036527928 -0.08326506
000190 0d 4e 48 bc 79 2c a3 3d dd d8 5b 3b d0 b8 2f 3d
       -0.01222564 0.07967467 0.0033546009 0.04290086
0001a0 9f 1c be bd 35 63 60 3d 19 24 49 bc c7 98 91 bd
       -0.09282803 0.05478211 -0.012276673 -0.07109218
0001b0 d6 c5 68 3d 45 dd 55 3d 06 04 d1 bd 42 be b6 3d
       0.056829296 0.052212972 -0.102058455 0.089230075
0001c0 aa a3 7f 3d b5 b7 3f 3d 5f cc db bc 41 e6 bf 3d
       0.06241194 0.046806056 -0.02683085 0.09370089
0001d0 4e a7 bc 3c e3 0d 7e 3d 79 c3 59 3d d0 c5 97 bd
       0.023028996 0.062024962 0.053164933 -0.074107766
0001e0 f6 58 73 3d 78 9c 73 bd 93 ef 43 bc 83 a9 95 3d
       0.05941101 -0.059475392 -0.011958974 0.073077224
0001f0 f0 0c c3 3d c5 33 4b 3d 4d cf 95 bd c2 c2 6b 3d
       0.09523952 0.04960992 -0.0731493 0.057558782

1.running_var f4 [128]
000000 a2 34 39 3e a1 cd 71 3e ad f6 71 3e 0b da 39 3e
       0.18086484 0.23613597 0.23629256 0.18149583
000010 0e c8 44 3e 39 57 dd 3e b4 9a c8 3e 34 95 20 3e
       0.1921694 0.43230608 0.3918053 0.15681916
000020 0e 00 63 3e 45 ee ec 3e 4e e0 86 3e 39 2c 55 3e
       0.2216799 0.46275535 0.26343006 0.20817651
000030 8f d2 86 3e 06 fa 26 3e a6 34 29 3e b2 b5 80 3e
       0.26332518 0.16306314 0.1652399 0.25138623
000040 d7 df 84 3e be b0 9d 3e 10 1c 4c 3e 2e a4 d4 3e
       0.25952026 0.30798906 0.1993258 0.4153151
000050 31 9f 9b 3e bf d5 68 3e 94 5a 91 3e c1 39 e9 3e
       0.3039489 0.22737788 0.28389418 0.45551875
000060 13 be 7f 3e 92 58 18 3f 61 8f c0 3e d4 3c 78 3e
       0.24974851 0.5951015 0.3760939 0.24241954
000070 e4 da b5 3e fc 97 fa 3d 46 ee a6 3e e8 b0 5a 3e
       0.35518563 0.1223602 0.32603663 0.21356547
000080 48 49 a3 3e ad 64 6c 3e 69 10 92 3e 9c 52 41 3e
       0.31891847 0.2308528 0.28528145 0.18879169
000090 1a f9 8f 3e 9b a4 f7 3e d1 d8 81 3e 05 56 52 3e
       0.28119737 0.48367772 0.2536073 0.20540626
0000a0 9b 73 ea 3e 72 ba d5 3e 31 63 32 3e db ea 27 3e
       0.45791325 0.4174381 0.17420651 0.16398184
0000b0 c3 fb 56 3e a6 3c 98 3e a4 6c b2 3e a2 88 82 3e
       0.20994477 0.2973377 0.3484851 0.25494868
0000c0 e2 92 a1 3e 40 8d 80 3e b1 a4 01 3e b9 98 ab 3e
       0.31557375 0.25107765 0.12660481 0.33514956
0000d0 23 3f 13 3e eb 77 1d 3e a1 06 16 3e 2e b4 6e 3e
       0.14379553 0.15377776 0.14650966 0.2331092
0000e0 1a aa 54 3e 37 bf 65 3e fe 03 8d 3e 02 c5 2b 3e
       0.20768014 0.22436224 0.27542108 0.16774371
0000f0 94 37 fc 3e 34 bc 1d 3f 2e 26 3b 3e 1f ea 38 3e
       0.49261153 0.616153 0.18276283 0.1805806
000100 0a 25 93 3e 14 80 80 3e 45 47 95 3e 82 13 40 3e
       0.28739196 0.25097716 0.29155937 0.18757442
000110 9e 0f 4c 3e d9 53 32 3e c3 68 7d 3e 73 2f c4 3e
       0.19927832 0.17414798 0.24746995 0.3831745
000120 08 d0 58 3e 98 e2 de 3e 9c 51 92 3e c4 f4 fd 3d
       0.21173108 0.43532252 0.28577888 0.12400201
000130 f6 6d e5 3e 37 0b 68 3e cf a0 27 3e 0b b9 a5 3e
       0.44810456 0.22660528 0.16369937 0.3236774
000140 87 82 b0 3e f2 02 6f 3e 3d 25 1f 3e af 7b 1e 3e
       0.34474584 0.23340967 0.15541549 0.15476869
000150 bf 71 ee 3d 8d 97 13 3e 11 78 79 3e 7e a6 53 3e
       0.11642789 0.14413281 0.24362208 0.2066898
000160 f1 66 05 3e 96 a2 f9 3d 00 cc fc 3e 9a 5c 06 3e
       0.1302755 0.12189214 0.4937439 0.13121262
000170 71 38 6b 3e 7e 13 5a 3e fb 6d d0 3e ec 2c e4 3e
       0.2297075 0.21296498 0.40708908 0.44565523
000180 26 b5 d7 3e 60 87 59 3e ac c5 72 3e de de 29 3e
       0.42130393 0.21243048 0.23708218 0.16588923
000190 13 f5 e9 3e 4d b8 20 3e 76 8a 84 3e 65 76 bb 3e
       0.4569479 0.15695305 0.25886887 0.36613765
0001a0 d9 88 ce 3e a4 a5 43 3e c6 ec ba 3e 9a db af 3e
       0.4033878 0.19106156 0.3650877 0.3434723
0001b0 7c 2a d4 3e f4 3d 47 3e 26 9f 75 3e a4 13 79 3e
       0.41438663 0.19457227 0.23986492 0.24323899
0001c0 95 25 41 3e 1e de 13 3e 88 b0 3b 3e e7 07 3f 3e
       0.18861993 0.144402 0.1832906 0.18655358
0001d0 c8 e0 47 3e cd ca a6 3e f2 e7 a5 3e bb cb 3f 3e
       0.19519341 0.325766 0.32403523 0.18730061
0001e0 61 45 64 3e de c7 0a 3e 31 bc 83 3e a7 70 1b 3e
       0.22292091 0.13552806 0.25729516 0.15179692
0001f0 9e 71 51 3e 43 a9 18 3e c3 83 48 3e e7 b8 76 3e
       0.20453498 0.14908318 0.19581513 0.24093972

4.weight f4 [128, 128]
000000 f0 66 a7 bd d8 d9 b8 3c 81 1c b9 bd 6f 05 6c bd
       -0.08173931 0.022564813 -0.0903864 -0.05762237
000010 d0 f3 42 3d 08 0a 72 bd 8f 21 fd bc 9b a9 a7 3b
       0.0475958 -0.059091598 -0.030899791 0.005116654
000020 82 7f 5c bd 89 62 b9 bc 15 c1 53 3d 9a fd 45 bc
       -0.05383254 -0.022629993 0.05169781 -0.012084389
000030 64 54 4b 3d e6 a9 9c 3c a6 8b 85 3d cf ad f2 3c
       0.049641028 0.019123983 0.065207765 0.029623894
000040 f3 36 8b bd 63 bd 23 bd db f6 9c 3d 71 5c 4b bd
       -0.0679759 -0.039975535 0.076642714 -0.049648706
000050 5c 47 f6 3c b6 a3 0e 3d 7c b6 c1 bb 73 44 c0 3c
       0.030063324 0.034824096 -0.0059116464 0.02347014
000060 8f d3 2e 3d 00 7a 8d bd 9a c1 ed 3c d8 92 97 bb
       0.042682227 -0.06908035 0.02902298 -0.0046256594
000070 3b 2a 21 3d 2f 2b 89 3b 69 49 87 ba d0 01 ac 3b
       0.039346915 0.004186056 -0.001032156 0.0052492395
000080 51 ea ab bd c9 8c de 3c 42 c2 22 3d c2 e3 21 bd
       -0.08394302 0.027166741 0.03973604 -0.039523847
000090 6e 3d 0f 3d 55 b0 05 bd b9 55 a4 3c 02 2a 71 3c
       0.034970693 -0.032638866 0.020060407 0.014719488
0000a0 c7 de 1d 3c b1 ce 65 3a 97 ee ac bb af fd a6 bd
       0.009635634 0.0008766456 -0.0052774656 -0.08153855
0000b0 07 bb 98 bd 1a 5f 85 3c 9b 5c 9e bc 27 00 00 3d
       -0.07457548 0.0162807 -0.019331267 0.031250145
0000c0 7e 39 e0 bd dd f1 99 bd a6 6e b2 3d 99 c2 1d 3d
       -0.10948466 -0.07516835 0.08712511 0.03851566
0000d0 18 36 4b 3d 3f 25 ee 3c 02 ff 28 3d ea 4b 9b bc
       0.049612135 0.029070495 0.04125882 -0.018957097
0000e0 93 73 02 3c ab 92 5e 3d 2a 04 8b bd 83 0a 9f 3c
       0.007962125 0.054339092 -0.067879036 0.019414192
0000f0 05 58 13 bc 91 59 b9 bd 1c d3 86 3d 95 c3 8e 3d
       -0.008993153 -0.090502866 0.06583235 0.06970898
000100 ec 10 ba 3d 50 e8 15 3d 58 be 4f bd 20 e1 c2 bd
       0.09085259 0.036598504 -0.050718635 -0.095155954
000110 84 05 57 3d 20 49 c3 bd 02 02 a0 bd 33 86 83 bd
       0.052495494 -0.09535432 -0.07812883 -0.06422081
000120 47 91 ee 3b d8 9f be bd 9a 88 a0 bd ca d3 14 bc
       0.007280502 -0.093078315 -0.07838555 -0.009083698
000130 b0 2a a5 bc 23 0f ef 3c f4 17 a1 bd 4b 8b 6c bd
       -0.020161957 0.029182022 -0.07865897 -0.057750028
000140 14 cb cc 3c b0 42 d2 bc c4 42 0c 3e 9c d2 ea bc
       0.024999179 -0.025666565 0.13697344 -0.02866488
000150 63 f1 90 3d 34 fe 11 3d fd 13 53 bd 22 d9 eb ba
       0.07077291 0.035642818 -0.051532734 -0.0017993788
000160 9f 4f bf 3c 5c eb 45 bd 8f c4 95 bd 44 5c d7 3d
       0.023353396 -0.04832016 -0.07312881 0.10515645
000170 4b f5 1e 3c 7e a1 d8 3c 9a f2 8f bd 7f 83 af 3c
       0.009702037 0.026444193 -0.070286945 0.021425007
000180 9e ad 19 bc 4d c8 e7 bb 02 33 3b bd df 0a af bc
       -0.0093797725 -0.0070734383 -0.04570294 -0.021367488
000190 89 ce 14 bd fd 2f bb bd 5e a0 82 bc 43 15 61 3c
       -0.03632978 -0.091400124 -0.01594561 0.013737979
0001a0 f4 fd 09 bd 7a 8c 5a bc 4d 2f a0 3b 3a fd 5a 3c
       -0.033689454 -0.013339156 0.004888451 0.013366038
0001b0 73 c3 a0 bb ed c9 c6 3d 13 5d c4 bd 93 f6 0c be
       -0.004906112 0.09706483 -0.09588065 -0.13765936
0001c0 16 a2 bf ba b2 3a e1 3c 3f 24 06 3d 23 c7 f5 bc
       -0.0014620449 0.027493808 0.03274941 -0.030002182
0001d0 2a 84 22 3d 6f 52 8f bd 4f 19 04 3c 56 8c 9a bd
       0.039676823 -0.06998145 0.008062675 -0.07546298
0001e0 50 0e a2 3d 48 34 c1 bd ca 0c c0 3c f6 0b 8a bd
       0.07912886 -0.094338 0.023443598 -0.067405626
0001f0 3b 46 73 3d dc b0 14 bd 80 5b 4e bb 77 68 34 3d
       0.05939315 -0.03630148 -0.0031487644 0.044044938
000200 f3 7c c5 bc 9e 84 7c bd 9f 86 0f 3c 61 be 2e bd
       -0.024107432 -0.06164991 0.0087601235 -0.04266203
000210 3b 53 3a bc 6e 28 94 3d 6e 08 08 3d 12 6a 28 ba
       -0.011372383 0.07234274 0.033211164 -0.0006424497
000220 53 94 6e bd 78 04 7b bd f4 d6 32 bd 24 1d 2d 3a
       -0.05824692 -0.06128356 -0.043662027 0.00066037686
000230 6f 4d 7e 3d fc 35 91 bd 44 5e 9d 3c 95 0f 3f bd
       0.062085565 -0.07090375 0.019209988 -0.04664572
000240 d8 ee f7 bc c1 0c 61 bd 87 02 24 3b bb ec 61 bd
       -0.030265257 -0.054943804 0.002502592 -0.055157404
000250 e4 ab fd bc 1c 26 8a bb ea 2b 3f bd 1b 9c 47 3c
       -0.030965753 -0.004215969 -0.04667274 0.012183215
000260 90 dc ff bb a3 13 a7 bd 65 c0 68 bc d1 27 be 3d
       -0.0078082755 -0.08158042 -0.014206027 0.09284938
000270 2d 8f 63 bc 0c f4 70 bd 89 a7 a7 3d 24 c2 cd 3b
       -0.013889116 -0.05882649 0.08186252 0.006279247
000280 d9 2c b9 bd 55 22 dd bd 0e 6d 11 bc c5 34 67 bd
       -0.09041757 -0.10797564 -0.008876098 -0.05644681
000290 0f 5c 99 3d 86 31 ff bc f1 92 fe 3c 58 f6 29 bc
       0.07488262 -0.031151544 0.031075926 -0.010373674
0002a0 aa 27 23 3c 80 3c a7 bc d5 fb 4d bc 82 18 3e bd
       0.009958187 -0.02041459 -0.0125722485 -0.04641009
0002b0 40 02 c2 bc df 07 9b bd 3d 4a 10 3d e4 c6 4a bd
       -0.023682714 -0.07569861 0.03522705 -0.049506083
0002c0 7d 5f 47 bd ca ac 17 3d 96 dd ab 3d 9b 93 24 3d
       -0.04867505 0.03703002 0.083918735 0.04017983
0002d0 e5 05 5a bd 15 83 63 bd 4f 46 81 bd 43 70 ba bd
       -0.053228278 -0.05554493 -0.063122384 -0.091034435
0002e0 25 2e 95 bd 6f c8 9b 3c 1f cb cc 3d d7 09 24 bd
       -0.07284192 0.019016473 0.0999968 -0.040048447
0002f0 3a b7 40 3d e7 4f 5f 3d 8d 14 14 3c c7 c5 67 bd
       0.04704974 0.05451956 0.009038103 -0.0565851
000300 c4 ea d5 bd 5c 7d 48 3d 5e b8 06 bd 0c 95 ff 3b
       -0.104451686 0.048947677 -0.03289067 0.00779975
000310 95 d2 20 bd 04 cf 93 3b 76 f9 14 be c2 a0 3d bc
       -0.039263327 0.004510762 -0.14548287 -0.011573972
000320 a0 9a da 3d 5c 6c 83 bd 60 84 16 bc ba 3f 5e bc
       0.10674024 -0.06417152 -0.009186834 -0.013564998
000330 4f 37 e8 3c 94 b9 cd 3c 65 ff cd 3d b0 0b 01 3d
       0.028346686 0.025112905 0.10058478 0.031505287
000340 c0 95 d9 bd dc 40 a5 bd 6b 91 68 3c c3 94 23 bd
       -0.10624266 -0.080690116 0.014194827 -0.039936792
000350 32 54 eb bc 98 1b 64 3d 53 db 2a 3c 43 e7 29 bd
       -0.02872667 0.055690378 0.0104282675 -0.041480314
000360 4f 2c b5 3c 61 f4 3b bd 70 ec 79 bc 53 b3 52 bd
       0.022115855 -0.045887355 -0.015254125 -0.05144055
000370 c7 dd e1 3c 1a a2 56 bc 92 58 5f 3d e8 80 f6 bc
       0.027571572 -0.013100171 0.054527827 -0.030090764
000380 ed a9 90 bd 48 3f a4 bd 9b f2 36 bd a3 95 2f 3d
       -0.07063661 -0.080198824 -0.04466496 0.042867314
000390 de f5 97 3c 12 b9 88 3d 59 e7 8b bd d2 bd 90 3d
       0.018549856 0.06675924 -0.068312354 0.07067455
0003a0 2a 28 8d 3c 87 70 f3 3c 92 b5 56 3d f9 1f 3d 3d
       0.017231066 0.029716743 0.052419253 0.04617307
0003b0 56 fe 9c bc 36 40 07 bd ca 79 59 bc 6d 44 67 bd
       -0.019164246 -0.03302022 -0.013273666 -0.05646174
0003c0 a1 da a9 bd 83 4c 08 3d 01 22 71 3d f8 af 7b 3d
       -0.08293653 0.033276092 0.05887032 0.061447114
0003d0 4e 7e e5 bd 1e 9e 29 bd 00 51 b9 bd aa 0a 44 bc
       -0.11205731 -0.041410558 -0.09048653 -0.011965433
0003e0 de c5 e4 bd a0 e1 11 bd 47 84 74 3d 93 e9 16 bc
       -0.11170553 -0.035615563 0.059696462 -0.009210962
0003f0 4c 85 00 3d 64 24 7e bd dc c3 8f 3d 8e d4 2b bd
       0.03137712 -0.062046424 0.07019779 -0.041950755

4.bias f4 [128]
000000 95 f5 32 bd a5 39 85 bd 7d 82 a1 3d 85 2a e2 3b
       -0.043691237 -0.065051354 0.07886217 0.0069020414
000010 2b eb 07 3d 19 e3 01 bd d4 ef fb 3c 0b 40 0c bd
       0.033183258 -0.031710718 0.030754007 -0.034240764
000020 db f1 17 bd e2 fb 07 3c 66 85 22 bd 30 9e 7b 3d
       -0.037095886 0.0082998 -0.039678 0.061430156
000030 f8 49 85 3d 5b 67 6c bd 3e e5 a3 3c c9 7a 5c 3d
       0.06508249 -0.057715755 0.020006772 0.053828035
000040 00 30 1b 3d 84 f1 75 bd f0 61 b1 bd 89 df ca 3c
       0.037887573 -0.06004478 -0.08661258 0.024764793
000050 87 69 19 3d d4 57 ac 3d c4 d1 18 3d 5e f4 7d 3d
       0.037454154 0.084151894 0.037309423 0.062000625
000060 cb 25 ac 3d e5 f4 84 3c 75 2b 9b bd e3 64 91 3d
       0.08405646 0.016230056 -0.07576648 0.07099321
000070 1d 08 d6 3c 85 fc 6f bd 32 8b 9d 3d 29 f8 85 bd
       0.026126916 -0.05859043 0.07692565 -0.065414734
000080 1e 2c 09 3d f8 66 98 3b 8e 4c 48 3d 8b 8c b8 3c
       0.03348934 0.0046509467 0.048901133 0.022527954
000090 10 65 eb ba 36 84 73 bd 4e 19 45 bd a9 39 ab 3d
       -0.0017959196 -0.059452258 -0.048119836 0.08360607
0000a0 ef 18 9e 3d 1b f9 8f 3d 65 6f 98 bd 67 00 86 3b
       0.077195995 0.07029935 -0.07443122 0.0040894034
0000b0 6c d9 bc bc b0 73 6e 3d b0 ea cf bc f9 00 00 bd
       -0.023052894 0.058215797 -0.025380462 -0.031250928
0000c0 91 0e 6f bd 92 e6 a1 bd 6e ad 82 bd 12 00 8b bd
       -0.0583635 -0.07905306 -0.06380735 -0.06787123
0000d0 89 9f 71 3c 07 28 09 bd 86 10 79 bd b3 cd 7d bc
       0.014747509 -0.03348544 -0.060806774 -0.015490937
0000e0 72 7b b3 3b fa 74 27 3d a6 ce a3 3d f0 5d 54 ba
       0.0054773623 0.040883042 0.079983994 -0.0008101156
0000f0 86 d2 49 bc b4 7f b3 3d 3b 57 45 3d af 91 a9 bc
       -0.012318259 0.08764592 0.048178893 -0.02069935
000100 15 80 2b bc 72 de 3c 3d ea 5d 7c bd 72 1c 8d bd
       -0.010467549 0.046110578 -0.061613 -0.06890191
000110 55 fd 3d bd e1 a4 02 3d a4 43 2c 3c d0 12 b1 bd
       -0.046384174 0.031895522 0.010514174 -0.08646166
000120 f2 25 23 3d 19 98 04 3d 9d a8 a6 3d c1 6f 2f 3c
       0.03983111 0.032371614 0.08137629 0.010707797
000130 5a 71 af bd 52 a2 a4 bd ee 27 a8 3c 56 f5 7a 3c
       -0.08566542 -0.08038773 0.020526852 0.015317282
000140 e3 52 e3 3a 13 30 19 3d 44 84 aa 3d bd aa e4 bc
       0.0017343428 0.037399363 0.08326009 -0.027913446
000150 53 a1 62 3d e8 bc a0 bd 95 cc 79 3d 1d 9a 2b bc
       0.055329632 -0.07848531 0.06098612 -0.010473755
000160 40 c9 98 bd 5b 2b 3d 3c 55 ee 18 ba 8a 28 7a bb
       -0.074602604 0.011545981 -0.0005833854 -0.0038171136
000170 9e a9 35 3c 9c 5d b8 3c bb 8b 93 3d fd 6f 95 bd
       0.011087803 0.022505574 0.07204386 -0.07296751
000180 15 5c 5e bc 43 37 3c 3d 6c 28 10 3d 1e 5a 08 3d
       -0.013571759 0.04595114 0.0351948 0.033289067
000190 dc 29 98 bd d9 40 ed 3b dd 7b 98 3d 76 e2 9c 3d
       -0.07429859 0.0072403965 0.074455 0.076603815
0001a0 3d b0 93 3d 45 df fc 3a 08 9d 40 3d 76 5e 12 bd
       0.07211349 0.0019292614 0.047024757 -0.035734616
0001b0 b6 fc 6e 3d d3 a2 11 bc 3e e7 96 3d 7e a7 86 3d
       0.058346473 -0.008888918 0.07368325 0.06574915
0001c0 d5 7a 58 bd c2 7b a9 3d 5f 99 8d 3d 7e 97 34 bd
       -0.052851517 0.08275558 0.06914019 -0.044089787
0001d0 3c 5a a2 3d c3 89 03 bd 27 ce 88 bd b7 ad 07 3d
       0.07927367 -0.0321138 -0.066799454 0.03312465
0001e0 84 86 48 3d a2 aa 61 bd f0 aa 34 3d 90 20 a9 bd
       0.04895641 -0.05509437 0.04410833 -0.08258164
0001f0 bf 0d 65 bd cf 6a 91 3d f8 43 40 3d 93 9c 6d bd
       -0.055921312 0.0710045 0.04693982 -0.05801065

5.weight f4 [128]
000000 0a a5 8d 3f 2a 52 8d 3f c3 96 90 3f e0 9f 93 3f
       1.1065991 1.10407 1.1296009 1.1533165
000010 b3 d3 8e 3f 52 a3 92 3f a2 92 92 3f ac 76 8e 3f
       1.1158355 1.1456091 1.1450999 1.1129966
000020 46 36 91 3f 79 f6 88 3f 11 f7 91 3f 61 0d 92 3f
       1.1344688 1.0700217 1.1403524 1.1410333
000030 10 84 90 3f 05 e9 8c 3f ec e7 8c 3f 3c 6b 87 3f
       1.1290302 1.1008612 1.1008277 1.05796
000040 05 a0 8e 3f a3 f6 91 3f 1d 8a 87 3f 7c 6e 9a 3f
       1.1142584 1.1403393 1.0589024 1.2064967
000050 65 9a 99 3f 95 4d 90 3f ea 38 8c 3f 63 c1 8e 3f
       1.2000242 1.1273676 1.0954869 1.1152767
000060 4a d7 90 3f f1 1c 95 3f e3 8b 99 3f dc 63 8e 3f
       1.1315701 1.1649457 1.1995815 1.1124225
000070 bb 0e 8b 3f 98 0b 8f 3f 3c 83 90 3f 48 7d 8f 3f
       1.086387 1.1175413 1.129005 1.1210108
000080 54 5d 8a 3f db 33 92 3f d6 bd 8e 3f bf 5f 8e 3f
       1.0809731 1.1422075 1.1151683 1.1122969
000090 60 5f 8e 3f 03 dc 8d 3f 0f 9c 8e 3f f9 62 98 3f
       1.1122856 1.1082767 1.1141375 1.1905204
0000a0 96 f2 8a 3f f3 05 8f 3f c6 49 94 3f fa 5d 8f 3f
       1.0855281 1.117369 1.1585014 1.1200554
0000b0 f6 31 88 3f c6 80 8a 3f a8 0d 91 3f f1 0b 92 3f
       1.0640247 1.0820549 1.1332293 1.1409894
0000c0 ab 74 90 3f 2c b0 8f 3f c9 ef 90 3f 97 87 8a 3f
       1.1285604 1.1225638 1.1323177 1.0822629
0000d0 32 c4 97 3f 22 9d 8e 3f 07 fd 8b 3f 8e 09 90 3f
       1.1856749 1.1141703 1.0936593 1.1252916
0000e0 d8 32 92 3f 1b 77 8e 3f 91 ff 8c 3f cb fa 93 3f
       1.1421766 1.1130098 1.1015493 1.1560911
0000f0 af 9c 96 3f 63 f3 8d 3f 89 07 8c 3f 19 48 8c 3f
       1.1766566 1.1089901 1.09398 1.0959502
000100 5e b1 95 3f 05 eb 8f 3f 7c a6 90 3f 34 17 8e 3f
       1.1694753 1.1243597 1.1300807 1.1100831
000110 e7 d5 8f 3f 38 f6 8d 3f 24 e2 8d 3f b0 b7 93 3f
       1.1237153 1.1090765 1.1084638 1.1540432
000120 75 b7 8e 3f ce 05 8c 3f b6 4e 8e 3f e7 36 96 3f
       1.1149737 1.0939271 1.1117771 1.1735505
000130 cf 8c 90 3f 6f a7 92 3f 57 77 90 3f 5f 0e 8e 3f
       1.1292971 1.1457347 1.128642 1.1098136
000140 c1 a4 90 3f fb 4e 96 3f 2c e5 8c 3f 20 88 8c 3f
       1.1300279 1.1742853 1.1007438 1.0979042
000150 7c 33 92 3f 57 10 8e 3f 09 84 8d 3f af 15 93 3f
       1.1421962 1.1098737 1.1055919 1.1490992
000160 52 c1 8a 3f 19 73 96 3f 47 15 9b 3f 60 81 90 3f
       1.0840247 1.1753875 1.2115868 1.1289482
000170 91 31 8c 3f 78 73 94 3f 21 76 93 3f 97 18 8b 3f
       1.0952626 1.1597738 1.1520425 1.0866879
000180 0a f9 86 3f f0 bd 92 3f 0b 64 8e 3f ab 27 8a 3f
       1.0544751 1.1464214 1.1124281 1.0793356
000190 d7 eb 8e 3f ff 9e 97 3f 2d 54 90 3f 5f 4f 8c 3f
       1.1165723 1.1845397 1.1275688 1.0961722
0001a0 56 34 94 3f 2e 0a 8a 3f 9f 9c 8e 3f b2 af 8f 3f
       1.1578472 1.0784357 1.1141547 1.1225493
0001b0 86 1b 90 3f 95 76 8e 3f 26 d2 89 3f c2 10 90 3f
       1.12584 1.1129938 1.0767257 1.1255114
0001c0 cf e6 93 3f 72 67 8c 3f 8e 01 8d 3f c5 19 97 3f
       1.1554812 1.0969069 1.10161 1.1804739
0001d0 99 35 94 3f 07 71 95 3f c4 c7 8b 3f 3b 62 91 3f
       1.1578857 1.1675118 1.0920339 1.1358103
0001e0 dd df 8d 3f 9b d8 8c 3f be 7b 92 3f 12 c7 90 3f
       1.1083943 1.1003603 1.1444013 1.1310751
0001f0 2c 71 93 3f c9 ce 8e 3f c1 74 95 3f ad e9 91 3f
       1.1518912 1.1156856 1.1676255 1.1399437

5.bias f4 [128]
000000 ae 1b 7d bc da ef 91 bc 4a 48 75 3d 7d c2 36 3d
       -0.015448494 -0.017814565 0.059883393 0.044619072
000010 38 c6 b0 3d 16 8c e9 bc 8c 68 9a 3d 70 21 a0 3b
       0.08631557 -0.028509181 0.07539472 0.0048867986
000020 19 25 70 bd 48 9c 8e 3b 2a 10 2f 3c 50 7b bd 3d
       -0.05862913 0.0043521263 0.010685006 0.092520356
000030 54 d6 9b 3d e9 5b 80 3d a5 b0 51 3d 35 dd f2 3c
       0.07609239 0.062675305 0.051193852 0.029646495
000040 05 10 9f bc 12 ac fc 3c 9c 99 88 3c 8d fd d4 3d
       -0.019416818 0.030843768 0.01667481 0.103999235
000050 af 8c c9 3d 45 06 e4 3c d2 da 1a 3d 7c b3 57 3c
       0.098412864 0.02783502 0.03780634 0.013165351
000060 1b 61 7c 3d 90 05 fc 3d a2 fa 92 3d 6b b8 3c bb
       0.061616044 0.123057485 0.07176711 -0.0028796445
000070 89 8f 46 3d 75 46 91 3d 2b 83 80 3d dc ef 54 3d
       0.04847673 0.07093517 0.06275018 0.05198656
000080 da fe 07 3d 66 58 e9 3c 8e c3 60 3d 17 58 89 3d
       0.03320203 0.028484534 0.054873995 0.06706255
000090 ea 7c 8b 3c f1 22 e1 3c 09 1e 5d bb ad 95 f2 3d
       0.017027337 0.027482482 -0.0033739826 0.11844955
0000a0 02 29 16 3d f0 6c 4b 3c 3e 51 30 3d 8c aa 54 3c
       0.0366602 0.012416109 0.04304623 0.012980115
0000b0 f7 8b 1f 3d 2f 97 33 3d f1 e4 87 3d 7f 7c e0 3b
       0.03895184 0.04384535 0.06635464 0.0068507786
0000c0 b1 00 dd 3c de e0 38 3d e3 55 6a 3d 1a c4 8b 3d
       0.026977869 0.045136325 0.057210814 0.06824513
0000d0 1a 31 a3 bc 46 82 cd 3d 08 f6 00 3d ea 32 d0 3d
       -0.019920874 0.10034613 0.031484634 0.10165961
0000e0 3a c8 b3 3d 2b a6 6b 3d 57 ab a8 3d 22 eb af 3d
       0.087784246 0.057531517 0.082358055 0.0858977
0000f0 e5 e2 d3 3b 56 cc 0a 3d 89 db 19 3d 38 bd d2 3c
       0.006466257 0.033886276 0.03756288 0.025724992
000100 c9 36 e7 3d 0e 69 e5 3d 73 7c 05 3d 1d fb 8b 3d
       0.11289746 0.11201678 0.032589387 0.068350054
000110 9e 29 2b bb c3 88 d7 3c 76 87 79 3d f7 4e ec 3c
       -0.0026117335 0.02631033 0.0609202 0.028846247
000120 de 9e c7 3c c4 ea be 3d dd 91 4c 3d 60 45 0d 3c
       0.024367746 0.09322122 0.049943794 0.008622497
000130 27 1b 9f 3d 48 f5 d2 3b 1b 98 65 3d e2 43 24 3d
       0.07768851 0.006437931 0.056053262 0.0401038
000140 48 c3 50 3d 40 52 24 3d ba 95 1a bc 5b d3 4d 3c
       0.050967485 0.040117502 -0.009435112 0.012562598
000150 b9 08 d8 3d 1e 8a ce 3c 72 09 86 3d 76 5e e2 3d
       0.10548539 0.025212344 0.0654477 0.11053173
000160 8b 73 6a 3d e1 10 f5 3c 22 68 d4 3c 01 c7 9b 3d
       0.057239097 0.029915275 0.02592856 0.07606316
000170 e4 85 ef bb 2a f8 11 3c d6 7c ff 3d 3e a7 56 3d
       -0.007309662 0.008909265 0.124749824 0.05240559
000180 c7 d3 42 39 39 81 7d 3d 89 05 5b 3d fa 51 55 3d
       0.00018580175 0.061890814 0.053472076 0.052080132
000190 33 09 36 3d 3d 7e fd 3d 09 e0 87 3d 89 14 a4 3c
       0.044442367 0.12377594 0.06634528 0.020029323
0001a0 d6 6b 34 3d 25 ce f3 3c ba ae 51 3d 46 cd 7c 3d
       0.044048153 0.029761383 0.051192023 0.0617192
0001b0 ff 8c 09 3d b5 45 27 bc 04 f1 9f 3c a9 e1 d4 3c
       0.03358173 -0.010209491 0.019524105 0.02598651
0001c0 eb ce 8b 3d 6f e8 26 3c 92 f0 83 bd 01 89 95 3d
       0.06826576 0.010187252 -0.064423695 0.07301522
0001d0 01 87 b5 3d e0 39 89 3d 92 d1 a1 3a 09 d6 7c 3d
       0.088636406 0.06700492 0.0012345782 0.061727557
0001e0 43 37 43 3d 86 74 5e 3d 2a 05 4b 3d 22 45 10 3d
       0.047660124 0.054310344 0.04956547 0.03522218
0001f0 ba 55 d7 3d d8 a9 99 3c 32 52 f8 3a c1 32 da 3c
       0.10514398 0.018757746 0.0018945395 0.02663553

5.running_mean f4 [128]
000000 a2 5b af be 86 89 13 bf 1a 26 16 be d0 1a e0 be
       -0.34249598 -0.5763172 -0.14662972 -0.43770456
000010 ba 5e 7c be 11 41 b3 be 5f 45 fa bd e6 81 f8 bd
       -0.2464551 -0.3501058 -0.12220263 -0.12134151
000020 c2 0d ef be 21 dd aa 3d 9a a9 74 be d6 48 84 3e
       -0.46690184 0.08342958 -0.23892823 0.2583682
000030 bf d2 94 be c8 95 1c be 5f 9b 8c be 45 35 98 3d
       -0.29067037 -0.15291512 -0.2746229 0.07432035
000040 60 a3 8b be b2 f0 95 be 0c 83 f4 be 02 70 2d be
       -0.27273083 -0.29285198 -0.4775623 -0.16937259
000050 5c 86 40 be 25 63 54 be d5 85 28 3b 18 b8 96 be
       -0.18801254 -0.20740946 0.0025714536 -0.29437327
000060 b1 57 50 3e dc e9 55 be 83 b5 87 be be a7 9b be
       0.20345952 -0.20889992 -0.2650567 -0.30401415
000070 9c 3e 87 bc db fc 4d be 07 fe 33 be 81 c9 b6 be
       -0.016509347 -0.20115988 -0.17577372 -0.3570061
000080 9b 7d 06 bc bc 0f 07 bf 22 e4 9d be 67 bf b9 bd
       -0.008208658 -0.52758384 -0.30838114 -0.0906971
000090 3d 9d 77 be 34 78 2b be cd 44 b5 be 7e bc d8 bd
       -0.24181075 -0.16745073 -0.35404053 -0.10582827
0000a0 25 00 ca be 8b b1 ab bd 47 5f d3 be 58 7a 49 be
       -0.39453235 -0.08383473 -0.41283628 -0.19675577
0000b0 f5 2b 58 3d f9 3d 26 be 6f 4b 62 be 73 fc 15 be
       0.052776296 -0.16234578 -0.22099088 -0.14647083
0000c0 56 db e1 be 2b b8 e0 be 02 bb 08 bf f2 ac 92 be
       -0.44112653 -0.4389051 -0.5341035 -0.28647572
0000d0 de 7b bb be 7e ea bd be 1b d9 a6 be de 94 19 be
       -0.3661794 -0.37092966 -0.32587513 -0.14998195
0000e0 cd f0 d9 bc de f6 bb be 76 48 5d be 9e 2c 41 be
       -0.02660408 -0.36711782 -0.21609673 -0.18864676
0000f0 bf 35 3e bf 5a a5 94 be c4 9f 4a be 55 58 7c be
       -0.7430076 -0.29032403 -0.19787508 -0.24643071
000100 c9 ab 89 be 9d 40 c9 bd 3d 90 d4 be 5c 1f 93 be
       -0.26888874 -0.09826777 -0.41516295 -0.28734863
000110 16 13 14 bf 15 7a e9 3d 75 9a d2 be da 3f e6 be
       -0.5784162 0.114002384 -0.41133466 -0.4497059
000120 e4 63 08 3e 43 99 82 bd 39 f4 9d bd e5 72 f6 be
       0.13319355 -0.063768886 -0.077125974 -0.48134533
000130 ac a0 0d bf be 09 0f bf b6 28 01 bf b6 6f 14 bd
       -0.5532329 -0.5587424 -0.50452745 -0.03623935
000140 cc ed 15 bf ce 60 31 be 68 72 68 be df 25 bf be
       -0.58565974 -0.17322084 -0.22699893 -0.3733358
000150 a9 80 51 be 11 39 e0 bd a8 e7 b3 bd de 0f cb bd
       -0.20459236 -0.109483846 -0.08784419 -0.09915136
000160 ab 2b 00 bf 22 5a 22 bf 72 04 ef be 4b d6 a8 be
       -0.5006663 -0.6341878 -0.4668308 -0.32975993
000170 4f 69 e5 be 42 1c 8e be b4 2f a6 bd 0e f3 86 3d
       -0.44806907 -0.27755934 -0.081145674 0.06589328
000180 7e 4d d4 be e9 68 45 be 67 be 01 bf 75 7c a5 be
       -0.41465372 -0.19278301 -0.50681156 -0.32321516
000190 cf 58 11 be 4d 25 41 be eb 1f b8 3d ab 7b ca be
       -0.14194034 -0.18861885 0.08990463 -0.39547476
0001a0 24 a3 50 be 21 a1 d2 be 23 4b b2 be 32 9b 06 bf
       -0.20374733 -0.41138557 -0.3482295 -0.5258056
0001b0 e7 ec b8 be 13 26 c6 be 25 1c 4c bc 3a bd 12 be
       -0.36118242 -0.38700923 -0.012457882 -0.14329997
0001c0 99 c9 47 bd bc 31 8d be 52 14 20 be 54 3a 63 be
       -0.048776243 -0.27577007 -0.15632752 -0.22190219
0001d0 e6 f2 8f bc 51 b8 32 be fd 1a 01 bf c1 e1 20 be
       -0.017571878 -0.17453124 -0.50431806 -0.15711118
0001e0 ab be fa be f7 34 9c bd 20 1b 0d be af 0a 04 bf
       -0.48973593 -0.0762729 -0.13779879 -0.515788
0001f0 8d aa 88 be a3 25 b1 be da 5f b3 be de 70 22 be
       -0.2669262 -0.34599027 -0.35034066 -0.15863368

5.running_var f4 [128]
000000 d8 57 92 3e 5e 1f 89 3e a3 c0 88 3e d5 c7 db 3e
       0.28582644 0.26781744 0.2670947 0.42925897
000010 78 05 90 3e 38 c0 ba 3e 0e ac 8b 3e 4c b5 36 3e
       0.28129172 0.36474776 0.27279705 0.17842597
000020 e6 87 a9 3e 14 bf 65 3e 74 12 e3 3e 33 db 79 3e
       0.33111495 0.22436172 0.44350016 0.24400024
000030 18 89 9d 3e 6e 4d de 3e bb 0b ca 3e 86 69 cf 3e
       0.30768657 0.4341845 0.39462075 0.40510195
000040 ec 9a 9d 3e 83 48 90 3e 45 16 66 3e a4 2b ea 3e
       0.3078226 0.28180322 0.22469433 0.4573642
000050 5e 6a ca 3e b6 7d a6 3e 60 27 d6 3e 0d 90 04 3f
       0.39534277 0.32517785 0.41826916 0.51782304
000060 56 65 84 3e 85 d4 12 3f 85 b3 b0 3e 75 6c b0 3e
       0.25858563 0.5735553 0.34511963 0.34457746
000070 d4 41 b4 3e 72 da ed 3e 62 7a a6 3e 6a 8e af 3e
       0.35206473 0.46455723 0.32515246 0.3428834
000080 91 02 a5 3e bc 10 a0 3e f5 eb 9f 3e 6e c2 de 3e
       0.3222852 0.31262767 0.31234708 0.43507713
000090 96 05 2d 3e e8 90 7c 3e 70 02 a2 3e 70 5a 9f 3e
       0.16896662 0.24664652 0.31642485 0.31123686
0000a0 ac 31 a6 3e 4d fb a0 3e 40 44 92 3e 14 25 52 3e
       0.32459772 0.31441727 0.28567696 0.20521957
0000b0 76 fe 85 3e fa 72 71 3e 32 c5 a4 3e 9c eb bd 3e
       0.261707 0.23579016 0.32181698 0.37093818
0000c0 f2 aa 8d 3e ed de a3 3e 37 0f 8c 3e cb 11 b5 3e
       0.27669483 0.32006016 0.27355358 0.35365137
0000d0 a9 e8 c1 3e 70 60 86 3e 22 c3 8b 3e f6 ed b4 3e
       0.37872818 0.2624545 0.27297312 0.353378
0000e0 a9 44 b2 3e 4b 86 b6 3e 3e d2 9a 3e 25 d1 ed 3e
       0.3481801 0.35649332 0.30238527 0.46448627
0000f0 3c 4d f8 3e a8 1b 45 3e 94 12 82 3e a5 08 8a 3e
       0.48496425 0.19248831 0.254048 0.2695972
000100 0e 8a ea 3e 62 0a 06 3f 53 86 b7 3e 57 2b 93 3e
       0.45808452 0.5235959 0.3584467 0.28744003
000110 55 3a d5 3e 45 c3 8d 3e 18 94 df 3e af 5f b8 3e
       0.41646066 0.2768804 0.43667674 0.360105
000120 0f 63 95 3e 69 12 84 3e 4b 34 8b 3e 29 67 c8 3e
       0.29177138 0.25795296 0.27188334 0.39141205
000130 6a 6d a0 3e 0e 49 a7 3e ed 8f 92 3e 98 22 d1 3e
       0.31333476 0.32672924 0.28625432 0.40846705
000140 76 64 b8 3e c4 79 9a 3e 0b 67 a0 3e 7f f5 b2 3e
       0.36014146 0.30171025 0.31328616 0.34952924
000150 bb cb c5 3e 06 b7 91 3e 6a 1f 61 3e 65 5c 22 3f
       0.38631997 0.28459948 0.2198464 0.6342223
000160 dc 4f 8b 3e 6b dd f4 3e c9 e3 c1 3e 75 71 a1 3e
       0.27209365 0.47825179 0.378691 0.31531873
000170 18 42 7b 3e 58 4b 72 3e 2a fc de 3e 11 f7 82 3e
       0.24536932 0.23661554 0.4355176 0.25579122
000180 f8 14 5e 3e 6b 50 cc 3e d9 05 95 3e 3e 05 a1 3e
       0.21687686 0.39905104 0.29106024 0.31449312
000190 a5 b3 b9 3e 31 3b e6 3e 91 90 6f 3e df 44 83 3e
       0.3626987 0.44967034 0.23394991 0.25638482
0001a0 2e 49 c2 3e f8 47 95 3e 2f c0 84 3e 68 d7 75 3e
       0.37946457 0.2915647 0.25927874 0.24007952
0001b0 5d ec 9c 3e c2 46 57 3e fb 4f 6f 3e ba f4 96 3e
       0.3064908 0.21023086 0.23370354 0.29483587
0001c0 3e 18 b7 3e 79 2a a5 3e 66 08 5b 3e 57 5e b5 3e
       0.35760683 0.32258967 0.21389922 0.35423538
0001d0 bd 88 41 3e e1 f9 d5 3e c8 dd 75 3e 8c 03 bf 3e
       0.18899818 0.41792205 0.24010384 0.37307394
0001e0 d3 2a 91 3e 0e f8 86 3e 5f c5 b2 3e f1 0c ad 3e
       0.28352985 0.26361126 0.34916207 0.33798936
0001f0 7a a2 fc 3e e2 64 69 3e 51 42 99 3e f6 eb 82 3e
       0.4934271 0.2279239 0.29933408 0.2557065
